data/models/V8_model_full.pth (torch, 117640 bytes, 26 tensors)

weight f4 [8, 2, 5, 5]
-0.067756236 0.03142596 0.107407585 -0.18375134 -0.45122772 0.15798885 0.22268522 0.12948127
-0.20909184 -0.026143624 0.11495498 -0.050116643 0.16405128 0.33354592 0.01170151 0.2947613
-0.15661004 0.22169337 -0.08940109 -0.1312824 0.218453 -0.027830513 0.068524875 0.25513357
-0.085776016 0.2729128 -0.2176799 -0.05468665 -0.01992745 0.033862207 -0.23099267 -0.17963015
-0.17263502 0.063706 0.19478066 0.18471663 -0.04900973 0.238232 -0.10384419 -0.26495108
0.14226694 -0.034503452 0.072917506 -0.093690135 0.17983007 0.21561421 0.24823505 0.2408893
-0.1487202 0.3387254 -0.020722022 0.07868368 0.10434184 -0.020605814 -0.07905514 -0.17638281
0.29950157 0.05448235 0.09598075 0.054428965 0.23844865 -0.14207682 -0.054132674 0.45498124
-0.2645308 -0.042668227 0.0604913 -0.08886059 0.13409731 -0.2535004 0.03699114 0.11784677
0.18293369 0.0010900836 -0.25227562 0.03639545 0.0132470215 0.24990144 -0.061887667 -0.23824213
-0.3594434 0.055809442 0.40593717 0.076811284 -0.014288868 0.12643284 -0.2297265 0.03725514
0.18021631 -0.039057687 0.23033647 0.24960095 -0.095217906 -0.45842597 -0.06840362 0.44945654
0.34912527 0.100031234 0.23076513 0.03776445 0.099113 0.1721048 -0.24722555 0.14714643
0.00403149 0.4128305 -0.040816385 -0.09322616 -0.024039697 -0.052912947 -0.15119311 -0.21358936
0.021860711 -0.09584778 0.27783144 0.13078935 0.29466578 0.010751501 -0.039648227 -0.13545607
0.18923508 0.12010136 0.26456487 -0.29370767 -0.23163936 0.19049604 0.06912437 -0.0011070768
0.1366351 0.20619133 0.2655965 0.1985146 0.13869216 0.3159867 -0.113885805 -0.21262951
0.14160198 -0.19943912 0.31544447 -0.1041215 0.15223663 -0.38713863 0.08561479 0.29724222
-0.30695575 0.2945049 -0.23362286 0.060013708 -0.029654203 -0.25794166 -0.39302227 -0.2224301
0.35077357 0.30162454 -0.023257576 -0.13038972 0.112558044 -0.17492169 0.16631816 0.2993234
0.055496864 0.08066169 0.091334574 -0.20514277 0.13293073 -0.002321275 0.26673576 -0.20788188
-0.12089598 0.10220153 -0.019586258 0.124587215 -0.036733326 -0.21804176 0.18517067 0.079774
0.16548564 0.30959553 0.1428506 -0.056527887 -0.014984201 -0.19168931 0.1518518 0.096123815
0.14597632 -0.29057664 0.3897664 -0.06792436 -0.044819634 0.0029566272 0.22120251 -0.028445259
-0.25739664 0.3689942 0.2993659 0.016412167 -0.05468753 -0.18346731 0.002558686 0.19389737
0.17403415 -0.08152848 -0.5006275 -0.1912929 0.1114246 -0.17205834 0.006385719 -0.08479988
0.39050642 -0.48271155 -0.14242128 -0.1987495 -0.17993483 -0.094668575 -0.1848071 -0.2331843
0.047513176 0.04450414 0.06323645 0.21243036 0.24920776 0.17121498 0.21228367 0.1918203
0.008386973 0.099688485 -0.4748909 0.111258976 -0.24630427 0.08546688 -0.33365902 0.31691465
0.041666813 -0.23498775 0.009708751 -0.2162343 0.08496064 -0.007996062 0.23511022 -0.07555634
-0.21741295 -0.29061905 0.37930068 -0.013593294 -0.09101342 -0.25836512 -0.14775091 0.03449752
0.25685334 -0.27999488 -0.15039079 0.15332413 -0.21085267 0.15917619 -0.021281926 -0.06150934
00000000: c8c3 8abd 82b8 003d 82f8 db3d 5029 3cbe
00000010: 5207 e7be d4c7 213e 9807 643e bd96 043e
00000020: 2c1c 56be 272b d6bc 846d eb3d 1c47 4dbd
00000030: 0ffd 273e 88c6 aa3e b1b7 3f3c f4ea 963e
00000040: 625e 20be 9603 633e eb17 b7bd e56e 06be
00000050: 25b2 5f3e d1fc e3bc c556 8c3d dea0 823e
00000060: 56ab afbd 3abb 8b3e 7be7 5ebe 1cff 5fbd
00000070: e43e a3bc 19b3 0a3d 5889 6cbe f7f0 37be
00000080: 3cc7 30be 4b78 823d 9574 473e 5b26 3d3e
00000090: 6dbe 48bd 17f3 733e 43ac d4bd aba7 87be
000000a0: 6dae 113e 7e53 0dbd c655 953d 9de0 bfbd
000000b0: 6025 383e f9c9 5c3e 5431 7e3e afab 763e
000000c0: 1c4a 18be 6a6d ad3e 3bc1 a9bc e924 a13d
000000d0: 2db1 d53d 86cd a8bc a9e7 a1bd b29d 34be
000000e0: 4558 993e e228 5f3d 8e91 c43d e8f0 5e3d
000000f0: e22b 743e 967c 11be 39ba 5dbd 4df3 e83e
00000100: 9570 87be e1c4 2ebd bac5 773d 8afc b5bd
00000110: ce50 093e ceca 81be 0684 173d a659 f13d
00000120: f852 3b3e 23e1 8e3a 452a 81be 6513 153d
00000130: 090a 593c 2ae6 7f3e ec7d 7dbd bff5 73be
00000140: f708 b8be 7198 643d ffd6 cf3e 3c4f 9d3d
00000150: db1b 6abc 9c77 013e 6c3d 6bbe d898 183d
00000160: a08a 383e f4fa 1fbd 53dd 6b3e 6497 7f3e
00000170: 9b01 c3bd cfb6 eabe 3217 8cbd 2b1f e63e
00000180: 8cc0 b23e 2ddd cc3d b24d 6c3e e5ae 1a3d
00000190: c2fb ca3d 3e3c 303e b228 7dbe 8ead 163e
000001a0: 971a 843b 855e d33e 152f 27bd 5bed bebd
000001b0: e6ee c4bc 3fbb 58bd 5ed2 1abe 2bb7 5abe
000001c0: 3c15 b33c d74b c4bd ec3f 8e3e a5ed 053e
000001d0: 6fde 963e 1027 303c 2e66 22bd ffb4 0abe
000001e0: d7c6 413e b4f7 f53d 0c75 873e da60 96be
000001f0: de32 6dbe 6511 433e 1491 8d3d 551b 91ba
00000200: 12ea 0b3e d223 533e 44fc 873e 6947 4b3e
00000210: 5105 0e3e 02c9 a13e f63c e9bd 8dbb 59be
00000220: 1c00 113e c539 4cbe f081 a13e a73d d5bd
00000230: ebe3 1b3e 0937 c6be cf56 af3d 2230 983e
00000240: 4e29 9dbe 59c9 963e d53a 6fbe efd0 753d
00000250: 5fed f2bc ee10 84be 373a c9be b7c4 63be
00000260: 9898 b33e 886e 9a3e ac86 bebc e284 05be
00000270: d584 e63d ac1e 33be 4f4f 2a3e eb40 993e
00000280: ae50 633d f531 a53d 9f0d bb3d f210 52be
00000290: fe1e 083e 8820 18bb 9791 883e fdde 54be
000002a0: 5098 f7bd 094f d13d 5c73 a0bc 9527 ff3d
000002b0: af75 16bd 5746 5fbe 619d 3d3e 8d60 a33d
000002c0: 1175 293e 4e83 9e3e 6d47 123e c989 67bd
000002d0: 4b80 75bc 344a 44be 0a7f 1b3e 90dc c43d
000002e0: d17a 153e 76c6 94be 768f c73e ed1b 8bbd
000002f0: cb94 37bd f9c3 413b e982 623e 0806 e9bc
00000300: 7ec9 83be cfec bc3e 7d46 993e cf72 863c
00000310: 0800 60bd dbde 3bbe a1af 273b 088d 463e
00000320: 0236 323e 67f8 a6bd 2029 00bf 49e2 43be
00000330: 9532 e43d 1030 30be 4b3f d13b 8fab adbd
00000340: 75f0 c73e f825 f7be e2d6 11be fd84 4bbe
00000350: d640 38be 99e1 c1bd 133e 3dbe ddc7 6ebe
00000360: 2d9d 423d f949 363d 1d82 813d 5887 593e
00000370: 5230 7f3e fb52 2f3e e460 593e 8a6c 443e
00000380: 8469 093c 7a29 cc3d e624 f3be bfdb e33d
00000390: 3037 7cbe 4209 af3d 5bd5 aabe a342 a23e
000003a0: d2aa 2a3d a1a0 70be 7411 1f3c 866c 5dbe
000003b0: d8ff ad3d ea01 03bc bcc0 703e 48bd 9abd
000003c0: 80a1 5ebe 05cc 94be b333 c23e 68b6 5ebc
000003d0: 3e65 babd 6f48 84be 044c 17be 464d 0d3d
000003e0: 4882 833e 7d5b 8fbe 0b00 1abe 0001 1d3e
000003f0: c3e9 57be 15ff 223e 6f57 aebc 38f1 7bbd

bias f4 [8]
0.03118204 0.01815937 -0.021388335 0.01000672 -0.019430026 -0.031566877 -0.008540468 -0.028495621
00000000: 7a71 ff3c f6c2 943c 9736 afbc 3af3 233c
00000010: b82b 9fbc 454c 01bd 52ed 0bbc a66f e9bc

weight f4 [8]
1.0081483 0.97813046 0.95535755 0.97319984 1.0492293 1.0127226 1.0115397 0.9981952
00000000: 010b 813f c266 7a3f 5092 743f a023 793f
00000010: 254d 863f e5a0 813f 227a 813f b889 7f3f

bias f4 [8]
-0.032869972 0.040465076 0.020007232 0.013817995 -0.05820547 -0.050774977 -0.048810538 -0.04539138
00000000: aaa2 06bd b5be 253d 35e6 a33c df64 623c
00000010: dc68 6ebd 6cf9 4fbd 8fed 47bd 50ec 39bd

running_mean f4 [8]
0.6171074 0.6372826 0.5455149 0.66638404 0.644934 0.9496717 0.6439168 0.7071945
00000000: c0fa 1d3f f424 233f dda6 0b3f 2598 2a3f
00000010: 651a 253f af1d 733f bbd7 243f b30a 353f

running_var f4 [8]
0.7892988 0.8101941 0.64722896 0.863005 1.5780822 3.5000284 1.5957863 1.8890632
00000000: 7c0f 4a3f e168 4f3f ccb0 253f e5ed 5c3f
00000010: 99fe c93f 7700 6040 ba42 cc3f d3cc f13f

weight f4 [16, 8, 3, 3]
-0.044224393 0.18676838 0.20050946 -0.2481768 0.002223069 0.16326147 -0.074592724 -0.16684358
-0.018124022 -0.38052994 -0.023104837 -0.13616997 0.19687292 -0.017035725 -0.39750242 0.15020683
-0.12858506 -0.08754821 -0.11499146 0.23734137 -0.03826658 -0.18771078 -0.012243429 0.08875677
0.0423936 -0.12524995 0.2328314 -0.13290569 0.24290676 -0.1427305 0.037104618 -0.06547302
0.03290917 0.1732797 -0.11161163 0.23846863 -0.049409226 0.09881337 0.1355766 0.002570168
-0.3060109 -0.100234516 0.12044417 0.02568266 -0.2228881 0.15503894 0.23669195 -0.15958963
0.101194076 0.059280924 -0.18172444 0.0148510365 0.045157515 -0.19611292 0.18692632 -0.07900464
0.019561002 0.14159201 -0.34641877 0.0035483106 0.17573784 0.15843077 -0.046355784 -0.15812112
-0.20283177 -0.22198239 0.3367659 0.002251584 0.16128391 0.24696004 -0.210213 0.025593393
-0.12605612 -0.19797826 0.03013486 -0.22447191 0.16426158 0.16394764 -0.11966 -0.059504416
-0.03163024 0.047588255 -0.07658598 0.30755326 0.013499117 -0.038114183 0.1401955 -0.23915085
-0.0090683475 -0.15815641 -0.11424491 -0.24019438 -0.12927039 0.06301073 -0.13004942 0.31652212
0.159823 -0.14215212 0.112381384 0.0869246 -0.22946668 -0.19432862 -0.29582688 0.17541742
-0.27464935 0.016279537 -0.0053461515 -0.21398306 0.19381353 0.016635671 -0.014782271 0.10428635
-0.042772435 0.00042767535 0.12779564 0.01719475 0.14269401 0.096080616 -0.13039865 -0.044240084
-0.2708999 0.11190165 -0.2757949 0.0026613246 0.0020074083 0.12868594 0.042762708 -0.007907577
-0.24869747 -0.08533672 0.17898045 0.18013735 0.016547268 0.12619025 -0.030608252 0.094546475
0.05146683 -0.013691218 -0.30574447 -0.04106226 -0.33729511 -0.08953188 0.025220199 0.098436065
0.27143982 0.12731709 -0.21314918 -0.15633515 -0.15172866 -0.16767177 -0.16934478 -0.16931087
-0.31453893 0.14869872 -0.29025742 -0.4127477 -0.25980088 0.13248438 0.19314803 0.085977465
0.3371506 -0.12179832 0.058932632 -0.14568825 0.026504757 0.041299462 -0.19285633 -0.22265609
-0.13774034 0.24491522 0.08113807 -0.21731265 -0.02812958 -0.03873141 -0.103866726 0.024045372
0.013190139 0.24846354 -0.02581291 -0.24241321 0.3311969 -0.10234018 0.3320574 -0.014506349
0.14186405 0.08731057 -0.07268116 -0.0705671 0.07728171 -0.14713535 0.03890715 -0.11939803
-0.35240427 0.16935438 -0.11637895 -0.19690235 0.01225132 -0.084164195 0.07400428 -0.03262827
0.42359775 0.32199952 0.03236547 -0.21283567 0.045204744 -0.056692597 0.24111246 0.2914536
-0.21145745 0.11578676 0.20758066 -0.07243079 -0.031082084 -0.042364173 -0.13482302 -0.028860334
-0.0539829 0.120890155 0.024085775 -0.041468218 -0.22710927 0.0002665341 0.2984775 0.18065019
-0.032813646 -0.03348651 0.045534503 -0.016844386 -0.21848938 -0.00711763 -0.16580762 -0.07687885
-0.019322112 0.12605333 0.011372072 -0.039614826 0.25172588 -0.087674364 0.025298608 0.18274713
-0.2129708 0.044629645 0.027980292 -0.053940102 -0.105433114 -0.40182653 -0.0054767444 -0.07099126
0.11685374 -0.0005751003 0.0681401 0.19545485 0.18371336 0.0034696655 0.06988633 -0.019888837
00000000: a324 35bd 3640 3f3e 5a52 4d3e 0f22 7ebe
00000010: e9b0 113b 042e 273e 12c4 98bd 0bd9 2abe
00000020: d478 94bc d2d4 c2be 5b46 bdbc 2470 0bbe
00000030: 0e99 493e 818e 8bbc 7085 cbbe d2cf 193e
00000040: cdab 03be 7a4c b3bd a580 ebbd 9e09 733e
00000050: 6bbd 1cbd 4137 40be aa98 48bc 1cc6 b53d
00000060: e9a4 2d3d 8641 00be 5b6b 6e3e 6e18 08be
00000070: 8dbc 783e f227 12be 03fb 173d b816 86bd
00000080: c4cb 063d 3c70 313e a394 e4bd 1f31 743e
00000090: 5461 4abd aa5e ca3d 98d4 0a3e 4470 283b
000000a0: 76ad 9cbe c147 cdbd 6fab f63d 7164 d23c
000000b0: c73c 64be 87c2 1e3e 605f 723e 776b 23be
000000c0: d73e cf3d 8ed0 723d f915 3abe c351 733c
000000d0: 16f7 383d d3d1 48be 9d69 3f3e 2fcd a1bd
000000e0: 653e a03c 7ffd 103e cd5d b1be c68a 683b
000000f0: 9ff4 333e ad3b 223e 90df 3dbd 81ea 21be
00000100: 22b3 4fbe 5a4f 63be 946c ac3e 508f 133b
00000110: 9c27 253e 18e3 7c3e 1442 57be 3ca9 d13c
00000120: db14 01be d0ba 4abe 62dd f63c f7db 65be
00000130: 3034 283e e4e1 273e 4d10 f5bd e7ba 73bd
00000140: b68e 01bd e7eb 423d 1cd9 9cbd 9f77 9d3e
00000150: 672b 5d3c 9e1d 1cbd 698f 0f3e f6e3 74be
00000160: 6893 14bc c1f3 21be 3cf9 e9bd 84f5 75be
00000170: 755f 04be c50b 813d ad2b 05be 300f a23e
00000180: a4a8 233e 5390 11be 3628 e63d 8605 b23d
00000190: 50f9 6abe 15fe 46be 9f76 97be a0a0 333e
000001a0: d79e 8cbe aa5c 853c c52e afbb 601e 5bbe
000001b0: 0e77 463e 8847 883c 5731 72bc 1594 d53d
000001c0: 2632 2fbd 9d39 e039 dcdc 023e 01dc 8c3c
000001d0: 611e 123e eac5 c43d 3987 05be 1735 35bd
000001e0: 64b3 8abe b12c e53d fd34 8dbe 9e69 2e3b
000001f0: b98e 033b 3fc6 033e f327 2f3d c88e 01bc
00000200: 8daa 7ebe 05c5 aebd a746 373e ed75 383e
00000210: 238e 873c 0438 013e 28be fabc 95a1 c13d
00000220: e2ce 523d 2151 60bc 8a8a 9cbe e630 28bd
00000230: f2b1 acbe 7e5c b7bd 979a ce3c d998 c93d
00000240: 29fa 8a3e 695f 023e c743 5abe 5216 20be
00000250: c25e 1bbe 26b2 2bbe b868 2dbe d45f 2dbe
00000260: 3f0b a1be 7a44 183e 9f9c 94be ab53 d3be
00000270: 9f04 85be fca9 073e 99c8 453e f414 b03d
00000280: 019f ac3e 6671 f9bd 5863 713d 4d2f 15be
00000290: 8120 d93c a029 293d 217c 45be f5ff 63be
000002a0: ce0b 0dbe 0ecb 7a3e b72b a63d 3587 5ebe
000002b0: 0170 e6bc d4a4 1ebd 14b8 d4bd cdfa c43c
000002c0: 741b 583c 3a6d 7e3e 9975 d3bc 2b3b 78be
000002d0: a492 a93e ba97 d1bd 6d03 aa3e 0aac 6dbc
000002e0: cf44 113e e2cf b23d dcd9 94bd 7c85 90bd
000002f0: e045 9e3d a6aa 16be 1b5d 1f3d f486 f4bd
00000300: 556e b4be 3c6b 2d3e 1658 eebd c5a0 49be
00000310: c3b9 483c 475e acbd 8e8f 973d 39a5 05bd
00000320: cee1 d83e 1fdd a43e a891 043d 98f1 59be
00000330: 9c28 393d 7f36 68bd 2fe6 763e 6839 953e
00000340: 4d88 58be 9c21 ed3d 0690 543e 9856 94bd
00000350: db9f febc 0e86 2dbd 0c0f 0abe 826c ecbc
00000360: 2c1d 5dbd 4295 f73d 884f c53c 94da 29bd
00000370: 558f 68be 9abd 8b39 0bd2 983e 5dfc 383e
00000380: 9a67 06bd 2729 09bd 6382 3a3d 3dfd 89bc
00000390: aebb 5fbe 023b e9bb 79c9 29be a972 9dbd
000003a0: 6849 9ebc 2014 013e ed51 3a3c 2843 22bd
000003b0: 37e2 803e 9e8e b3bd 073f cf3c 1022 3b3e
000003c0: 0415 5abe 93cd 363d ed36 e53c 4cf0 5cbd
000003d0: 51ed d7bd 35bc cdbe 4376 b3bb de63 91bd
000003e0: 0351 ef3d 54c2 16ba 098d 8b3d 5125 483e
000003f0: 5b1f 3c3e 5463 633b 9020 8f3d eaed a2bc

bias f4 [16]
-0.025463996 0.019580044 -0.016928798 -0.023122225 0.059821036 -0.011703631 -0.032613188 -0.0031729795
-0.03667811 0.01350876 -0.02290967 -0.016123783 -0.0021613447 0.054227367 -0.03485294 -0.033329703
00000000: df99 d0bc 5466 a03c 43ae 8abc d26a bdbc
00000010: e706 753d 96c0 3fbc 6895 05bd c3f1 4fbb
00000020: c93b 16bd d953 5d3c 0fad bbbc 0616 84bc
00000030: 59a5 0dbb 841d 5e3d f5c1 0ebd ba84 08bd

weight f4 [16]
1.0195618 0.972637 1.0133477 1.0152589 0.9740834 0.98581547 1.0044947 0.9575189
1.0252044 0.9833176 1.0035625 0.9911735 0.9866966 0.9914364 0.9779584 1.0174823
00000000: 0081 823f bdfe 783f 61b5 813f 01f4 813f
00000010: 885d 793f 675e 7c3f 4893 803f f51f 753f
00000020: e639 833f b4ba 7b3f bc74 803f 8cbd 7d3f
00000030: 2698 7c3f c7ce 7d3f 7b5b 7a3f dc3c 823f

bias f4 [16]
0.033328943 0.032628197 -0.072400086 -0.067824915 -0.0061970986 -0.08344134 -0.05409576 -0.010919184
-0.029683536 0.031003458 -0.043162566 -0.011337575 -0.046780895 0.031723265 -0.02059287 -0.04435985
00000000: ee83 083d 25a5 053d 7f46 94bd cae7 8abd
00000010: 0811 cbbb 4be3 aabd 8493 5dbd 61e6 32bc
00000020: e32a f3bc f7fa fd3c 3bcb 30bd 3cc1 39bc
00000030: 539d 3fbd 41f0 013d 61b2 a8bc adb2 35bd

running_mean f4 [16]
0.21264705 0.47212553 0.69154906 0.65917414 0.48066998 0.4249711 0.6934218 0.86627567
0.7516666 0.74765074 0.7601691 0.7838109 0.51234484 0.7098818 0.37177277 0.6551054
00000000: 26c0 593e 70ba f13e 5c09 313f a3bf 283f
00000010: 601a f63e d095 d93e 1784 313f 3ec4 5d3f
00000020: 396d 403f 0a66 3f3f 719a 423f d5a7 483f
00000030: 0829 033f d0ba 353f 0059 be3e fdb4 273f

running_var f4 [16]
0.1427758 0.22316049 1.1888049 2.3573177 0.24868765 0.51869553 2.7205 3.1088288
2.6214669 1.4187793 2.9542263 2.321697 1.375638 0.3471738 0.7024873 2.2643313
00000000: d233 123e 2f84 643e c22a 983f 4bde 1640
00000010: faa7 7e3e 3bc9 043f ac1c 2e40 0df7 4640
00000020: 1dc6 2740 8f9a b53f 0b12 3d40 af96 1440
00000030: e814 b03f c4c0 b13e 35d6 333f ceea 1040

weight f4 [32, 16, 3, 3]
0.15035976 0.02923321 -0.046219558 -0.23490618 -0.11608429 0.12783253 -0.19597451 -0.24551788
0.0019440434 0.07626666 -0.12030526 -0.049388446 0.12048241 -0.027325004 0.0676695 -0.012315852
0.013049812 0.090896934 -0.07762979 -0.07730558 0.0640252 0.20464274 0.023237813 0.035238866
-0.028244868 -0.3439154 -0.18858877 0.10348186 0.06286656 -0.13740964 -0.04297678 -0.01086
0.13357255 0.0036662635 -0.109050855 -0.06478303 -0.045557562 -0.14831021 -0.089186095 -0.019082295
-0.046828594 0.088380106 0.069260284 -0.034984455 -0.216511 -0.12303834 -0.19914542 0.06446647
-0.14098147 -0.034152854 -0.01713022 0.04880572 -0.16141629 -0.12094448 -0.06360513 -0.07873589
0.121255994 -0.020131161 -0.035558052 0.022178726 0.09663671 -0.15392841 0.0071229767 0.045846984
-0.06928676 -0.06567842 -0.12808268 0.0025688873 0.01389519 -0.084000535 0.033609852 0.10341295
0.031898826 0.1251415 -0.07324811 -0.11491617 -0.14564125 0.20005731 -0.10569379 -0.074587
0.1228412 -0.027013876 0.08208793 -0.072305836 0.28524166 0.21270834 0.12254231 0.19321299
0.003899416 0.038399044 -0.05450747 0.038366493 0.016693255 -0.09806242 -0.09924872 -0.18025847
-0.17973019 0.10808191 0.05103059 -0.06337607 0.22509792 -0.043256413 0.010575854 0.13853036
-0.10748318 0.049118437 0.3055055 -0.032639135 -0.21379915 0.026944757 -0.05654913 0.01791039
-0.1342957 -0.104484044 -0.03427582 -0.004016624 0.004210185 0.23936532 0.09936465 -0.0678199
0.052957337 0.054249104 0.060212146 -0.06425492 0.22357677 -0.024164593 0.038638353 0.022087052
0.0029318547 -0.073223166 0.05034669 -0.014886705 0.12017652 0.057847828 -0.041888982 0.016753662
-0.025653545 0.08590072 0.058862984 -0.094091274 -0.18269457 0.1290453 9.461867e-05 0.012763478
0.124814466 0.029046608 -0.0012464231 -0.1153882 0.09827379 0.19203806 0.0113044 -0.016777322
0.0055189803 -0.1863776 -0.020141615 -0.019274956 0.02609137 0.08447169 -0.19125271 -0.110619016
-0.09987178 -0.035015337 0.06070864 0.10853232 0.11189742 0.07687955 -0.1267043 -0.060809396
-0.20592724 0.2090149 -0.23092434 -0.2096023 0.3303712 -0.15617816 -0.024280809 0.35200283
0.11987501 0.1681452 -0.034677684 0.15179816 0.1019701 0.13749668 -0.105180904 -0.06316704
-0.024597848 -0.04419811 -0.12217813 -0.08306632 0.086054854 0.040908877 -0.13624978 -0.1245174
0.23709998 0.018681228 0.20161998 0.16901433 0.04236511 0.0086291 0.022742657 -0.18248338
0.110151425 0.10540937 -0.032705583 0.1410321 -0.15092994 0.087455384 -0.06377489 -0.05284885
-0.026229355 0.027827812 0.026856685 -0.1266315 0.04873547 -0.056422938 -0.06708914 0.053870723
-0.12778243 -0.009743659 0.123045616 -0.2207042 -0.09604942 0.047885243 -0.012141414 -0.12626936
-0.024840988 -0.08870378 0.03768092 -0.15719454 0.11862178 0.12492131 -0.18971331 0.04330068
-0.022532243 -0.08923215 0.003424177 -0.10164674 0.055251084 -0.053205658 -0.013151481 0.1118479
-0.07222557 0.14594729 0.21088538 -0.08898812 -0.08926821 0.034729015 -0.18391109 -0.038841616
0.027001709 -0.03753494 0.024184296 0.1528228 0.0075169583 0.0329151 0.033120632 -0.07041696
00000000: e9f7 193e 7c7a ef3c b850 3dbd 3f8b 70be
00000010: 9abd edbd 88e6 023e 8bad 48be 0a69 7bbe
00000020: 46cf fe3a b231 9c3d 9b62 f6bd 8a4b 4abd
00000030: 7bbf f63d b0d8 dfbc 4f96 8a3d 6dc8 49bc
00000040: e1ce 553c 2c28 ba3d 5efc 9ebd 6352 9ebd
00000050: a51f 833d de8d 513e 3a5d be3c a156 103d
00000060: c861 e7bc ae15 b0be 6a1d 41be 4cee d33d
00000070: 2fc0 803d 1db5 0cbe 6c08 30bd 24ee 31bc
00000080: 3ec7 083e b245 703b 0e56 dfbd f7ac 84bd
00000090: 919a 3abd a2de 17be 33a7 b6bd 7952 9cbc
000000a0: 57cf 3fbd a100 b53d 56d8 8d3d dc4b 0fbd
000000b0: 0fb5 5dbe 86fb fbbd c7ec 4bbe ff06 843d
000000c0: 725d 10be dde3 0bbd ad54 8cbc 82e8 473d
000000d0: 504a 25be bdb1 f7bd 6843 82bd 4840 a1bd
000000e0: 1055 f83d 1bea a4bc 52a5 11bd 29b0 b53c
000000f0: 78e9 c53d 699f 1dbe dc67 e93b 0cca 3b3d
00000100: 38e6 8dbd 6882 86bd 1b28 03be c75a 283b
00000110: a7a8 633c 7908 acbd 7caa 093d 2bca d33d
00000120: 58a8 023d 1825 003e 1b03 96bd 2b59 ebbd
00000130: fb22 15be d3db 4c3e fc75 d8bd 12c1 98bd
00000140: 2b94 fb3d 344c ddbc b71d a83d 1515 94bd
00000150: 320b 923e 37d0 593e 76f7 fa3d a0d9 453e
00000160: 588d 7f3b 5148 1d3d 3a43 5fbd 2f26 1d3d
00000170: 4bc0 883c f3d4 c8bd ea42 cbbd ad95 38be
00000180: 310b 38be 0c5a dd3d 7405 513d 50cb 81bd
00000190: 1280 663e a32d 31bd 5946 2d3c e7da 0d3e
000001a0: 2420 dcbd 6a30 493d 386b 9c3e 9db0 05bd
000001b0: 2aee 5abe 40bb dc3c 0fa0 67bd cfb8 923c
000001c0: d084 09be bbfb d5bd cd64 0cbd e29d 83bb
000001d0: 97f5 893b 2f1c 753e b27f cb3d 29e5 8abd
000001e0: cbe9 583d 4f34 5e3d 03a1 763d 1598 83bd
000001f0: 4ff1 643e d3f4 c5bc 4043 1e3d e8ef b43c
00000200: 5c24 403b 07f6 95bd 5538 4e3d 5ee7 73bc
00000210: 1b1f f63d d8f1 6c3d c893 2bbd fa3e 893c
00000220: 6227 d2bc b7ec af3d 501a 713d edb2 c0bd
00000230: 4914 3bbe 7324 043e 036e c638 e81d 513c
00000240: ba9e ff3d 27f3 ed3c 055f a3ba a650 ecbd
00000250: c543 c93d a0a5 443e 1736 393c 9870 89bc
00000260: 90d8 b43b c5d9 3ebe 0700 a5bc 83e6 9dbc
00000270: 92bd d53c 7eff ac3d c0d7 43be 398c e2bd
00000280: 9389 ccbd 3e6c 0fbd 9fa9 783d 3146 de3d
00000290: 792a e53d 0773 9d3d c6be 01be 4613 79bd
000002a0: 97de 52be 0008 563e 6e77 6cbe fca1 56be
000002b0: 6a26 a93e 2bed 1fbe 8ce8 c6bc b739 b43e
000002c0: 0781 f53d 412e 2c3e 300a 0ebd fa70 1b3e
000002d0: b3d5 d03d eecb 0c3e 1669 d7bd b95d 81bd
000002e0: 6d81 c9bc 1409 35bd 8738 fabd ad1e aabd
000002f0: 873d b03d 1190 273d 1085 0bbe fb02 ffbd
00000300: 56ca 723e 6009 993c 7875 4e3e 1812 2d3e
00000310: 0a87 2d3d 1261 0d3c cf4e ba3c ecdc 3abe
00000320: 1297 e13d dee0 d73d 4af6 05bd b86a 103e
00000330: 618d 1abe cf1b b33d 699c 82bd 0978 58bd
00000340: f2de d6bc 27f7 e33c 8d02 dc3c b0ab 01be
00000350: d89e 473d bd1b 67bd 0866 89bd 8ca7 5c3d
00000360: 66d9 02be dea3 1fbc 57ff fb3d 4800 62be
00000370: 8fb5 c4bd 5123 443d c8ec 46bc c14c 01be
00000380: 547f cbbc 54aa b5bd 4f57 1a3d 9bf7 20be
00000390: faef f23d bed6 ff3d 3544 42be 0e5c 313d
000003a0: 8a95 b8bc 58bf b6bd 2868 603b 2b2c d0bd
000003b0: f64e 623d 2dee 59bd 4f79 57bc 8310 e53d
000003c0: 00eb 93bd 3573 153e 56f2 573e 673f b6bd
000003d0: 40d2 b6bd 0340 0e3d 3053 3cbe 6318 1fbd
000003e0: b032 dd3c 3dbe 19bd 251e c63c 957d 1c3e
000003f0: d150 f63b fcd1 063d 80a9 073d c436 90bd

bias f4 [32]
0.032840658 -0.029031018 0.024101857 -0.026397265 -0.0014123587 -0.03656222 -0.014592558 -0.013184489
0.0011582499 -0.009207256 -0.04154514 0.039181154 -0.01960689 -0.007218428 -0.011614594 0.009536636
-0.037627026 0.018676568 -0.015241324 0.021022959 0.010251605 -0.038142357 -0.047158573 -0.03659349
-0.018231394 0.02081521 -0.02445278 0.023572627 -0.010840938 -0.047087166 -0.037392486 -0.04979525
00000000: ed83 063d 75d2 edbc 4271 c53c 143f d8bc
00000010: e51e b9ba 44c2 15bd a015 6fbc c103 58bc
00000020: 6bd0 973a 08da 16bc 3d2b 2abd 6b7c 203d
00000030: a19e a0bc 9088 ecbb 234b 3ebc 8d3f 1c3c
00000040: cc1e 1abd 9aff 983c bfb6 79bc 5738 ac3c
00000050: 59f6 273c 293b 1cbd 5929 41bd 0ee3 15bd
00000060: 015a 95bc a984 aa3c 3251 c8bc 621b c13c
00000070: 319e 31bc 79de 40bd dd28 19bd 1bf6 4bbd

weight f4 [32]
0.96450347 0.98311096 0.96804816 1.0095199 0.9568267 1.0185586 0.9891567 1.0478315
0.98401123 1.0250082 0.99585605 0.94824106 1.0146846 1.0121673 0.9924916 0.9813645
0.9620591 0.9913287 0.991993 0.98408055 0.96157396 1.023951 1.0150307 0.9825404
0.9939075 0.98401916 1.0134281 0.961635 1.0160435 1.0369158 0.99705815 1.0387666
00000000: b3e9 763f 29ad 7b3f 01d2 773f f337 813f
00000010: 98f2 743f 2160 823f 6039 7d3f 581f 863f
00000020: 29e8 7b3f 7833 833f 6cf0 7e3f edbf 723f
00000030: 2fe1 813f b38e 813f ee13 7e3f b43a 7b3f
00000040: 8149 763f b8c7 7d3f 41f3 7d3f b4ec 7b3f
00000050: b629 763f d410 833f 87ec 813f c587 7b3f
00000060: b970 7e3f aee8 7b3f 03b8 813f b62d 763f
00000070: b70d 823f a8b9 843f 343f 7f3f 4ef6 843f

bias f4 [32]
0.045407195 -0.033788677 0.052848376 -0.076933354 0.038110904 -0.07787643 0.00027856542 -0.08004355
0.054818366 -0.08677924 -0.084623 -0.00049476017 -0.036816493 -0.06002083 -0.0031387277 0.06842704
0.0024790885 0.067656025 0.07744099 0.06763857 0.03732583 -0.088772476 -0.07484541 0.07473315
-0.074930936 0.06566579 -0.07084667 0.055288155 -0.072884664 -0.08289889 -0.06615298 -0.09943218
00000000: e5fc 393d ff65 0abd 8a77 583d 3c8f 9dbd
00000010: 2e1a 1c3d ad7d 9fbd 6b0c 9239 dfed a3bd
00000020: 3989 603d 50b9 b1bd d34e adbd cbb2 01ba
00000030: e4cc 16bd 67d8 75bd 1db3 4dbb 7a23 8c3d
00000040: 3478 223b 3e8f 8a3d 6299 9e3d 1786 8a3d
00000050: f8e2 183d 58ce b5bd 8d48 99bd b20d 993d
00000060: 6475 99bd c97b 863d 0f18 91bd d575 623d
00000070: 8e44 95bd e5c6 a9bd 377b 87bd 19a3 cbbd

running_mean f4 [32]
0.80601424 0.37303025 0.5315177 0.60114264 0.47688395 0.46860713 0.20937404 0.445026
0.51880467 0.723898 0.60538244 0.6908838 0.3378975 0.44959033 0.3746193 0.7384843
0.28549695 0.56017244 0.28727025 0.33706608 0.3462554 0.7712508 0.7693782 0.30405718
0.6919441 0.5425501 0.8107365 0.70782214 0.8157887 0.6153228 0.7548788 0.41423956
00000000: f356 4e3f d2fd be3e 8b11 083f 7ce4 193f
00000010: 222a f43e 46ed ef3e 2666 563e 73da e33e
00000020: 62d0 043f 6151 393f 58fa 1a3f c3dd 303f
00000030: e700 ad3e b430 e63e 1ace bf3e 4f0d 3d3f
00000040: a82c 923e 7667 0f3f 1615 933e ed93 ac3e
00000050: 6348 b13e b170 453f f8f5 443f 62ad 9b3e
00000060: 4023 313f 90e4 0a3f 6d8c 4f3f d533 353f
00000070: 87d7 503f cc85 1d3f bd3f 413f 3517 d43e

running_var f4 [32]
0.60120344 0.8269761 0.29586446 1.2431538 0.50199425 1.3264059 0.19445458 1.0088263
0.70493233 2.18254 2.1666105 0.42105445 0.50259614 0.40936327 0.28467336 1.0770613
0.29122362 1.2553515 0.3886378 0.2286725 0.385703 3.3620584 3.6787097 0.36829624
2.4066978 0.40317136 3.5595248 0.44609025 3.4718952 2.3427188 3.5322 1.1279253
00000000: 78e8 193f b5b4 533f 8c7b 973e aa1f 9f3f
00000010: b282 003f abc7 a93f 1a1f 473e 3821 813f
00000020: 7276 343f bcae 0b40 bfa9 0a40 7394 d73e
00000030: 24aa 003f 1098 d13e b5c0 913e 25dd 893f
00000040: 431b 953e 5caf a03f 89fb c63e 2029 6a3e
00000050: dd7a c53e f72b 5740 fb6f 6b40 5391 bc3e
00000060: 5607 1a40 7a6c ce3e 41cf 6340 f165 e43e
00000070: 8833 5e40 1bef 1540 910f 6240 db5f 903f

weight f4 [64, 32, 3, 3]
-0.0051617376 0.090041436 0.0012888109 0.06472555 -0.00960302 -0.081003524 0.07358277 0.011440599
-0.04343005 -0.052518025 -0.03343718 -0.12785599 -0.055922814 0.086962156 0.037765272 0.07475327
0.1296978 0.067519814 -0.16873017 0.09659212 -0.18050148 0.008726253 0.17834158 -0.009157878
0.044144895 0.021728532 0.058188695 0.013367887 0.035430327 0.010299544 -0.07642436 0.08160338
0.023522554 0.23946016 0.12340571 -0.03190557 -0.11458057 0.003334075 0.032599606 0.114658035
-0.05970752 -0.052339897 0.22008757 -0.013824361 0.1930236 -0.0029296142 0.08024762 -0.01216885
0.19136055 0.03347924 0.03003267 0.10060367 0.02951701 0.113594055 -0.08008283 -0.027328216
-0.019709093 -0.22260271 -0.10730753 -0.050982315 -0.10114414 -0.033816013 -0.11432289 0.21997145
0.021782601 -0.10160036 0.049872253 0.102833204 0.016210418 0.04103632 0.011373594 -0.036563337
0.23786208 -0.07166935 -0.059796248 -0.022173498 0.018139299 -0.13337098 0.024163468 -0.089231476
-0.006372501 -0.08515617 -0.10189961 0.03427505 0.05098042 -0.09599603 -0.1391499 -0.19350255
0.13145204 -0.038034245 -0.012490814 0.07042763 -0.06326391 -0.049544312 -0.1136106 -0.021778097
-0.030737914 0.01936094 -0.02271796 0.0027401145 0.019773731 -0.0136113325 -0.10691921 0.0026166944
0.07937388 0.12675188 -0.14702356 0.092970185 -0.020200498 0.003164516 -0.12424303 0.012073238
0.040418334 -0.054781687 -0.029053893 0.011467583 -0.050250676 0.016418079 -0.005164302 0.0637757
-0.0296368 -0.007010161 0.009813255 -0.0126186935 -0.0327076 0.030403672 0.07754306 -0.13035534
-0.0541793 -0.02313906 -0.08201435 -0.11885609 0.05296894 0.047765624 -0.08099881 0.012548002
-0.18842234 -0.18388137 -0.02187647 -0.12775463 -0.008227619 0.06397991 0.100733824 -0.018207435
-0.16458835 0.05847757 -0.089874506 -0.032844126 -0.07899016 -0.10178434 -0.027379554 -0.15487106
0.020365087 -0.0020258916 -0.0036293115 -0.041690007 -0.08508195 -0.038385753 -0.11737663 0.030302295
0.021471508 0.00034662767 -0.26623216 0.013119992 -0.13970943 -0.01722823 0.110065624 0.023774995
-0.055600192 -0.0027461993 -0.01799259 0.062092327 -0.11438479 0.06034168 -0.09053348 -0.093054
-0.080862716 -0.015337129 -0.018838841 -0.02059253 0.002167261 -0.054150272 0.03886843 -0.07336805
0.050160374 -0.0979505 0.03104226 0.0071141426 0.044637777 0.09553678 0.039150484 0.050097693
0.042740185 -0.1482681 -0.10253563 -0.04240175 0.06782727 -0.0013000183 0.05543905 -0.017349986
0.050989605 0.09335075 -0.05019655 0.04190417 -0.014667458 0.065695435 -0.05329193 -0.0636497
-0.08570309 -0.055676576 -0.0058236434 -0.06756227 -0.047930304 -0.011359858 -0.074090645 0.09177435
0.04989296 -0.09772116 0.038700912 0.031732652 0.022567315 0.0077730794 -0.0028711234 -0.066115335
-0.123669535 -0.16277404 0.17587973 0.076040395 0.01663549 -0.03850891 -0.01786987 0.025047328
-0.028844474 0.053253725 -0.059020616 -0.07259836 0.045742124 -0.050947715 0.05337699 -0.029804684
0.05396132 0.084296726 0.19303638 0.15016307 0.0070232223 -0.004691337 0.08721052 0.1312936
-0.045382947 0.028834617 -0.039462566 -0.04942687 0.0051568197 -0.100994244 0.12016099 -0.03196735
00000000: cb23 a9bb a567 b83d 51ed a83a d48e 843d
00000010: fc55 1dbc 2de5 a5bd 90b2 963d 5a71 3b3c
00000020: b5e3 31bd 241d 57bd 6df5 08bd aeec 02be
00000030: 520f 65bd 3719 b23d c2af 1a3d 3e18 993d
00000040: 80cf 043e d447 8a3d 9ac7 2cbe 17d2 c53d
00000050: 61d5 38be 8ff8 0e3c 2d9f 363e ed0a 16bc
00000060: 47d1 343d 0900 b23c 4557 6e3d fb04 5b3c
00000070: 641f 113d 6bbf 283c 6084 9cbd ac1f a73d
00000080: 5fb2 c03c 0b35 753e 22bc fc3d 6aaf 02bd
00000090: 38a9 eabd 7f80 5a3b 2a87 053d d5d1 ea3d
000000a0: df8f 74bd 5c62 56bd a35e 613e 937f 62bc
000000b0: fba7 453e c5fe 3fbb dd58 a43d db5f 47bc
000000c0: 05f4 433e 8721 093d 1307 f63c 4c09 ce3d
000000d0: a8cd f13c 00a4 e83d 7702 a4bd 6cdf dfbc
000000e0: f774 a1bc f7f1 63be 0dc4 dbbd d5d2 50bd
000000f0: a924 cfbd a982 0abd 1f22 eabd 3240 613e
00000100: 6d71 b23c d913 d0bd d946 4c3d 379a d23d
00000110: b6cb 843c b315 283d 5058 3a3c 70c3 15bd
00000120: 1e92 733e 61c7 92bd e9ec 74bd 32a5 b5bc
00000130: de98 943c 6792 08be 77f2 c53c febe b6bd
00000140: 6ad0 d0bb 5c66 aebd beb0 d0bd ff63 0c3d
00000150: d8d0 503d 9199 c4bd 507d 0ebe 8825 46be
00000160: 5d9b 063e ccc9 1bbd 45a6 4cbc 5c3c 903d
00000170: 8290 81bd faee 4abd adac e8bd fb67 b2bc
00000180: 14ce fbbc d69a 9e3c 041b babc 7e93 333b
00000190: 85fc a13c 1102 5fbc 75f8 dabd d97c 2b3b
000001a0: c68e a23d 3fcb 013e 588d 16be 2767 be3d
000001b0: 847b a5bc c563 4f3b 2173 febd d5ce 453c
000001c0: b28d 253d c362 60bd 6e02 eebc 87e2 3b3c
000001d0: a7d3 4dbd 357f 863c 4e39 a9bb d69c 823d
000001e0: e0c8 f2bc 7eb5 e5bb c6c7 203c a3be 4ebc
000001f0: 68f8 05bd 1f11 f93c e5ce 9e3d df7b 05be
00000200: 1deb 5dbd 208e bdbc 24f7 a7bd d26a f3bd
00000210: f6f5 583d e3a5 433d b4e2 a5bd 2396 4d3c
00000220: c9f1 40be 664b 3cbe 4836 b3bc 1cd2 02be
00000230: 23cd 06bc e607 833d 894d ce3d c227 95bc
00000240: d989 28be 2d86 6f3d 2010 b8bd 9087 06bd
00000250: 98c5 a1bd 4f74 d0bd 164b e0bc 8596 1ebe
00000260: afd4 a63c d2c4 04bb bed9 6dbb 24c3 2abd
00000270: 723f aebd 613a 1dbd 2963 f0bd 853c f83c
00000280: 04e5 af3c 94bb b539 954f 88be 3cf5 563c
00000290: fd0f 0fbe 3822 8dbc 166a e13d c7c3 c23c
000002a0: 07bd 63bd 94f9 33bb 3265 93bc 8654 7e3d
000002b0: 9342 eabd d628 773d 9e69 b9bd 1893 bebd
000002c0: 5a9b a5bd 9548 7bbc ea53 9abc aab1 a8bc
000002d0: 9b08 0e3b adcc 5dbd 8134 1f3d fd41 96bd
000002e0: f774 4d3d 469a c8bd 564c fe3c c11d e93b
000002f0: 1ad6 363d caa8 c33d 425c 203d 3d33 4d3d
00000300: 5510 2f3d 98d3 17be 33fe d1bd 75ad 2dbd
00000310: 06e9 8a3d 6065 aaba 0f14 633d 8f21 8ebc
00000320: 7ada 503d ae2e bf3d e69a 4dbd b5a3 2b3d
00000330: c74f 70bc 548b 863d a448 5abd c65a 82bd
00000340: 1a85 afbd 1f0d 64bd 43d4 bebb 165e 8abd
00000350: 9152 44bd b31e 3abc d6bc 97bd 31f4 bb3d
00000360: 8f5c 4c3d 0822 c8bd d984 1e3d 19fa 013d
00000370: 17df b83c 51b5 fe3b 7529 3cbb 7a67 87bd
00000380: 7446 fdbd 3dae 26be d119 343e 11bb 9b3d
00000390: 2747 883c 85bb 1dbd d563 92bc 0e30 cd3c
000003a0: 3f4b ecbc 9420 5a3d 9abf 71bd 73ae 94bd
000003b0: 185c 3b3d 8dae 50bd d5a1 5a3d f428 f4bc
000003c0: 8c06 5d3d c3a3 ac3d 54ab 453e 59c4 193e
000003d0: 0f23 e63b c9b9 99bb 6e9b b23d d471 063e
000003e0: 78e3 39bd 9336 ec3c 80a3 21bd d473 4abd
000003f0: 8afa a83b 12d6 cebd f716 f63d 32f0 02bd

bias f4 [64]
-0.06292918 0.044609245 -0.043656025 0.021115359 -0.028449621 0.036046214 -0.011231421 0.04613725
0.039187163 0.042767223 0.041760374 0.029182032 0.083279446 0.04814222 0.01570377 0.03466103
0.06464217 0.033056412 -0.05896384 -0.02043864 0.05278923 -0.024511706 0.048365146 -0.07170476
0.048441943 0.053909127 -0.061439916 0.04232224 0.016126644 0.06505919 -0.022023737 0.050866358
0.06342868 0.00408012 -0.042220835 -0.031908646 0.051921964 0.03743189 0.046002742 -0.028323958
-0.031979382 0.051071826 -0.03280681 0.048603237 0.031295117 0.04203464 -0.04166739 -0.060084026
-0.036547024 0.057542793 0.04232037 0.032269616 0.04346817 -0.066631414 0.0163579 0.026392184
0.056735214 0.033877384 -0.029969852 0.030381095 -0.060173523 0.05800443 -0.02595966 -0.08310843
00000000: 04e1 80bd 2fb8 363d a9d0 32bd 1efa ac3c
00000010: 2e0f e9bc 32a5 133d fe03 38bc 6afa 3c3d
00000020: b882 203d af2c 2f3d ed0c 2b3d 280f ef3c
00000030: 6a8e aa3d c730 453d 31a5 803c b9f8 0d3d
00000040: 1d63 843d 2966 073d 1184 71bd ef6e a7bc
00000050: 8539 583d c6cc c8bc 881a 463d f2d9 92bd
00000060: 0f6b 463d d1cf 5c3d 6ca8 7bbd 165a 2d3d
00000070: 061c 843c c13d 853d 206b b4bc 3e59 503d
00000080: e5e6 813d 87b2 853b c1ef 2cbd a4b2 02bd
00000090: 20ac 543d 2e52 193d 5f6d 3c3d a507 e8bc
000000a0: d0fc 02bd b130 513d 6f60 06bd 3014 473d
000000b0: 4f2f 003d 842c 2c3d 6dab 2abd ab1a 76bd
000000c0: 55b2 15bd feb1 6b3d 2058 2d3d 252d 043d
000000d0: ae0b 323d 0d76 88bd 0101 863c 6c34 d83c
000000e0: 2f63 683d 03c3 0a3d 5683 f5bc c6e1 f83c
000000f0: 8378 76bd 0e96 6d3d 5aa9 d4bc c134 aabd

weight f4 [64]
1.0973779 1.0620328 1.0950469 1.0697659 1.0786164 1.0460929 1.0683866 1.045892
1.0388267 1.0458016 1.0491062 1.0600226 1.0778491 1.0481868 1.062614 1.0513612
1.0765074 1.0637128 1.093087 1.0667398 1.0536988 1.0791112 1.0439404 1.0952162
1.0695157 1.0496906 1.0874499 1.0542027 1.0631504 1.0750818 1.0793139 1.0433671
1.0659758 1.059758 1.0737431 1.0688857 1.0565112 1.049349 1.0620534 1.0850971
1.0823271 1.0202564 1.0790586 1.0567081 1.0473882 1.0539613 1.0794066 1.0983062
1.0769098 1.0673673 1.0543154 1.0098495 1.0538282 1.0858167 1.073151 1.0717493
1.0557371 1.0341232 1.073313 1.0340428 1.0792514 1.0798516 1.087192 1.1005563
00000000: e176 8c3f b1f0 873f 7f2a 8c3f 17ee 883f
00000010: 1a10 8a3f 5fe6 853f e4c0 883f cadf 853f
00000020: 46f8 843f d4dc 853f 1d49 863f d2ae 873f
00000030: f6f6 893f fc2a 863f bc03 883f 0193 863f
00000040: ffca 893f be27 883f 46ea 8b3f ee8a 883f
00000050: 9adf 863f 5120 8a3f d79f 853f 0b30 8c3f
00000060: e4e5 883f 435c 863f 8f31 8b3f 1df0 863f
00000070: 5015 883f 489c 893f f526 8a3f 0e8d 853f
00000080: e571 883f 26a6 873f 6a70 893f 3fd1 883f
00000090: c23b 873f 1151 863f 5ef1 873f 76e4 8a3f
000000a0: b289 8a3f c397 823f 981e 8a3f 3642 873f
000000b0: d110 863f 34e8 863f ff29 8a3f 4c95 8c3f
000000c0: 2ed8 893f 7e9f 883f cff3 863f c042 813f
000000d0: d8e3 863f 0bfc 8a3f 035d 893f 152f 893f
000000e0: 6522 873f 265e 843f 5262 893f 845b 843f
000000f0: e924 8a3f 9438 8a3f 1c29 8b3f 07df 8c3f

bias f4 [64]
-0.13031347 -0.011242243 -0.14055961 0.023927873 -0.1454094 0.098908365 -0.14020024 0.10926939
0.10259189 0.13409877 0.10796657 -0.071373366 0.17554127 0.109637044 -0.079150826 0.117503256
0.1481248 -0.032385696 -0.1374079 -0.12723045 0.110490546 -0.13259415 0.10518475 -0.11653133
0.11461247 0.107645996 -0.10923133 0.10868076 -0.075171635 0.12894693 -0.117218636 0.10679566
0.1366795 -0.077836335 -0.1143016 -0.13138944 0.10709777 0.10979344 0.13257003 -0.13572533
-0.14074901 0.10115722 -0.12171288 0.11877119 0.11890067 0.122636266 -0.11824216 -0.16411299
-0.12250948 0.113778494 0.11071819 0.108603455 0.12541856 -0.11241399 0.021580772 -0.07688751
0.10763794 0.13110234 -0.11794479 0.11557972 -0.123709604 0.16156575 -0.14948012 -0.13512148
00000000: e570 05be 6331 38bc dcee 0fbe 6304 c43c
00000010: 34e6 14be 7890 ca3d a790 0fbe a1c8 df3d
00000020: b21b d23d 3051 093e 941d dd3d 332c 92bd
00000030: 17c1 333e 6389 e03d d419 a2bd 8ca5 f03d
00000040: 07ae 173e dda6 04bd a8b4 0cbe b348 02be
00000050: de48 e23d c3c6 07be 1a6b d73d faa7 eebd
00000060: f1b9 ea3d 8175 dc3d adb4 dfbd 0594 de3d
00000070: 96f3 99bd aa0a 043e 5310 f0bd afb7 da3d
00000080: b6f5 0b3e a868 9fbd f516 eabd f48a 06be
00000090: 1356 db3d 62db e03d 70c0 073e 95fb 0abe
000000a0: 8220 10be 842b cf3d 9a44 f9bd 4f3e f33d
000000b0: 3282 f33d b928 fb3d f228 f2bd 3c0d 28be
000000c0: 40e6 fabd b304 e93d 38c0 e23d 7d6b de3d
000000d0: b96d 003e 4e39 e6bd 29ca b03c 3377 9dbd
000000e0: 4871 dc3d b13f 063e 0a8d f1bd 0fb5 ec3d
000000f0: 765b fdbd 7e71 253e 5111 19be 495d 0abe

running_mean f4 [64]
0.44916797 1.5116913 0.74426365 0.62662894 0.82465297 0.99845004 0.5321917 1.3926316
0.5670117 0.5248109 1.1501875 1.3082141 0.7681965 1.0354083 1.5047357 1.2376487
1.1149771 1.5203805 0.47249308 0.5791592 0.98718435 0.4022965 1.0957797 0.5091509
0.6269416 0.90399003 0.43950504 0.5483563 1.5595199 0.4613577 0.62449735 0.55929947
0.83716774 1.7586336 0.46027914 0.338026 1.0361711 1.2754273 1.4032542 0.3734682
0.7080235 0.58710563 0.51436055 0.8664124 1.7880508 0.86457324 0.8407736 0.6444103
0.48906898 0.5472662 1.1862987 0.72574526 0.6642018 0.4258168 0.5420565 1.9763619
0.83012944 0.44455302 0.49063095 0.47511938 0.42736575 0.90854865 0.597225 0.5716938
00000000: 58f9 e53e 1a7f c13f 1088 3e3f c16a 203f
00000010: 751c 533f 6c9a 7f3f b73d 083f c141 b23f
00000020: ae27 113f 025a 063f 5839 933f 8f73 a73f
00000030: 87a8 443f 4288 843f 2e9b c03f 466b 9e3f
00000040: 92b7 8e3f d49b c23f 9dea f13e c743 143f
00000050: 1db8 7c3f cff9 cd3e 8242 8c3f b757 023f
00000060: 3f7f 203f e46b 673f ce06 e13e 1461 0c3f
00000070: 599e c73f 1437 ec3e 0fdf 1f3f 402e 0f3f
00000080: a050 563f e81a e13f b5a9 eb3e be11 ad3e
00000090: 41a1 843f 3441 a33f d59d b33f 3937 bf3e
000000a0: 0741 353f 8e4c 163f 22ad 033f 34cd 5d3f
000000b0: d9de e43f ac54 5d3f f03c 573f 13f8 243f
000000c0: 4067 fa3e a319 0c3f a3d8 973f 71ca 393f
000000d0: 2109 2a3f a904 da3e 37c4 0a3f 6df9 fc3f
000000e0: 5d83 543f 749c e33e fb33 fb3e d942 f33e
000000f0: afcf da3e a596 683f bde3 183f 865a 123f

running_var f4 [64]
1.1867293 1.1327211 4.3478107 1.3512911 5.204507 0.7920537 2.1982708 1.0305654
1.2682471 0.99821985 0.9109261 1.0400281 0.8200015 0.5697347 1.1070964 0.66843814
0.966049 1.1855128 1.7118841 2.5575216 0.52217656 1.3946081 0.7779197 0.5409962
0.8294535 0.5064797 1.0401584 1.4150518 1.0725102 0.9441552 2.9675968 0.4109445
1.229706 1.2425314 1.4573827 0.68915635 0.5721368 0.95627993 0.9656893 0.8119212
3.7015657 0.38509992 2.213045 0.8842977 1.302223 0.63028675 5.325814 3.243783
1.7478746 1.1231077 0.7098494 0.49451283 0.5027239 1.2349622 1.6866361 1.6809225
0.92388356 0.54407364 1.9679681 0.7374382 1.5051668 0.5857293 2.6548471 0.873243
00000000: bfe6 973f 01fd 903f 4421 8b40 1bf7 ac3f
00000010: 528b a640 08c4 4a3f 78b0 0c40 91e9 833f
00000020: ec55 a23f 568b 7f3f 7432 693f a41f 853f
00000030: 9eeb 513f 22da 113f 56b5 8d3f c31e 2b3f
00000040: fd4e 773f e2be 973f 051f db3f 6fae 2340
00000050: 5dad 053f 8582 b23f bf25 473f ba7e 0a3f
00000060: 1157 543f a7a8 013f e923 853f 6b20 b53f
00000070: 0448 893f 28b4 713f 1bed 3d40 5167 d23e
00000080: 0267 9d3f 450b 9f3f 848b ba3f 8d6c 303f
00000090: 8f77 123f c3ce 743f 6a37 773f 11da 4f3f
000000a0: 74e6 6c40 d12b c53e 87a2 0d40 5661 623f
000000b0: 3eaf a63f 795a 213f 116d aa40 249a 4f40
000000c0: 5bba df3f fec1 8f3f b1b8 353f c930 fd3e
000000d0: 83b2 003f 3e13 9e3f b1e3 d73f 7828 d73f
000000e0: a283 6c3f 6948 0b3f 61e6 fb3f c0c8 3c3f
000000f0: 4ea9 c03f 5bf2 153f 04e9 2940 da8c 5f3f

weight f4 [10, 64]
-0.10597637 0.014943567 -0.08621041 0.00017531958 -0.08465113 0.18217441 -0.13398698 0.15852255
0.17280516 0.16055448 0.11905553 -0.005447666 0.076148905 0.15984434 -0.054057386 0.111651234
0.060255177 0.00023097036 -0.115667626 -0.110095404 0.1714042 -0.09723997 0.18500154 -0.16511475
0.10775532 0.18977898 -0.19259305 0.21099041 -0.04829743 0.17885695 -0.16996388 0.19528784
0.09111178 -0.076234154 -0.18109472 -0.16328913 0.19780196 0.17164059 0.09790194 -0.10903404
-0.14483304 0.15963416 -0.17390358 0.13945505 0.1294845 0.12844014 -0.17543152 -0.16655393
-0.14207096 0.16209915 0.18922351 0.11355009 0.12216488 -0.21050821 0.03253651 -0.059310917
0.16895139 0.14831807 -0.17919847 0.10556403 -0.14648414 0.13733633 -0.11952961 -0.12731236
0.04901078 -0.15209445 0.14717993 0.18545818 0.15992706 -0.09147849 0.113003224 -0.061106317
-0.0012293848 -0.040572528 -0.14891307 -0.15327552 -0.07814045 -0.17839244 -0.16739823 -0.1655175
-0.13071819 -0.13613263 0.088847354 0.16852559 -0.0992575 0.16270596 -0.07298066 -0.04680162
-0.06968915 -0.11334281 0.013195313 0.036919933 -0.1493206 -0.023014054 0.15553848 -0.1374825
-0.08214812 -0.16583994 0.045738142 0.050389744 -0.131096 -0.1369697 -0.1607408 0.16179943
0.04766433 -0.0458354 0.07886728 -0.13615878 -0.1362879 -0.13849667 0.09703893 0.047966074
0.118626945 -0.0155966235 0.004834558 -0.036975488 -0.15587083 0.01724591 0.15952381 -0.13851921
-0.046230994 -0.012354441 0.10822986 -0.02985349 0.1027214 -0.08026252 0.16862491 -0.01929713
0.14690672 0.11951626 0.09768377 -0.0187825 -0.009992456 -0.12730262 0.062199615 -0.03278803
-0.11555047 0.0063677607 -0.12521197 0.11768499 -0.16527495 -0.11440397 0.11873965 -0.034431417
-0.11503689 -0.006395863 0.12755315 0.15117456 -0.061922725 0.14358145 -0.14214158 0.17389372
-0.15933867 0.024058735 0.18058942 -0.06974299 0.056685757 0.002075871 0.21323091 -0.20214723
-0.16993311 0.14066187 0.14532565 0.028943187 -0.14100912 -0.02231557 -0.11837026 0.044906467
0.108865276 -0.16820997 -0.03119242 -0.13089631 0.029183544 0.055295594 0.1285018 0.0118161375
0.08344329 -0.021299865 -0.0127146635 -0.0601801 0.009552332 0.008145316 0.02266794 0.07890772
-0.13230726 -0.18764898 0.13873515 -0.11639465 -0.009085312 -0.14476708 0.07781882 0.17769305
0.15202262 0.041306954 0.037508067 0.028979402 0.020055909 -0.049911533 0.12725176 -0.056137044
-0.17478685 -0.01014852 -0.1804704 0.119314335 -0.028452057 0.034304228 0.090526454 -0.14556296
-0.11486733 -0.035259064 0.16780116 0.18804052 0.029987013 0.2230373 0.002796911 -0.022902546
-0.20689163 -0.08103559 0.17558464 -0.102847345 0.045527283 -0.122848496 0.0003196071 -0.15499775
-0.1374634 0.11114903 0.016390668 0.04202997 -0.007673143 0.057732787 -0.13642478 0.117913574
0.08696896 -0.17068191 0.1389399 -0.06350884 -0.07808608 0.03336286 0.09197737 0.07674207
0.12516645 -0.20470156 -0.0021130024 -0.15672186 -0.19716252 -0.008187689 0.051295355 -0.08682378
-0.18225546 0.002559435 0.015002153 -0.016841408 0.13604544 0.010307131 -0.016668005 0.08981438
00000000: 240a d9bd ddd5 743c 158f b0bd fed5 3739
00000010: 925d adbd ee8b 3a3e e233 09be bc53 223e
00000020: d6f3 303e 6568 243e 63d3 f33d 5682 b2bb
00000030: f5f3 9b3d 3cae 233e 476b 5dbd 67a9 e43d
00000040: 22ce 763d a230 7239 26e3 ecbd b379 e1bd
00000050: 9584 2f3e c025 c7bd 0b71 3d3e d713 29be
00000060: d2ae dc3d 6c55 423e 1d37 45be df0d 583e
00000070: 87d3 45bd 4726 373e 030b 2ebe 89f9 473e
00000080: d098 ba3d a720 9cbd e570 39be 4435 27be
00000090: 998c 4a3e 8dc2 2f3e d080 c83d 3d4d dfbd
000000a0: 1d4f 14be 2377 233e c813 32be 4ecd 0e3e
000000b0: 9697 043e d085 033e 52a4 33be 1d8d 2abe
000000c0: 0d7b 11be 52fd 253e cfc3 413e f38c e83d
000000d0: 9531 fa3d 778f 57be 0145 053d 01f0 72bd
000000e0: 9801 2d3e b1e0 173e ce7f 37be f431 d83d
000000f0: f0ff 15be e5a1 0c3e f1cb f4bd 2c5e 02be
00000100: 87bf 483d a6be 1bbe 56b6 163e c0e8 3d3e
00000110: ebc3 233e 1359 bbbd 3c6e e73d 9e4a 7abd
00000120: 4f23 a1ba 612f 26bd ab7c 18be 42f4 1cbe
00000130: 1a08 a0bd 82ac 36be 716a 2bbe 6b7d 29be
00000140: fdda 05be 5a66 0bbe 9af5 b53d f991 2c3e
00000150: 8447 cbbd 649c 263e e276 95bd 0eb3 3fbd
00000160: 2fb9 8ebd 4620 e8bd 2731 583c 5b39 173d
00000170: 80e7 18be f887 bcbc 7b45 1f3e 36c8 0cbe
00000180: 463d a8bd f2d1 29be eb57 3b3d 7a65 4e3d
00000190: 083e 06be c941 0cbe 3c99 24be c0ae 253e
000001a0: ac3b 433d e6bd 3bbd 2b85 a13d 356d 0bbe
000001b0: 0e8f 0bbe 12d2 0dbe 59bc c63d 1378 443d
000001c0: aff2 f23d fb88 7fbc 366b 9e3b 9c73 17bd
000001d0: 9a9c 1fbe 4b47 8d3c 365a 233e fbd7 0dbe
000001e0: b65c 3dbd 486a 4abc 9ea7 dd3d 4e8f f4bc
000001f0: 995f d23d ad60 a4bd 02ac 2c3e 0415 9ebc
00000200: b76e 163e f1c4 f43d 6e0e c83d c2dd 99bc
00000210: 66b7 23bc 9e5b 02be 06c5 7e3d be4c 06bd
00000220: baa5 ecbd a6a8 d03b 9137 00be d404 f13d
00000230: d63d 29be a14c eabd c62d f33d f507 0dbd
00000240: 7698 ebbd 6394 d1bb 4b9d 023e 81cd 1a3e
00000250: afa2 7dbd 0407 133e 908d 11be 3211 323e
00000260: ad29 23be d316 c53c 6fec 383e 6ad5 8ebd
00000270: 532f 683d 560b 083b 3459 5a3e afff 4ebe
00000280: f202 2ebe aa09 103e 3fd0 143e 431a ed3c
00000290: b264 10be 24cf b6bc 1b6c f2bd d8ef 373d
000002a0: c2f4 de3d 3c3f 2cbe 3f87 ffbc af09 06be
000002b0: 5412 ef3c a27d 623d fa95 033e 7998 413c
000002c0: 51e4 aa3d 0e7d aebc 2a51 50bc 697f 76bd
000002d0: 6281 1c3c ee73 053c 1eb2 b93c 5f9a a13d
000002e0: 8e7b 07be 0e27 40be 9610 0e3e 5160 eebd
000002f0: 8fda 14bc d23d 14be 795f 9f3d 2bf5 353e
00000300: d1ab 1b3e 7b31 293d 0fa2 193d 3666 ed3c
00000310: 4a4c a43c 0970 4cbd 494e 023e f5ef 65bd
00000320: 53fb 32be fa45 26bc 3ccd 38be 135b f43d
00000330: 4a14 e9bc 9782 0c3d ef65 b93d 750e 15be
00000340: 903f ebbd cf6b 10bd 11d4 2b3e b28d 403e
00000350: 53a7 f53c e463 643e 614c 373b 1f9e bbbc
00000360: 66db 53be fdf5 a5bd 76cc 333e a1a1 d2bd
00000370: d17a 3a3d fe97 fbbd f090 a739 bbb7 1ebe
00000380: 35c3 0cbe 1aa2 e33d b945 863c 9e27 2c3d
00000390: fd6e fbbb 3779 6c3d f0b2 0bbe ac7c f13d
000003a0: c81c b23d 3dc7 2ebe 4346 0e3e ec10 82bd
000003b0: 98eb 9fbd 7fa7 083d a25e bc3d f22a 9d3d
000003c0: a22b 003e 499d 51be 4c7a 0abb b27b 20be
000003d0: f9e4 49be a825 06bc 141b 523d aad0 b1bd
000003e0: 2da1 3abe 32bc 273b 97cb 753c fef6 89bc
000003f0: 7f4f 0b3e 3edf 283c 578b 88bc 9af0 b73d

bias f4 [10]
-0.008880014 -0.071709424 -0.11942232 -0.06627518 -0.12335278 0.008883372 -0.14527269 -0.16635852
-0.16958266 -0.029575031
00000000: 7a7d 11bc 64dc 92bd b093 f4bd 48bb 87bd
00000010: 62a0 fcbd 908b 113c 5dc2 14be e359 2abe
00000020: 14a7 2dbe 5647 f2bc
