data/models/V8_model_fullV4.pth (torch, 115916 bytes, 26 tensors)

weight f4 [8, 2, 5, 5]
000000 04 ad 85 3e e6 5a 5e 3e 4a 43 f7 be 8d 81 fd bd
       0.26108563 0.21714363 -0.48293525 -0.123782255
000010 ac 82 8d 3d a9 19 e9 bd 72 39 ce be bc d2 35 be
       0.06909689 -0.113818474 -0.40278202 -0.1775617
000020 e7 5d 6e bd ed 92 1f 3e 8c c7 11 3f 6a 3d a3 bd
       -0.05819502 0.15583391 0.5694511 -0.07970698
000030 89 31 ab 3e 47 b9 e9 3e 28 3f fc 3e 8f e7 d1 bd
       0.3343623 0.45649168 0.49266934 -0.102492444
000040 69 a5 b4 3d d5 9c 49 3e 8d a8 5e bd f1 ac 8d be
       0.08820612 0.19688733 -0.05435996 -0.27671006
000050 4f f8 67 be 53 2e 9a be e9 11 9b bb 27 86 65 3c
       -0.22653316 -0.30113468 -0.0047323597 0.014009035
000060 51 31 7f be a1 eb 33 be 8f 99 df bc 89 9c 12 3b
       -0.24921156 -0.17570354 -0.027294902 0.0022371134
000070 ab 75 87 3e 20 30 d3 bd ed 00 92 3e c1 21 d8 bd
       0.2645696 -0.103119135 0.2851633 -0.10553313
000080 ff b6 bd bc 12 91 cd 3c b4 69 fe 3d ab b9 be 3e
       -0.023158548 0.025093589 0.12422505 0.37251028
000090 77 8d 2b 3e 7a 8f b2 3e 5d 36 63 3e ea e7 8c bd
       0.16753183 0.3487509 0.22188707 -0.068801716
0000a0 88 13 1a 3e 91 29 15 3e 65 7f 5f be b6 c9 2b be
       0.15046513 0.14566638 -0.21825941 -0.16776165
0000b0 18 d1 8d 3e e2 5f f6 bd a6 4c fc 3b eb c9 29 be
       0.27698588 -0.12030007 0.007699567 -0.16580932
0000c0 a5 42 1a 3e 4a 61 a0 bd 91 52 a6 3e 41 04 55 be
       0.15064485 -0.078310564 0.32484868 -0.20802404
0000d0 f7 dd c8 be b5 1e 99 be 39 37 f7 bd 96 05 2e be
       -0.39231846 -0.2990624 -0.1207108 -0.16994318
0000e0 ba 7e c8 3d b2 92 7b 3e 10 02 84 3d c7 3d a7 3d
       0.09789796 0.24567679 0.06445706 0.0816608
0000f0 6e fe 65 be 06 8c 61 bd 03 9d ed be 2a 28 7f be
       -0.22460338 -0.055065177 -0.46408853 -0.24917665
000100 02 81 51 3e 59 e6 c5 bd 34 12 13 bf d2 0d 47 3d
       0.20459369 -0.09663076 -0.5744965 0.048597164
000110 d6 4c a7 be e6 04 1b be f4 5a 8f 3e cb 40 b9 3d
       -0.3267581 -0.15138587 0.2799908 0.090455614
000120 a8 83 85 be 44 99 84 3e e2 96 3f 3d 8e b7 04 3d
       -0.26077008 0.25898182 0.046774752 0.032401614
000130 f9 aa 33 3e 84 06 5c be 2a 47 61 be ee 36 50 bd
       0.1754569 -0.2148686 -0.21999803 -0.050833635
000140 46 be e0 bd b1 1e c2 bd ed 19 fd 3e 5a 72 fa 3d
       -0.10973792 -0.0947851 0.49433842 0.12228842
000150 af 28 f6 3d bc b7 36 be 51 13 ed bd 64 6d bc be
       0.120194785 -0.17843527 -0.1157595 -0.36802208
000160 b9 f6 cd bc 64 1c 05 be 14 a0 88 be dd ac 3b 3d
       -0.02514206 -0.12999111 -0.2668463 0.045819152
000170 cf 36 d1 be 78 2f 9e 3e 05 8e 8b 3e 49 ab 8b be
       -0.40862128 0.3089559 0.2725679 -0.27279118
000180 6f 7a 99 3e c4 8b 63 bd 52 24 93 3e 77 a6 bf 3d
       0.29976222 -0.055553213 0.28738648 0.093579225
000190 d1 cd 8c 3e 17 9b d6 3d 6b 1f 8d bd c6 94 80 be
       0.27500775 0.104788 -0.06890758 -0.25113505
0001a0 55 78 ba be 53 c9 b5 3d e0 92 e0 bb 31 22 19 be
       -0.3641993 0.0887629 -0.0068534464 -0.14954449
0001b0 c1 c2 b4 bc 43 38 2d 3d 0b 05 de 3d 6f e4 05 3e
       -0.022065522 0.042289983 0.108408056 0.13075422
0001c0 ba 49 8f 3e df a0 eb 3d 3f 29 20 3e ed fc f3 bd
       0.27985936 0.11505293 0.15640734 -0.11913476
0001d0 7a 11 c7 3d 96 a4 57 3c ee e6 07 3e 26 52 8d be
       0.0972013 0.013161799 0.13271686 -0.27601737
0001e0 06 a0 6b be 3c 68 99 be 85 e7 42 be 35 0c 3e 3c
       -0.23010263 -0.29962337 -0.1903363 0.01159959
0001f0 d3 23 d4 be 75 dd 4e bb 09 d1 0b bf 92 07 9d 3d
       -0.41433582 -0.0031565104 -0.5461584 0.076674595
000200 ab 4d 16 3e c3 52 dc bd 10 b4 d9 bd be d7 fe bd
       0.14678065 -0.10757973 -0.10630047 -0.12443493
000210 2d 19 82 be dd ed a1 be c5 63 26 be b7 51 6b be
       -0.25409833 -0.31626788 -0.16248997 -0.2298039
000220 bf 4e 83 bd d6 bf 65 3e 81 11 a3 3e fc 92 40 3c
       -0.06411504 0.22436461 0.31849292 0.011753794
000230 1d d7 97 3d 52 bf 25 be 71 ea ea 3c 84 d0 7d 3e
       0.074140765 -0.16186264 0.028676243 0.24786574
000240 11 37 14 be 8d b6 4a be a9 d1 c9 be 6b 0a 9a be
       -0.14474131 -0.197962 -0.3941777 -0.30086073
000250 66 14 d2 bd a8 96 0b 3d 1c e6 5c bd 33 79 c4 3c
       -0.10257797 0.034079224 -0.053930387 0.023983574
000260 78 08 22 be 02 55 13 be e4 f3 40 be 41 69 3f be
       -0.15823543 -0.14387897 -0.18843037 -0.18692495
000270 cd f3 f7 bc 85 f8 e5 bd 16 66 14 be cc 4e 97 be
       -0.03026762 -0.11229042 -0.14492068 -0.29552305
000280 54 e4 52 be e0 7b 51 bc 30 9b ba 3d 88 80 d6 3e
       -0.20594913 -0.012785882 0.09111631 0.41894937
000290 dc 21 36 3e 93 e5 c7 bc 22 57 8e be d8 0a b1 bd
       0.17786354 -0.024401462 -0.27800852 -0.086446464
0002a0 26 45 ce bd 65 dd 38 bd a1 f6 be 3d 91 32 80 3e
       -0.10071783 -0.045133013 0.093243845 0.2503858
0002b0 9b 26 50 3e 38 a4 61 3e 33 e1 3c bd 20 cd 53 be
       0.20327227 0.220353 -0.046113204 -0.20683718
0002c0 45 69 03 be 2c 15 dc bd 5a 68 96 bd 98 fc 53 be
       -0.12833126 -0.10746226 -0.07344122 -0.20701826
0002d0 6b 67 4a 3d 23 77 80 3d a0 35 8e 3e c8 ad ed 3c
       0.049415033 0.062727235 0.27775288 0.02901353
0002e0 f3 09 95 3e e6 e4 c0 3e b1 3f 97 3d 36 d7 3a 3e
       0.29109153 0.37674636 0.07385195 0.18246159
0002f0 e0 70 80 be c7 b8 93 3d 9f ec 70 be a5 36 a7 bd
       -0.25086117 0.07212978 -0.23527764 -0.081647195
000300 c0 14 9f bd 83 8a 20 bd d8 e5 77 3e 8a 66 9e 3e
       -0.077676296 -0.039194595 0.24208772 0.30937606
000310 6d 22 3e 3e fb 45 98 3e 1a 13 12 3e 18 e8 eb 3d
       0.1856782 0.2974089 0.14265099 0.11518878
000320 fa 9a d6 3e 2e 56 42 3e 2c c6 3b 3e 93 eb f0 3e
       0.41915113 0.18978187 0.18337315 0.4705473
000330 94 dc 0c bd c9 01 c7 bc dd ec fe 3c 32 e8 92 be
       -0.034390047 -0.024292843 0.031118805 -0.28692776
000340 d8 ba 19 3e 3c 35 2c 3e 5c 54 8d 3c 8c 05 8a 3d
       0.15012681 0.16817182 0.01725214 0.06739339
000350 18 a9 f4 3d 9e ab 54 be df a8 8d 3e 9d 52 1e be
       0.119463146 -0.20768592 0.276679 -0.15461202
000360 7d 8a 14 bd 18 f9 16 bd c2 24 38 be ef 4c e7 bd
       -0.036264885 -0.036858648 -0.17982772 -0.11293971
000370 ac 66 2e 3d 45 59 1d 3e d1 74 95 be cc aa da bd
       0.042578384 0.15366085 -0.29190686 -0.10677108
000380 d8 ce f5 bc 9e 24 de 3e c9 70 aa 3e fa 18 b6 3e
       -0.030005857 0.43387312 0.33289173 0.3556593
000390 ce 23 04 3f a7 e7 40 3e 2a 90 78 bd a1 18 d8 3d
       0.51617134 0.18838368 -0.06068436 0.105515726
0003a0 8a a3 e8 bc c0 97 99 3d f2 35 39 be d0 94 b0 be
       -0.028398294 0.07499647 -0.18086985 -0.34488535
0003b0 5d e8 53 bd 38 62 a1 be 28 a6 c7 bd 44 f9 02 bf
       -0.05173527 -0.31520247 -0.09748489 -0.511616
0003c0 f5 cd de 3e 8d 61 b2 3d 7a e0 74 3e 57 5c aa 3c
       0.43516508 0.087100126 0.23913756 0.020795984
0003d0 42 84 98 bc bb 22 da be 97 73 a3 3d 72 df 0a be
       -0.018617753 -0.42604622 0.079810314 -0.135618
0003e0 ec e5 86 be 8b e4 9c be 05 30 bd 3e a0 06 43 3e
       -0.2634729 -0.30643114 0.36950698 0.19045496
0003f0 9d 69 86 3e c1 c6 e2 bc 56 7f b5 3d 60 e3 8c bd
       0.26252452 -0.027682664 0.08862178 -0.06879306

bias f4 [8]
000000 1b a8 a6 bd 70 f9 f5 3b 66 ae 11 3e b5 fe ac bd
       -0.08137532 0.007506542 0.14226684 -0.08447019
000010 23 00 1f be d7 1f 20 be 54 49 3b 3d bb af fc bd
       -0.15527396 -0.15637146 0.045724228 -0.123382054

weight f4 [8]
000000 15 70 8c 3f e4 12 86 3f 9f 05 76 3f 16 b4 82 3f
       1.0971705 1.0474515 0.9610233 1.0211208
000010 01 4f 8b 3f 97 30 81 3f 3b 0e 65 3f 2e ec 73 3f
       1.0883485 1.0092953 0.8947484 0.95282257

bias f4 [8]
000000 2f ac ad 3d bb 6a 00 be 19 62 52 3d 8e 90 31 be
       0.08480107 -0.12540714 0.051363084 -0.173403
000010 ec de b5 bd a7 6b bf 3c 41 10 23 3e 42 98 24 3e
       -0.088804096 0.023366762 0.15924169 0.16073707

running_mean f4 [8]
000000 3f d7 1b 3f 96 6f 55 3f 3e 45 8f 3f 72 cc 84 3e
       0.60875314 0.8337339 1.1193006 0.2593723
000010 60 83 ef 3e d2 e0 a3 3e ae 9d 23 3f 0b 7d b2 3f
       0.4677992 0.32007462 0.63912475 1.394441

running_var f4 [8]
000000 ae b0 91 3f 9f 11 7d 3f 0c 50 d9 3f e2 38 bd 3e
       1.1382043 0.9885501 1.6977553 0.3695746
000010 8a 7f 34 3f 79 8b bd 3e 14 8c 39 3f 25 9b bf 40
       0.7050711 0.37020472 0.7247937 5.9876885

weight f4 [16, 8, 3, 3]
000000 60 15 8c bd 2e 7a c2 3d d3 b0 13 be b1 ab 4d 3e
       -0.068400145 0.0949596 -0.14422922 0.20085026
000010 cf 09 33 3e 46 f8 c9 bd 65 0e c0 3e 57 9b 95 be
       0.1748421 -0.098618075 0.37510982 -0.29220077
000020 4c f6 ba 3e 37 e8 01 3e e1 97 7b be df c4 ae bd
       0.36516035 0.12686239 -0.24569656 -0.08533644
000030 2d ca 26 be 44 a1 6a 3e 04 f9 ae 3d 4c cb a0 3c
       -0.16288061 0.2291308 0.0854359 0.01962819
000040 65 d8 81 bd 32 de 63 3e 2a df 13 3e 59 80 82 3e
       -0.06340102 0.2225273 0.14440599 0.25488546
000050 d5 31 ea 3d 5f be 47 3e de 37 39 be 62 81 0b 3e
       0.11435286 0.19506215 -0.18087718 0.13623574
000060 e4 5a 49 3e d7 56 47 3e d0 0e 86 3e 83 5c 5a 3e
       0.19663578 0.1946672 0.26183176 0.21324353
000070 ef 4b 1e 3e 15 5f 96 3e 96 50 92 be 28 ad 8c 3d
       0.15458654 0.29369417 -0.28577107 0.068689644
000080 fb 16 d4 3d 2d f3 88 3e d0 4b 1a 3e 09 b6 48 bd
       0.10355946 0.26748028 0.15067983 -0.049001727
000090 b5 9c 2c be ad 76 64 be a7 28 67 bb af 47 76 bb
       -0.16856654 -0.22310896 -0.0035272033 -0.0037579348
0000a0 4c 0e ce bd dd 60 8c 3e d9 d5 0e be f3 dd 51 b7
       -0.10061321 0.2741765 -0.13948764 -1.2509047e-05
0000b0 e1 d4 08 be 07 74 78 bd 69 3b 29 be fe a1 b5 3c
       -0.13362457 -0.060657527 -0.1652657 0.02217197
0000c0 56 b5 45 be 00 bd 2f 3e 89 76 32 3e 97 30 44 3e
       -0.19307455 0.17161942 0.1742803 0.1915916
0000d0 e0 d0 94 be b5 83 70 bd 98 52 5b 3d 7e a1 a0 3d
       -0.2906561 -0.058719356 0.053545564 0.07843302
0000e0 67 29 a6 bd 09 16 00 3e 5b af fb 3e ce 38 df bd
       -0.081133656 0.12508406 0.49157223 -0.108995065
0000f0 74 2b 73 bd dc 6b 17 be 19 f3 80 3e 08 cd 52 3e
       -0.059367612 -0.14787239 0.2518547 0.20586026
000100 f0 42 de bd 03 b0 b2 3e 16 1a 49 be a9 95 16 3e
       -0.10852611 0.3489991 -0.19638857 0.14705528
000110 3b 1f 56 3e 92 f8 27 3e ba e7 ad 3e ec 13 d7 3e
       0.20910351 0.16403416 0.33965856 0.42007387
000120 99 16 ec 3e 4f 79 60 3e 47 0c bd 3d 20 06 81 be
       0.4611099 0.21921276 0.09230857 -0.25199986
000130 f8 50 81 3d 3c 0a e9 bd 5f 30 ab be 55 79 70 be
       0.06314272 -0.11378905 -0.33435342 -0.23483784
000140 b1 10 41 be 5e 79 3e 3e 14 9f 9f bd 25 ad d5 3d
       -0.18854024 0.18600985 -0.077940136 0.10433415
000150 33 1e b5 be a4 92 63 bc d6 94 b4 3e 27 39 12 3d
       -0.35374603 -0.013889942 0.35269803 0.035699036
000160 e8 5a c8 be 6c 0c 0c be 7f af cc bd d3 7c fe bd
       -0.39131856 -0.13676614 -0.09994411 -0.12426152
000170 cd 0b d2 bd a8 94 49 be 29 59 58 3d 7d 5d f8 3a
       -0.10256157 -0.19685614 0.052819405 0.001894876
000180 8c 24 8e 3e b8 bf 46 bc a9 72 03 bd d3 ef e6 bd
       0.27762258 -0.01213067 -0.03209177 -0.112762116
000190 cc c9 b2 3d 40 23 e2 bc d7 60 4b be b7 ca 81 3c
       0.08729896 -0.0276047 -0.1986116 0.015843732
0001a0 cb 69 37 3e 47 75 ec 3d 3e e1 2f 3e ca c0 11 be
       0.1791145 0.115458064 0.17175767 -0.142337
0001b0 1e 10 28 bd b9 7e 29 be fb a7 bf 3d 28 e3 fd 3d
       -0.041030996 -0.16552247 0.093582116 0.12396842
0001c0 64 fc 63 3e 21 75 18 3f c1 ca 89 be ad a1 3b 3d
       0.22264248 0.59553725 -0.269125 0.045808483
0001d0 01 78 43 be 60 76 00 3e 24 54 53 be 14 e0 86 3e
       -0.19088747 0.12545156 -0.20637566 0.26342833
0001e0 71 7c 1d 3e 25 48 84 3e c9 13 08 bd 96 fb c5 be
       0.15379502 0.25836292 -0.033221994 -0.38668507
0001f0 01 a7 21 3c 77 34 d8 be 0f 39 09 3e 5c b9 0a be
       0.009866477 -0.42227527 0.13400672 -0.13547271
000200 77 70 a6 3d 71 01 2c be 6e 2c 5f be 08 e2 fb bd
       0.0812692 -0.16797425 -0.21794292 -0.122989714
000210 b9 3c bf be 6a 49 2d be 23 d7 8c 3d d9 fa 5a be
       -0.37351015 -0.16922536 0.068769716 -0.21384753
000220 21 76 bf 3d 12 e8 0e bd b5 d3 39 3d 5a e2 2a 3e
       0.09348703 -0.03488929 0.045367915 0.16687909
000230 77 2c 06 3d 55 03 45 be c8 71 09 be df 59 94 be
       0.03275725 -0.19239552 -0.1342231 -0.28974816
000240 b1 91 b9 be c0 2b 07 be 99 d2 54 be d2 bf 0b be
       -0.36243966 -0.13200283 -0.20783462 -0.13647392
000250 e4 e4 65 3e cf 63 a8 be 22 00 55 3e 4c c2 90 3d
       0.22450596 -0.32888648 0.20800832 0.07068309
000260 9a 04 03 be 9b 3b 8b 3e 9c 75 b7 3e 3b a8 03 be
       -0.12794724 0.27193913 0.35831916 -0.12857144
000270 f2 ca 9d 3e 76 89 0f be d2 7a 91 3e f2 e8 97 be
       0.30818897 -0.14017281 0.28414017 -0.2966991
000280 ea 39 92 be bc 30 6c be ab 37 57 be b4 70 ce bd
       -0.2855981 -0.23065466 -0.2101733 -0.1008009
000290 91 6d 76 bd e2 da 81 3d fc 2b 1d be 37 77 32 3e
       -0.060163084 0.06340577 -0.1534881 0.1742829
0002a0 36 7d 83 3e 0e c1 27 be 41 9d 2d be 46 35 26 be
       0.25681466 -0.16382238 -0.16954519 -0.1623126
0002b0 fd f9 86 bc cc 9e a9 bd 1f 9e a2 3e c3 99 e8 3e
       -0.016476626 -0.08282241 0.31761262 0.4542981
0002c0 b5 b1 a2 3e 16 91 9c be 94 00 f0 3d a9 a2 08 be
       0.31776205 -0.30579442 0.1171886 -0.133433
0002d0 e1 fb 0e bf c8 4e b3 bc 1a 0f 31 3e 6f f6 9f 3e
       -0.55853087 -0.021888152 0.17290917 0.312427
0002e0 9f a3 55 be 7e 55 b3 3d 76 7b 7e bd 1c e3 c1 3e
       -0.20863198 0.08756541 -0.06212946 0.37868583
0002f0 f4 f3 fe bd 20 6c 87 bd 0a 2a 16 be d5 9f 4d 3e
       -0.12448874 -0.0661242 -0.14664474 0.20080502
000300 52 39 10 3e a4 ab 44 be b7 c0 7b bd 77 61 82 be
       0.14084366 -0.192061 -0.061463084 -0.25464985
000310 61 99 de bb 3e ab 80 be 4b b6 33 3e 37 59 cc 3d
       -0.0067931865 -0.25130647 0.17550008 0.09977954
000320 d3 e2 3b 3d d0 c1 c4 3d cd a8 f6 3d b4 a9 bd bd
       0.045870613 0.09607279 0.12043915 -0.09260884
000330 f1 0f af 3d 5a cc 52 3e b4 f5 d2 be 72 bb 2b 3e
       0.085479625 0.20585766 -0.41203082 0.16770723
000340 3c eb 1f be b7 d1 56 be 29 69 cf bd fc 10 4c be
       -0.15617079 -0.20978437 -0.101274796 -0.19928354
000350 c3 7a 85 be fe 7e b2 bd 46 bc f7 3e f4 48 e8 bd
       -0.26070222 -0.08715628 0.4838583 -0.1134204
000360 61 e0 c2 bd af c8 9b be 4f 7b ae be 93 96 11 be
       -0.09515453 -0.30426547 -0.34078452 -0.14217596
000370 1a 16 52 3d 46 7a 2e be a8 7b 7b be ed 71 25 be
       0.05129061 -0.17038831 -0.2455889 -0.1615674
000380 30 2e cc 3d e3 2b 74 3d 8b 18 0b 3d f4 df 14 bc
       0.09969747 0.059612166 0.033958953 -0.009086598
000390 42 a8 1e bd 3f 95 b3 be 0b 9b 56 3e 3c a7 fc bd
       -0.038734682 -0.35074803 0.20957582 -0.12336585
0003a0 c5 12 5a 3e 17 ff 1b 3e 3c 83 29 bd db de a6 3c
       0.21296223 0.15234028 -0.04138492 0.020369938
0003b0 70 5b 9f bd 7c 0d 86 be 5d 69 50 3e ac 9b 98 be
       -0.07781112 -0.26182163 0.20352693 -0.29806268
0003c0 69 2b f3 bd 1f 95 85 be db 16 73 3d b9 3b 43 3e
       -0.11873514 -0.26090333 0.05934797 0.19065751
0003d0 ea 43 0f bc 30 85 c4 bb 96 cb d9 be 1e 07 c2 bd
       -0.008744219 -0.0059973225 -0.42538136 -0.09474014
0003e0 28 fe 88 be b1 ad cf bd 40 a9 51 3e 75 ee d4 3d
       -0.26756406 -0.10140551 0.2047472 0.103970446
0003f0 ea 0a e8 3a ac 04 5e 3e 2c a4 26 3d 18 f2 bf be
       0.0017703448 0.2168147 0.04068391 -0.3748939

bias f4 [16]
000000 e1 93 06 be a3 b9 33 bd 29 57 8b bd 16 3f a3 3d
       -0.13142349 -0.04387821 -0.06803734 0.07971017
000010 ed 77 91 bd 0c 1a 80 be 14 d6 ae bd 01 fb b3 3d
       -0.07102952 -0.25019872 -0.08536926 0.087881096
000020 d7 2f 76 be 79 18 0c be 93 18 26 be 0c c8 0f be
       -0.24041687 -0.1368121 -0.16220312 -0.14041156
000030 d5 b5 c9 3d de 53 32 bd d2 c1 c3 bd 2e 1c 65 be
       0.09849135 -0.043537013 -0.09558453 -0.22374031

weight f4 [16]
000000 cf 54 6a 3f 31 59 7a 3f 9b 69 82 3f fd cf 7c 3f
       0.9153566 0.97792345 1.0188478 0.98754865
000010 a3 5f 83 3f 9c 7d 86 3f 9f 1c 3e 3f 68 16 6e 3f
       1.0263561 1.0507083 0.7426242 0.9300294
000020 a4 16 54 3f 5a 2b 8c 3f 70 88 6e 3f 99 8f 61 3f
       0.82847047 1.095073 0.9317694 0.8810974
000030 7b 73 86 3f 9a a1 55 3f ae 67 6d 3f 1c be 8e 3f
       1.0503992 0.8344971 0.9273633 1.1151767

bias f4 [16]
000000 8e 2a a7 3e 09 b7 9b bd d0 b1 3b bd a8 11 4f be
       0.32649654 -0.076032706 -0.045823872 -0.20221579
000010 f7 16 57 3e 6b 1f 4b 3e 23 6c a8 3e f3 d9 45 bd
       0.21004854 0.19836204 0.32895002 -0.048303556
000020 03 bc 93 3e 22 3d 9b be 0d a4 34 be 8d ab bb 3e
       0.2885438 -0.30320078 -0.17640705 0.3665432
000030 46 1f ec 3c fd ee 43 3e ca 43 a5 3e 57 f2 f6 bd
       0.028823506 0.19134136 0.3227828 -0.120579414

running_mean f4 [16]
000000 9a 5f 59 3f d2 0d ec 3e 56 43 11 3f aa 07 42 3f
       0.849115 0.46104294 0.5674337 0.75792944
000010 90 08 09 3f a6 70 06 3f 39 7a 2e 3f cd c0 cf 3f
       0.5352869 0.5251564 0.68155247 1.6230713
000020 35 fb 81 3f 77 f4 1f 3f b5 59 39 3f 39 50 f2 3e
       1.0154787 0.624824 0.7240251 0.4732683
000030 e0 32 70 3f 4a 53 97 3f 20 cf 2b 3f 0f 32 91 3e
       0.9382763 1.1822293 0.6711292 0.28358504

running_var f4 [16]
000000 01 08 10 40 7e 1d 54 3f 1d 1c 8a 3f 85 c3 04 3f
       2.2504885 0.828575 1.078983 0.5186084
000010 15 0c 52 3f 50 2b e4 3f 65 58 db 3f ed 4f e8 40
       0.82049686 1.7825718 1.7136351 7.2597566
000020 c7 ef 81 40 18 e6 4a 3f 3e 3e 1d 40 7a 39 ae 3f
       4.0605197 0.79257345 2.456924 1.361129
000030 fd c8 9c 3f 5d f1 c7 40 4a 26 b6 3f 78 23 aa 3e
       1.2248837 6.2482133 1.4230435 0.33230186

weight f4 [32, 16, 3, 3]
000000 97 2b 01 3e 2d 58 27 3e f5 3c 8d be c0 1a ed bc
       0.12614284 0.1634223 -0.2758557 -0.02894342
000010 3d b5 5e 3e 50 d8 78 3d 80 c3 ed 3c f4 cc 98 bd
       0.21748824 0.060753167 0.029023886 -0.07460967
000020 bb 9b 05 3e ed 42 16 3c 23 a2 b8 3d 56 69 44 3e
       0.13047688 0.00917123 0.090153 0.19180807
000030 91 fc 4f 3c 7b 30 b9 3d 9b 41 c5 3d 68 8c 9c be
       0.012694494 0.0904245 0.09631654 -0.3057587
000040 1a 9b b4 3c 1e 8d b1 be b6 9d 68 3e c9 a3 eb 3d
       0.022046614 -0.34677976 0.22716412 0.11505849
000050 43 f4 06 3e b1 ad 83 bd 01 52 3c be ab 73 01 bf
       0.13179116 -0.064296134 -0.18390657 -0.5056712
000060 ea a6 38 be a0 63 c4 bc d1 57 9b be 7f 96 9e 3c
       -0.18032423 -0.023973286 -0.30340436 0.019358872
000070 cd 6c d4 3c 1e d9 3a be 13 5c 08 3e 36 b7 60 bd
       0.025930787 -0.18246886 0.13316374 -0.054862224
000080 be 60 8a 3d 63 b6 41 bd 86 b1 20 be 6d 1d 08 3e
       0.06756733 -0.04729308 -0.1569272 0.13292475
000090 c6 94 2e be 1e f7 a8 bd ff 19 68 bd 37 ff a6 bc
       -0.1704894 -0.08250259 -0.056665417 -0.020385368
0000a0 82 e9 72 bd 2f 88 10 3d 4c 92 95 3e 2e 46 02 3f
       -0.05930472 0.035286125 0.29213178 0.50888336
0000b0 b1 f8 1d 3e 1a de 83 be 0c c1 cc bd fd 4a 65 be
       0.154269 -0.25755388 -0.09997758 -0.22391887
0000c0 d4 e9 21 3e 45 0e 42 3c 32 1f 9c 3d 2c eb 3c be
       0.15811855 0.011844222 0.076231375 -0.18449086
0000d0 5e a4 fc bd b8 6b 20 bd 45 fb a3 3b fb 75 10 be
       -0.12336038 -0.03916523 0.005004319 -0.14107506
0000e0 94 0a ca 3d cc c4 55 3d 37 57 82 be 00 64 ab be
       0.09865299 0.052189633 -0.25457165 -0.3347473
0000f0 69 be c1 3c af fb 01 bd b2 86 94 3c 86 7a 68 bd
       0.023650365 -0.031734165 0.018130634 -0.056757472
000100 c9 48 6f 3d 3e 3e 52 bd 37 47 9d bd 29 c9 a6 3c
       0.058419023 -0.05132889 -0.07679599 0.020359593
000110 c4 07 99 bd fc 15 25 be 74 cb 8a 3c f3 16 16 bd
       -0.07472184 -0.16121668 0.016942717 -0.03664298
000120 19 d5 06 be 1f 09 86 3d e3 56 0c be 89 04 48 3d
       -0.13167228 0.065447085 -0.1370502 0.04883245
000130 eb 23 72 3e 39 21 8a 3d 8b c8 2b 3e 72 e5 f4 3d
       0.23646514 0.06744618 0.1677572 0.11957826
000140 79 b6 0c 3e 95 fa 50 3d b0 fe 67 3d d0 49 0d 3e
       0.13741483 0.051020224 0.056639373 0.13797688
000150 4b 7b 22 3e f7 db b6 3d 05 7c 92 3c 8a 6b b7 bd
       0.15867345 0.08928674 0.017881403 -0.08956058
000160 06 c4 2f 3e 6b 97 c1 bd 1c f8 a3 3e 05 aa 27 3e
       0.17164621 -0.09452709 0.3202523 0.16373451
000170 a4 1e 9e bd 5c 71 10 3e a7 4d 85 3d 8c 5c da bd
       -0.07720688 0.14105743 0.06508952 -0.10662183
000180 ee 1a 42 bc c4 52 80 3d 74 2b 23 3e cf 56 0e 3c
       -0.011847241 0.06265786 0.15934545 0.008687689
000190 33 43 19 3d 6d 23 02 3e 10 92 53 3c 5e 69 ad bb
       0.0374176 0.12708826 0.012913242 -0.0052921018
0001a0 75 c4 66 bd 55 39 f6 bd 5e 56 d2 bd de bb e8 3d
       -0.0563397 -0.12022654 -0.102703795 0.11363958
0001b0 c7 1f b1 bd 97 06 8f 3c 57 f3 13 be 8c 09 1e 3d
       -0.08648639 0.017459197 -0.14448296 0.038583323
0001c0 62 2a c1 3d 53 a6 f0 3c f3 8f c7 bc 49 79 a8 bc
       0.09431912 0.029376185 -0.024360633 -0.020565646
0001d0 2b 10 1b be 56 88 3b 3e 10 40 a4 3e df 3b d0 3d
       -0.15142886 0.18313727 0.32080126 0.101676695
0001e0 9f d4 f7 3c 5f cd ca 3c 7b 72 85 3d ce 93 27 3e
       0.030252753 0.024756132 0.06515976 0.16364977
0001f0 5f 27 ff 3d 65 53 b7 3e ee 4e 22 be 81 6e fb bd
       0.12458681 0.35805812 -0.15850422 -0.12276936
000200 49 91 28 3d 4d 1d 12 be 60 e6 ad bd 5c 44 bf bd
       0.04115418 -0.1426899 -0.08491206 -0.093392104
000210 30 32 9f bd b0 70 ed bc 2d 06 8d 3d 02 af 21 3d
       -0.077732444 -0.028984398 0.068859436 0.03947354
000220 77 78 08 3e b9 49 2f be 59 85 0b bd 39 38 69 be
       0.13327204 -0.17117967 -0.034062717 -0.22775353
000230 08 e1 bc bd c3 8a 3e bd 38 17 82 bd 67 fe 37 be
       -0.09222609 -0.046519052 -0.06352085 -0.1796814
000240 fc a4 c1 bd aa dc 6a 3d 94 0c 1d 3c 32 94 32 be
       -0.094552964 0.057339348 0.009585518 -0.17439345
000250 6a a9 35 3d 27 a4 89 be a1 48 33 be 43 9b 69 bd
       0.04435102 -0.2688305 -0.17508174 -0.057032835
000260 4c 83 52 bd 55 22 a7 3e 64 36 ba 3d ef 57 3a 3e
       -0.051394746 0.3264338 0.090924054 0.18197607
000270 ee be 9c 3d 1e 45 80 3c 47 55 85 3a b8 39 87 3d
       0.076536044 0.015657958 0.0010172509 0.06602806
000280 d3 6b 2a 3e 91 52 26 3d 74 8a 1d 3e f0 91 9a 3e
       0.16642694 0.040606085 0.15384847 0.30189466
000290 d7 8f 35 be 43 5f 2f bd 0d b7 5a 3d 41 3a ce bd
       -0.17730652 -0.042815458 0.053397227 -0.10069705
0002a0 de 83 3c 3e af dd 0d 3e 5c 2b e5 bc 20 4e 0d be
       0.18409678 0.13854097 -0.027974777 -0.13799334
0002b0 d3 b9 d7 bd 95 eb 92 be 47 0f d1 bd e7 e0 9f 3d
       -0.1053349 -0.2869536 -0.10207992 0.078065686
0002c0 f1 da e1 3c 06 75 97 bd 84 74 48 be 53 83 87 3d
       0.02757022 -0.07395367 -0.19575697 0.06616845
0002d0 49 58 ba bd 93 83 0c be 7a 3b 38 be ef 95 29 be
       -0.0909887 -0.13722067 -0.17991439 -0.16561101
0002e0 e2 df 18 be 3d f9 8f bd 95 3c 67 bd 04 1f a6 be
       -0.14929155 -0.0702996 -0.05645426 -0.32445538
0002f0 51 47 13 be 4b c6 5d be 8f 7b 27 3e b2 0f a6 3e
       -0.14382674 -0.21657674 0.16355728 0.3243385
000300 bd b9 b1 bd b4 20 f6 bc 0f 40 98 3c 59 c5 89 be
       -0.08678005 -0.030044891 0.018585233 -0.26908377
000310 09 d1 48 be c9 94 2f bd d7 e9 fd 3c 9a 38 20 3d
       -0.1961099 -0.042866502 0.030995293 0.03911648
000320 bb 3a 90 bd f9 d0 51 3e f8 77 b0 3d 99 ff bb bd
       -0.07042452 0.20489873 0.08616632 -0.09179611
000330 0e 1a 24 be 5e 1f 65 3d c9 1c 3c be c0 d3 2f bd
       -0.16025564 0.055938117 -0.18370356 -0.04292655
000340 d1 b7 8d 3e 9c 2d 13 3e 4c 4d 0c 3d dc f9 7a bd
       0.27679303 0.14372867 0.034253404 -0.06127344
000350 e9 4c c2 bd 24 8e b4 bc af 42 84 3a d3 ef d1 bc
       -0.09487326 -0.022040434 0.0010090674 -0.025627052
000360 d2 a0 2f 3e 44 67 df 3d ac cb 15 3e bd 5b 96 3c
       0.17151192 0.10908368 0.14628476 0.018354291
000370 83 d5 49 3d a6 c3 af bc 50 b8 ff bc d9 78 ae bd
       0.049275886 -0.021455597 -0.031215817 -0.085191436
000380 19 f1 f6 bd 7d 90 19 3e 1d 4c 17 3e 4c 97 1d be
       -0.120577045 0.14996524 0.14775129 -0.15389746
000390 57 70 6f 3e 26 ad 18 3d d1 07 00 bd 23 5c 1d bb
       0.23382698 0.037274502 -0.031257454 -0.0024011217
0003a0 44 cc 7c bd 19 b4 40 3c 6e d0 1d 3e df 94 24 3e
       -0.06171824 0.011761689 0.15411541 0.16072415
0003b0 b3 0b d7 bc 71 05 86 bb cc 21 4d 3e 94 1c b8 3d
       -0.026250696 -0.004090004 0.20032424 0.08989826
0003c0 a5 db 03 be c2 b8 82 be 21 78 4b bd e6 1c 16 3e
       -0.12876756 -0.25531584 -0.04967511 0.14659461
0003d0 95 f9 44 3d 15 76 a0 3e 8d bd c2 bd cc d9 61 3e
       0.048089582 0.3134009 -0.0950881 0.22055739
0003e0 33 44 2b be 7f 04 bf be bd f4 10 3e 78 18 b1 bd
       -0.16725235 -0.37308118 0.1415586 -0.08647245
0003f0 d0 b6 60 3e 27 0c 10 3e 56 70 9e 3e e9 ec a6 bd
       0.21944737 0.14067136 0.3094508 -0.08150656

bias f4 [32]
000000 fd 78 13 be 0a 9d 94 be 1c 58 18 be ad 6d da be
       -0.14401622 -0.2902606 -0.14877361 -0.426618
000010 fc 68 e2 bd 88 b0 80 bd 21 e0 5a 3c 28 7c 66 bc
       -0.110551804 -0.06283671 0.013359101 -0.014067687
000020 44 f0 d8 bd 9d 1d 96 be a8 a1 3a 3c 1b 74 d6 bd
       -0.10592702 -0.29319468 0.011391081 -0.10471364
000030 3b ad 79 bc 66 a7 59 be 0d cc 74 bd 21 65 a8 3c
       -0.015239055 -0.21255264 -0.05976491 0.020556035
000040 42 50 bb bd 3b 64 c0 3d 95 d1 c4 bd 30 0a d3 be
       -0.09146167 0.093941174 -0.09610287 -0.4121871
000050 60 ca e3 bd 5b 92 37 be 8d ac 07 3d 3a df 6b be
       -0.11122584 -0.17926924 0.03312354 -0.23034373
000060 ac d5 9e bd 45 1a ef bd b9 8a be bc 71 a8 aa bd
       -0.077555984 -0.116749324 -0.023259507 -0.08332909
000070 3f 8f 81 be 51 28 8d 3c 9f 98 43 be ac 9f 1f bd
       -0.253046 0.017231138 -0.19101189 -0.038970634

weight f4 [32]
000000 30 d1 67 3f d6 34 57 3f b4 f4 87 3f 25 a9 7d 3f
       0.9055357 0.84064996 1.0621552 0.9908622
000010 24 0c 60 3f cc 9f 40 3f 90 ab a5 3f ef 64 4a 3f
       0.87518525 0.7524383 1.2942982 0.7906026
000020 46 52 5a 3f 30 0b 82 3f 3b 8a 62 3f 0d ee 70 3f
       0.8528179 1.0159664 0.8849217 0.94113237
000030 d1 33 5e 3f 6e bf 43 3f 31 88 4c 3f 22 f9 84 3f
       0.86797816 0.76463974 0.7989531 1.0388529
000040 17 da 6c 3f 59 c5 a1 3f 34 60 57 3f ca 88 8c 3f
       0.9252028 1.2638351 0.8413117 1.0979245
000050 ce 1c 8b 3f c1 c3 84 3f b0 57 8a 3f 0d 84 4b 3f
       1.0868165 1.0372239 1.080801 0.7949837
000060 4a 0c 90 3f 28 a1 74 3f db ab 37 3f 47 a5 8f 3f
       1.125375 0.95558405 0.71746606 1.1222314
000070 29 f6 58 3f f8 71 5d 3f a9 68 99 3f 4d 2a 68 3f
       0.8475061 0.8650203 1.1985065 0.90689546

bias f4 [32]
000000 ca ab ac 3e 7c 75 3c bc 9f 3a ca 3e 25 91 9a be
       0.33724815 -0.01150262 0.3949785 -0.3018886
000010 a8 51 91 3d c5 a1 eb 3e f7 82 5d 3e 40 10 a4 be
       0.07095653 0.46021858 0.2163199 -0.32043648
000020 52 fa 92 3e 97 3a 97 be ef 50 c7 3e 35 43 bb 3e
       0.28706604 -0.29536888 0.38928935 0.36574712
000030 41 db ad 3e e0 c6 9a bd 8f 91 be 3e f0 43 71 be
       0.3395634 -0.07557464 0.37220427 -0.23561072
000040 a9 bc 2f be 13 cd 5c 3c bc a0 bd be 40 7e f0 be
       -0.17161812 0.013476628 -0.37036693 -0.4697132
000050 b9 8e a5 3e de 3b be 3e 81 07 1e 3e 34 39 8d be
       0.3233545 0.3715505 0.1543255 -0.27582705
000060 58 b5 b4 3e 05 cb a9 be 10 07 b9 3e ee 61 89 3e
       0.35294604 -0.33162704 0.361382 0.26832527
000070 e5 46 70 3e 8f 78 a4 3e ff e8 b2 3d f6 88 c2 be
       0.23464544 0.3212323 0.08735847 -0.37995118

running_mean f4 [32]
000000 fc 61 1b 3f 6a 15 2c 3f 93 a2 36 3f 23 0b 98 3e
       0.6069639 0.67220175 0.7134182 0.29695997
000010 ed 0c c1 3e 90 4e df 3f 85 64 e8 3e 37 f4 1c 3f
       0.37705174 1.744585 0.4538919 0.6131014
000020 a8 0b 09 40 86 20 ac 3e 96 f2 a5 3f bc 75 8b 3f
       2.1413364 0.33618563 1.2964656 1.0895305
000030 54 59 65 3f 38 5e a7 3f 74 8b 76 3f 08 d7 2b 3f
       0.8958943 1.3075628 0.9630654 0.67124987
000040 3d 42 2d 3f 77 ca 65 3f 8e d0 0f 3f ac 91 cb 3e
       0.67679197 0.8976206 0.56177604 0.39759576
000050 d4 ed 2a 3f 2e c7 56 3f 5b 2e a7 3f 5b 1c b2 3f
       0.66769147 0.83897674 1.3061022 1.3914903
000060 da 4e f1 3e 7f 49 c4 3e fa d6 86 3f d0 be 34 3f
       0.4713047 0.38337323 1.0534356 0.70603657
000070 52 50 04 3f 44 87 e4 3e 1a 6b 40 3f 78 58 62 3f
       0.5168506 0.4463445 0.75163424 0.8841624

running_var f4 [32]
000000 24 ff d6 3f 14 62 ee 3f 55 c7 14 40 73 f9 f6 3f
       1.6796613 1.8623681 2.3246663 1.9294876
000010 04 92 50 3f 00 51 2e 41 5f 07 56 3f 13 fe aa 3f
       0.814728 10.894775 0.83605 1.3358787
000020 7d 0c 86 41 01 3a ac 3f c9 e0 ca 40 25 af b6 40
       16.756098 1.3455201 6.3399396 5.70888
000030 56 ae 2b 40 3c 2d cf 40 24 36 6d 40 2c c9 b2 3f
       2.6825156 6.474272 3.7064295 1.3967643
000040 2a e6 f2 3f bd 21 fa 3f e3 cd d5 3f 20 28 26 40
       1.897649 1.9541546 1.6703457 2.596199
000050 00 23 a6 3f 69 4f 77 40 04 c8 4e 40 28 ff 11 41
       1.2979431 3.8642218 3.230958 9.124794
000060 6c e3 9c 3f 92 58 ed 3f fd 34 83 40 36 03 c6 3f
       1.2256904 1.8542655 4.1002183 1.546973
000070 36 fd b0 3f 8d b4 49 3f b1 8f 02 40 1a fb 1d 40
       1.3827274 0.78791124 2.0400202 2.468451

weight f4 [64, 32, 3, 3]
000000 dd d8 07 bd 54 8f da 3c e0 25 fc bd d5 92 0f 3d
       -0.0331658 0.026679672 -0.123119116 0.03505214
000010 e4 5a 8f bd cc 86 40 bd e2 0f f9 bd fc 79 12 bc
       -0.06999758 -0.047003552 -0.121612325 -0.008940216
000020 04 20 e7 bd 34 e8 44 be 43 54 1a bc fa 02 02 be
       -0.11285403 -0.19229203 -0.009419504 -0.12696448
000030 ff aa 27 3d 8b 47 28 3d 6f dd 19 bd ff 88 8b bd
       0.04093456 0.041083854 -0.03756469 -0.06813239
000040 ef f0 0c be 3a e9 9f bd f7 86 b8 3c 28 cf 09 bd
       -0.13763784 -0.07808156 0.022525294 -0.033644825
000050 81 43 83 3d ae a2 44 bd 11 53 8a 3a 95 94 04 be
       0.0640936 -0.048006706 0.001055332 -0.12947305
000060 9c 5f b2 bd 74 aa 32 be 26 3f 2f be b1 b1 e4 bd
       -0.08709642 -0.17447835 -0.17113933 -0.111667044
000070 30 28 27 bd 38 be fc bd aa 98 89 bd 0b 31 76 be
       -0.04080981 -0.12340969 -0.067185715 -0.24042146
000080 1b 43 be bd 17 e1 b6 bd 78 fd 58 bd 8b 34 f7 bd
       -0.09290143 -0.08929651 -0.0529761 -0.12070569
000090 ee 57 a3 bd 25 33 98 bd fc 9c e5 bd 6c 85 ba bd
       -0.07975756 -0.0743163 -0.11211583 -0.091074795
0000a0 2e 80 79 be d9 60 a7 3d cf 93 0a be 61 da 17 be
       -0.24365303 0.08172769 -0.13532947 -0.14829399
0000b0 84 84 e8 bd 37 db 18 bd ce 34 56 be 80 85 8f ba
       -0.113534 -0.037318435 -0.20918581 -0.001094982
0000c0 7d 3c 92 bc f0 10 d0 bb 0b b0 22 3d 52 b7 72 bb
       -0.017851109 -0.0063496754 0.03971867 -0.0037035537
0000d0 71 d1 06 3d fe bb c2 3c 42 63 88 3e ca 1b 29 3e
       0.032914583 0.023771282 0.26638228 0.16514507
0000e0 02 19 0e 3e 43 e1 dd bc 9d 9c f0 3c 21 03 98 be
       0.13876727 -0.027084952 0.029371554 -0.29689887
0000f0 96 46 9b 3e 21 0e a3 3e 3b e4 91 3e e6 b9 45 be
       0.3032729 0.31846717 0.2849444 -0.19309196
000100 7e 47 c3 bc 60 68 62 be 78 e3 b8 3d b8 26 0b 3d
       -0.023837801 -0.22110128 0.09027761 0.033972472
000110 5f 3f 44 3d 2c d9 24 be 92 19 6f be 6d 00 41 be
       0.047911998 -0.1609847 -0.23349598 -0.18847819
000120 1f 62 14 3d 5c d9 a0 bc 84 6c 03 3d 2e 11 a0 bc
       0.036226388 -0.019634895 0.03208591 -0.019539442
000130 46 ec fa bd ce cb 01 be 81 ff ab bd 84 fe d8 bc
       -0.12252097 -0.12675402 -0.08398343 -0.02648855
000140 bb 5c 02 be fc 3c ca 3d 1d 95 49 3d 97 7b 97 bc
       -0.12730686 0.09874913 0.04921447 -0.01849155
000150 55 66 47 3d 9f 43 19 3d 90 d5 57 3b 30 ca 22 be
       0.048681576 0.037418004 0.003293369 -0.15897441
000160 3b 8d 45 be 56 37 8e bd ba 55 fa bc 4f 3f e3 3d
       -0.19292156 -0.06944148 -0.030558456 0.110960595
000170 85 0e 64 bd 9b fd 58 bc 27 99 43 bd c8 55 1a be
       -0.05567791 -0.013244058 -0.04775348 -0.15071785
000180 ef 94 27 3d d8 74 3f 3d 6f 07 36 bd 17 8a 9a 3b
       0.04091352 0.04674229 -0.044440683 0.0047161686
000190 c2 b6 94 be 80 d6 15 be 80 ab 60 bd e2 ec c1 bd
       -0.29045683 -0.14632607 -0.054851055 -0.0946901
0001a0 1b 14 26 bc bc 50 ec bd 3b d5 48 be d9 04 11 3a
       -0.010136629 -0.11538836 -0.19612591 0.00055320334
0001b0 6e c1 0d 3e 0b d5 4f be 38 5e 4d bd 23 03 03 be
       0.13843319 -0.20296113 -0.050138682 -0.12794165
0001c0 3d fe bb bd 0e c1 ce 3c f3 7d 95 bd d6 8a 3c bd
       -0.091793515 0.02523854 -0.072994135 -0.04603084
0001d0 7d 0e 7e be 3c c2 ea bd ef 4d fd bd cc c9 4f bd
       -0.24810214 -0.114628285 -0.1236838 -0.050729558
0001e0 3d 19 16 be 93 87 98 be cd d5 1b be 17 b2 09 be
       -0.14658065 -0.29790935 -0.15218277 -0.13446842
0001f0 2f f4 ff bd db b5 5d bd e0 c0 d9 bd 39 d2 29 bd
       -0.12497746 -0.05412851 -0.10632491 -0.04146025
000200 a5 e4 14 be 52 d3 d3 bd 03 f2 a7 bd 4d d5 00 be
       -0.14540346 -0.103430405 -0.08200457 -0.12581368
000210 a8 65 71 bb 31 3b ef 3b a1 2b 1f 3d a4 86 23 be
       -0.0036834273 0.0073007573 0.038859967 -0.1596933
000220 93 04 7b bd ca 23 a3 bb 59 58 2b 3e 62 c3 dd 3c
       -0.06128366 -0.0049786316 0.1673292 0.027070705
000230 0f 62 cc 3c 8a d8 bb bd 8f e9 f8 bd f8 51 22 be
       0.024949102 -0.09172161 -0.12153923 -0.15851581
000240 9d be 81 bd 3a c0 be bc 68 ca 73 be 81 98 e1 bd
       -0.06335185 -0.02328502 -0.2380768 -0.11015416
000250 0c fc 6f bd 29 9f 66 be 1a 96 9c be a5 d7 24 be
       -0.05858998 -0.22521652 -0.30583268 -0.16097887
000260 64 ed 36 be 72 fc 65 3d 9c 33 d0 3c 22 f1 4c 3d
       -0.17863995 0.056148954 0.025415234 0.05003465
000270 4d fa 04 bd fb 35 f4 bd 77 3e 44 be 9c ea 13 3e
       -0.032465268 -0.119243585 -0.19164453 0.14444965
000280 35 00 0b 3e 1c 09 c2 3d 9b 38 a5 bd ae 3c 01 bd
       0.13574298 0.09474394 -0.08067437 -0.03155201
000290 6a 13 60 3c e7 fc 96 bd 5f cc 23 be 95 4c da 3a
       0.013676504 -0.07372456 -0.1599593 0.0016654903
0002a0 aa a7 84 3c f9 06 40 bd 12 77 23 be dd b7 10 bd
       0.01619323 -0.04688165 -0.1596339 -0.035331596
0002b0 f9 98 d5 3c 3a d9 4e be af ba 90 bd 6e ff 25 be
       0.02607392 -0.20200053 -0.07066857 -0.1621072
0002c0 7b 7e e9 bd ae e4 72 bd e9 09 e8 bd e3 fe 16 be
       -0.11401077 -0.059300117 -0.11330015 -0.14745669
0002d0 42 a6 7c 3b 4e 0e 39 be 1c 9d 8d bd 21 69 ef bd
       0.0038551246 -0.18071863 -0.06914732 -0.116899736
0002e0 5c c3 1e be 25 f3 d6 bd e7 c2 2d 3d 05 fa 8d bd
       -0.15504211 -0.10495595 0.0424222 -0.06932453
0002f0 7b 76 07 3d e6 1e 4c bd 6f 61 94 bc 2d 18 28 be
       0.033071976 -0.049834155 -0.018112866 -0.16415472
000300 59 45 3c bd 58 3a 0b be 61 db 5f bc 2d b3 05 3c
       -0.045964573 -0.13596475 -0.013663144 0.008160395
000310 1f c7 21 3d d9 44 e3 3d 23 f1 26 3d d2 f7 bc bd
       0.039496537 0.11097116 0.04075731 -0.092269555
000320 f2 1b 9d bc 56 e7 83 bd ea e3 39 3d ef d5 3c bd
       -0.019178364 -0.06440608 0.04538337 -0.04610246
000330 67 f4 91 bd f0 64 95 bc 36 f9 d6 bd a0 00 8a bd
       -0.07126694 -0.018236607 -0.10496752 -0.067384005
000340 8b 3f 70 be cd 19 a1 3b 59 5f 14 be 6b 6c 5a be
       -0.2346174 0.004916406 -0.14489497 -0.2133042
000350 82 5c 13 be 32 59 ac bd 39 78 5f be 2f 45 81 bd
       -0.14390758 -0.0841545 -0.21823205 -0.06312024
000360 81 f2 95 3e da e7 5e 3e 5d c4 04 3e c0 6d 98 bd
       0.29286578 0.21768132 0.12965532 -0.07442808
000370 f7 be 69 be 5f c1 4b bc f2 bb ff 3b a5 8f 86 3d
       -0.22826754 -0.01243624 0.0078043872 0.06570367
000380 37 26 d7 bc d4 ba 5a bd c1 ae 2f 3b 10 32 20 bd
       -0.02626334 -0.05340083 0.0026807042 -0.039110243
000390 27 af 85 bd d0 64 11 3d e3 db 97 bd d5 82 0f bd
       -0.06527548 0.035496533 -0.07414987 -0.03503688
0003a0 c4 5e b9 bd d8 ac 59 3c 5a fb db 3c 43 f2 68 bd
       -0.09051278 0.013285838 0.026853252 -0.056871664
0003b0 a5 07 15 be 68 0a ea bd 2c 75 3f 3d 2a 0a 61 3e
       -0.14553697 -0.11427766 0.046742603 0.21976534
0003c0 d9 18 b3 3d f6 ec 00 3d d9 67 6b bc b9 ce b2 bd
       0.08744974 0.031475984 -0.014368021 -0.087308355
0003d0 e0 7e 87 be e8 76 c6 be f0 76 49 3d cd 34 83 bd
       -0.26463985 -0.38762593 0.049185693 -0.06406555
0003e0 0d 5d cc 39 0a bc 7a 3c 71 a3 0b bd c9 23 e7 3d
       0.0003897924 0.015303621 -0.034091417 0.11286122
0003f0 b7 4d be bb 04 8e bb bc e6 f4 f9 bd 2c 15 e6 bd
       -0.005807604 -0.022894867 -0.12204914 -0.11234507

bias f4 [64]
000000 2e 93 2b 3e bc 9b c3 be c4 6e 50 be 33 0d b5 3d
       0.16755363 -0.38204753 -0.20354754 0.08840408
000010 7d 92 15 bd 20 3c 90 be fe 31 74 be 4a 08 78 be
       -0.036516655 -0.28170872 -0.23847196 -0.24221912
000020 fa fb 8f be d5 e1 13 bd b1 b3 ae bd f8 92 c2 be
       -0.2812193 -0.036104042 -0.08530367 -0.38002753
000030 c3 ba b2 be fc af 8f be 5c 8d 68 be 98 77 96 3d
       -0.34908113 -0.28063953 -0.22710174 0.073470294
000040 6e 05 71 be 82 a3 74 bd 37 02 b9 3d 18 7d 99 3d
       -0.23537228 -0.059726246 0.090336256 0.07494563
000050 71 ad 1e be c5 c6 a8 be d3 ce 4a 3e cb 2e 8a be
       -0.1549585 -0.3296415 0.1980546 -0.26988825
000060 75 a5 21 bd 3c e8 50 3e 01 18 b8 3d 82 d7 13 bd
       -0.039464433 0.2040109 0.089889534 -0.036094196
000070 30 59 76 be d0 4f e3 bd 30 e2 83 bd fb be e0 3d
       -0.2405746 -0.110992074 -0.06439626 0.10973927
000080 7e 24 b4 3c 20 8e 4b be c7 96 8e be 54 2f 84 be
       0.021990057 -0.19878435 -0.2784941 -0.25817358
000090 2d d5 b6 be e8 14 8e 3d 00 22 4c 3e 33 2f 57 be
       -0.35709515 0.06937581 0.19934845 -0.21014099
0000a0 0d 3f d8 be 3e 08 f7 bc 6b cc aa 3d 5c 59 aa 3c
       -0.42235604 -0.030155297 0.08339771 0.020794563
0000b0 fb 76 db 3d 24 2b 0c 3e 4c 7e 56 3e 77 c7 be 3d
       0.10716053 0.13688332 0.20946616 0.09315389
0000c0 c1 e7 87 be 61 2a 3c 3d 74 0e b1 bd 99 d7 d4 be
       -0.26544002 0.045938853 -0.08645335 -0.41570738
0000d0 91 32 a0 3d 8c 51 c3 be 79 ee 87 be a4 06 af 3c
       0.07822145 -0.38148153 -0.26549128 0.021365471
0000e0 57 56 4a bc 17 d7 4a bd e9 7c 7e be ff 25 c5 be
       -0.012349687 -0.049521532 -0.24852337 -0.3850555
0000f0 10 8f 0c be 84 be 93 be cf d3 5f 3c f7 16 8c bd
       -0.13726449 -0.2885629 0.013661339 -0.06840318

weight f4 [64]
000000 4a 46 90 3f a8 ba c4 3f 97 32 a4 3f 78 f6 85 3f
       1.127145 1.5369463 1.2827939 1.0465841
000010 af e5 aa 3f a3 a4 a5 3f b4 db a2 3f 29 a4 b5 3f
       1.3351344 1.2940868 1.2723298 1.4190723
000020 4e a6 b0 3f e1 ed 8d 3f fc a8 82 3f 6e fc b6 3f
       1.3800752 1.108822 1.020782 1.4295785
000030 ca 8e bf 3f 28 e1 bc 3f d3 68 a3 3f b4 ae 83 3f
       1.4965451 1.4756212 1.2766365 1.028769
000040 dc 44 a1 3f 0c 85 a7 3f 6c 58 81 3f 4d 0e 8e 3f
       1.2599139 1.3087478 1.0105109 1.1098114
000050 53 e1 9f 3f 32 84 a0 3f 9b a9 88 3f 33 d1 99 3f
       1.2490638 1.2540343 1.067676 1.2016968
000060 33 5a 8d 3f 10 48 89 3f 41 47 89 3f 22 05 7c 3f
       1.1043152 1.0725117 1.072487 0.9844533
000070 a1 a3 ab 3f 0f 4c 9e 3f 93 01 93 3f 54 73 8f 3f
       1.340931 1.2366961 1.1484855 1.120707
000080 2e cd 8c 3f ab 37 ab 3f d7 06 b8 3f ac a7 ab 3f
       1.1000116 1.3376364 1.4377087 1.3410544
000090 3a 81 bd 3f 9a 0d 8e 3f 88 44 86 3f ca 1b 92 3f
       1.4805062 1.1097901 1.0489664 1.141473
0000a0 a5 77 b9 3f 55 82 90 3f 12 7d 87 3f 9f b6 82 3f
       1.4489638 1.1289774 1.0585043 1.0211982
0000b0 17 88 88 3f 01 ee 8b 3f d7 a6 85 3f c5 88 96 3f
       1.0666531 1.0932008 1.044154 1.1760489
0000c0 f3 64 ab 3f d3 e2 86 3f 06 d5 95 3f 85 3b d4 3f
       1.3390182 1.0537971 1.1705635 1.6580664
0000d0 6b 22 86 3f 9e d3 ad 3f aa b0 af 3f d9 e8 8e 3f
       1.0479254 1.3580205 1.3725789 1.116481
0000e0 bc 3a 7f 3f 8f 2d 9a 3f c4 0a b6 3f 2c 07 cc 3f
       0.99698997 1.2045153 1.4222035 1.5939689
0000f0 ad e0 9c 3f 7a 4c aa 3f 2e 89 a6 3f d5 0a 8b 3f
       1.2256066 1.3304589 1.3010614 1.0862681

bias f4 [64]
000000 c1 3c 48 3e d2 3b 84 be da de 68 be cb fc 6c 3e
       0.19554426 -0.2582689 -0.22741261 0.23143308
000010 78 ec 54 3e 03 b8 98 be c7 49 5e be f5 b9 83 be
       0.2079333 -0.2982789 -0.21707831 -0.2572781
000020 f3 ad 83 be c6 4f 5f 3e 6e 38 34 3e 60 75 77 be
       -0.2571865 0.21807775 0.17599651 -0.24165869
000030 bb 91 72 be ff 6c 57 be cc e8 7f be c3 72 58 3e
       -0.23688404 -0.21037672 -0.24991149 0.21137528
000040 f2 f5 69 be 73 1a 6b 3e ad ff 11 3e 32 7a 99 3e
       -0.22847727 0.22959308 0.14257689 0.2997604
000050 ee f0 87 3d 64 3f 69 be 9d 56 68 3e a0 52 46 be
       0.066377506 -0.22778088 0.2268929 -0.19367456
000060 b1 d9 61 3e a3 85 61 3e 2d 92 2d 3e 15 93 fc bc
       0.22055699 0.22023635 0.16950293 -0.030831853
000070 45 65 51 be f0 f2 52 3e f2 3f 35 3e c0 d1 61 3e
       -0.20448788 0.20600486 0.17700174 0.2205267
000080 68 bb 4d 3e c2 c8 33 3e 96 50 4c be 8d 67 8b be
       0.20091021 0.17557052 -0.19952616 -0.2722744
000090 35 34 7e be 96 ec 53 3e 0b 33 46 3e 24 6a 42 be
       -0.24824603 0.20695719 0.19355409 -0.18985802
0000a0 9e c4 a6 be 9e 43 4a 3e 01 32 6c 3e ff f6 4d 3e
       -0.32571882 0.19752356 0.2306595 0.20113753
0000b0 e6 f7 58 3e 0a e3 39 3e c5 2a 8b 3e e7 a5 4d 3e
       0.21188316 0.18153015 0.27181068 0.20082818
0000c0 70 b7 56 be 58 66 73 3e 43 91 26 3e a9 24 a4 be
       -0.20968413 0.2376951 0.1626635 -0.3205922
0000d0 8c aa ee 3d 73 67 8c be 0a a2 80 be d1 55 76 3e
       0.11653623 -0.27422675 -0.25123626 0.24056174
0000e0 da 53 2c 3e b4 ce 2c 3e dc 45 66 be 56 d0 9d be
       0.16828862 0.16875726 -0.22487587 -0.3082301
0000f0 38 c5 07 3d 79 14 68 be e9 af 09 3d db c1 00 3d
       0.033147067 -0.2266406 0.033615027 0.031434875

running_mean f4 [64]
000000 ae 2f 04 40 af 1f 7e 3f d0 40 ef 3f cc a8 d8 3f
       2.0654101 0.99267095 1.8691654 1.6926513
000010 bd 42 c6 3f 62 bb a6 3f 42 8a 06 40 29 3e a9 3f
       1.5489117 1.3025935 2.1021886 1.3222095
000020 56 0b 17 40 22 46 b2 3f 6c 70 72 3f 3a ff 91 3f
       2.360067 1.3927653 0.9470279 1.1406014
000030 b3 a7 15 3f de 34 99 3f 7d ec db 3f 41 fc 5e 3f
       0.58459014 1.1969259 1.7181545 0.8710366
000040 b4 93 00 40 d1 aa ad 3f b6 0a ed 3f 12 b0 fc 3f
       2.009015 1.3567754 1.8518894 1.9741232
000050 64 3e 0b 3d da 29 fc 3e 9d b4 20 40 7f ee 78 3f
       0.033995047 0.4925068 2.5110238 0.97238916
000060 6b 2e 9b 3f fd b4 f6 3f 2a f7 0c 40 d4 4c ec 3f
       1.2123541 1.9273983 2.2025857 1.8460946
000070 6a 7b 8b 3f cb 69 ae 3f 75 5f 8a 3f 83 73 03 40
       1.0897038 1.3626035 1.0810381 2.0539253
000080 7b 83 be 3e df 13 1c 40 93 d3 8d 3f 59 02 12 40
       0.37209687 2.4387128 1.1080192 2.2813933
000090 94 f5 7a 3f ee ac 09 40 11 2f 05 40 30 4c f8 3f
       0.9803097 2.1511798 2.0809977 1.939825
0000a0 91 38 a9 3f c3 d9 91 3f e7 8a f9 3f ea bb 6d 3f
       1.3220388 1.1394581 1.9495515 0.9286486
0000b0 f3 4f 09 40 32 6f 9e 3f 9d 65 d2 3f 62 6e 28 40
       2.1455047 1.2377684 1.643726 2.6317372
0000c0 f9 36 65 3f b7 84 07 40 9b db 2c 40 84 97 83 3f
       0.89537007 2.1174753 2.7009037 1.0280614
0000d0 8f 37 d7 3f 6c b9 a4 3f 90 6a ec 3f 3e c2 b9 3f
       1.681383 1.2869086 1.847002 1.4512403
0000e0 e2 69 7f 3f 31 2b 8b 3f 7f 9f 8e 3f fa d4 9e 3f
       0.9977094 1.0872556 1.1142424 1.2408745
0000f0 38 4c bf 3c 2e 55 94 3f 46 10 9f 3e a7 47 15 3d
       0.023351774 1.1588495 0.31067103 0.036445286

running_var f4 [64]
000000 fe e8 b7 40 88 09 59 41 ae c5 60 41 c0 17 09 41
       5.7471914 13.564827 14.048262 8.568298
000010 54 c1 3b 41 44 e4 9e 41 79 3b 85 41 8f 33 05 41
       11.734699 19.861458 16.65404 8.325088
000020 c4 80 bc 41 7f 82 61 41 4a 4d 83 40 5c 72 8f 41
       23.562874 14.094359 4.1031847 17.93084
000030 1d de 49 40 67 b5 9c 41 5f f5 59 41 c8 82 13 40
       3.1541817 19.588575 13.622405 2.3048573
000040 25 45 7d 41 c1 ad 2f 41 72 9c a6 40 37 b7 0d 41
       15.829381 10.97992 5.2065973 8.85723
000050 0c 5f 91 3d 55 69 87 40 81 f8 27 41 a7 bc 2f 41
       0.07098207 4.231608 10.49817 10.983558
000060 ca c0 6c 40 6d d4 9c 40 12 f6 cd 40 76 d5 cc 40
       3.699267 4.900931 6.436288 6.4010572
000070 63 a7 4d 41 11 0a 10 41 5d 51 e1 40 2e 06 0f 41
       12.853366 9.002458 7.041182 8.939009
000080 10 04 56 3f 71 2c 86 41 32 d5 86 41 60 c1 a1 41
       0.8359995 16.7717 16.8541 20.219421
000090 b3 79 54 41 16 60 26 41 46 a7 c9 40 ef 38 6f 41
       13.279712 10.3984585 6.301669 14.9514
0000a0 d9 7b b9 41 2d 4d 54 40 4c 48 d3 40 d2 55 53 40
       23.185472 3.3172104 6.6025753 3.302113
0000b0 85 2b 3e 41 e8 17 d1 40 c0 64 c6 40 b3 91 fd 40
       11.885625 6.5341682 6.1997986 7.9240355
0000c0 e1 ad 39 41 01 10 26 41 0c 00 9c 41 72 3e 6a 41
       11.604951 10.378907 19.500023 14.640245
0000d0 2d 07 88 40 f5 99 a2 41 15 91 57 41 62 54 98 40
       4.250876 20.325174 13.47292 4.7603006
0000e0 72 f0 37 40 a3 0e f2 40 e7 45 84 41 20 4c a6 41
       2.8740506 7.5642867 16.534132 20.78717
0000f0 9b 02 0e 3d 42 e5 21 41 f1 ad 6a 3f 70 b2 c8 3d
       0.034670454 10.118471 0.91671664 0.09799659

weight f4 [3, 64]
000000 23 15 8c be 8b 06 35 3e 66 31 92 3e 68 b2 39 be
       -0.27359876 0.17678277 0.28553313 -0.18134463
000010 a5 0d 1c 3e f2 43 5a ba 58 c1 93 3e 5d 56 0a 3e
       0.1523958 -0.00083261647 0.28858447 0.13509507
000020 f5 81 e3 3e a3 ca 1f 3d 51 7b 22 be dd b5 8a 3d
       0.44435087 0.03901161 -0.15867354 0.06772969
000030 93 df d7 3e 4a ee fe 3d 7a 54 85 3e 7a 8d 4f bd
       0.4216276 0.12447794 0.26041013 -0.050672032
000040 dc cf 90 3e b5 d8 35 3e 43 54 27 be df 44 e1 bd
       0.28283584 0.17758448 -0.16340737 -0.10999464
000050 6b 10 6a be e7 f7 1b bd 34 c5 d6 bd ed 31 12 bd
       -0.22857825 -0.038078215 -0.10486832 -0.035692144
000060 71 1c 0d be 7d 4f 53 be c9 4f 4e be 5f c0 cb bd
       -0.13780381 -0.20635791 -0.20147623 -0.09948801
000070 d6 a3 55 3e 9b 29 85 3c bc 5d 79 3d 0b cb ea bd
       0.2086328 0.01625519 0.060880408 -0.114645086
000080 4c c6 f3 bd 6f 53 8f 3e 74 4f 1c 3e f5 d1 90 3e
       -0.119030565 0.27993342 0.15264684 0.28285185
000090 b3 ce 18 3e 0f 0d 11 3d d0 71 17 be fc 9c 72 3e
       0.149226 0.035412844 -0.1478951 0.23692697
0000a0 52 e6 61 3d 4f fe 4a be 64 62 c0 bd 88 e2 12 be
       0.05515129 -0.19823574 -0.093937665 -0.14344227
0000b0 d2 e3 81 bd a6 a2 f9 bd d3 b5 63 bd f1 4b 1a be
       -0.063422814 -0.12189226 -0.055593323 -0.15068032
0000c0 10 36 0e 3c 5d 93 08 be 58 57 5c 3e 4c 41 6e 3d
       0.008679882 -0.13337465 0.21517694 0.05816774
0000d0 d3 a4 0d be b0 6b b3 3d de 0a 80 3e 7c fe d2 bd
       -0.13832407 0.08760774 0.2500829 -0.10302445
0000e0 87 8d 4d bd b8 9b a3 bc 1d 90 0b 3d 73 83 c4 3c
       -0.0501838 -0.019971713 0.034072984 0.023988461
0000f0 03 af 50 be 81 12 73 3e ee 9f b5 be 7a 82 24 be
       -0.20379262 0.23737527 -0.3547358 -0.16065398
000100 f8 2b 45 3e c8 95 10 bf fc 4c af be 1a b3 17 3e
       0.19255054 -0.5647855 -0.34238422 0.14814416
000110 9b ef 6b 3e ca c5 1f bf 0e d9 d3 be 4f 99 23 bf
       0.23040621 -0.6241118 -0.41376537 -0.63905805
000120 17 f9 24 be 76 9f 2e 3e 8d 6f 14 3d 0a b2 29 bf
       -0.16110645 0.17053017 0.036239196 -0.6628729
000130 55 80 8b be 55 a1 31 bf 78 88 a4 be 59 94 97 3e
       -0.27246347 -0.693868 -0.32135367 0.29605368
000140 24 a3 a4 be 84 ce a9 3e 8a 6f a7 3d a8 12 32 3e
       -0.32155716 0.3316537 0.08175571 0.1738993
000150 56 4f 05 3e 21 fd 16 bf 69 49 bd 3e 9b 79 25 bf
       0.13018546 -0.58979994 0.3697007 -0.6463868
000160 e7 59 90 3e 38 80 48 3e 38 e6 80 3e eb dd 5f 3d
       0.2819359 0.19580162 0.25175643 0.054654997
000170 c3 8b 20 bf d1 7d 43 3e 0b 5c 87 3e 89 56 bc 3d
       -0.6271326 0.19090964 0.2643741 0.09196193
000180 e1 42 90 3e c2 f0 e1 3c 52 aa 31 bf dc af 93 be
       0.28176025 0.027580623 -0.69400513 -0.28845108
000190 b0 ed 25 bf be 69 bd 3e fa 51 24 3e 39 74 ab be
       -0.6481581 0.36994737 0.16046897 -0.33487108
0001a0 f7 a5 33 bf d6 8a 9b 3e 47 69 a2 3e 22 84 e9 3d
       -0.7017512 0.3037936 0.31720945 0.114021555
0001b0 f7 05 91 3e 0d c2 96 3e ef a0 a1 3e 10 1f 7e 3e
       0.28324863 0.29444924 0.31568095 0.24816537
0001c0 b8 29 3a bf 0f cd 92 3e 4a b8 77 3d 9e ef 47 bf
       -0.7271991 0.28672072 0.060478486 -0.781
0001d0 31 bb 43 3e 78 e7 0b bf 90 b4 c3 be 38 94 7d 3e
       0.19114377 -0.5465007 -0.38223696 0.24763572
0001e0 20 eb 8b 3e 77 98 80 3e 7e ae 42 bf 25 eb 46 bf
       0.27327824 0.2511632 -0.76047504 -0.7770255
0001f0 ba f9 e9 3d c5 84 12 bf 5f c4 6b 3c 7f b1 9d 3d
       0.11424585 -0.5723384 0.01439008 0.0769987
000200 0d 5d ab 3d b2 50 88 3e 3e d7 25 bd f7 59 1d be
       0.083673574 0.26624066 -0.040488474 -0.1536635
000210 b7 58 f4 be c7 46 47 3e 1e 8c 3e bd df b9 74 3d
       -0.47723934 0.19460593 -0.046520345 0.059747573
000220 68 22 a9 bd 2a b7 6b be cf 0c f1 3c 96 3a e5 3d
       -0.082585156 -0.2301909 0.029425053 0.11192815
000230 a8 84 74 be 58 51 89 3e c9 8e 64 3d aa 55 f9 bc
       -0.2387873 0.26819873 0.055800233 -0.030436356
000240 39 03 41 3d 16 bf 58 be 50 5c 76 3a 7a 31 87 be
       0.047122214 -0.21166644 0.0009397911 -0.26404935
000250 31 dd 6e 3e 20 01 7d 3e ef 4c 2d bd c9 52 7d 3e
       0.23326565 0.2470746 -0.042309698 0.24738611
000260 45 8d 1f be 01 a1 70 3a 7c 44 a8 3d ad 1c e2 3d
       -0.15581234 0.0009179265 0.08216187 0.11040626
000270 a0 8d 42 3e 22 0d 8e be ba d7 5e be c5 71 84 be
       0.18999338 -0.27744395 -0.2176198 -0.2586805
000280 b9 3b c2 bd b3 bf 04 bf 68 17 75 3e d7 21 ed 3d
       -0.094840474 -0.5185501 0.2393471 0.1157872
000290 bf b2 5a 3e f8 50 6f be 3c 8d 6f bd 3d 7c a0 bd
       0.21357249 -0.23370731 -0.0584843 -0.078361966
0002a0 9f f7 47 3e ae ed c4 3c 55 98 16 be 49 b5 15 be
       0.19528054 0.024039116 -0.14706548 -0.14619936
0002b0 b9 b2 7d be 19 9c 7e be b7 ef 85 bc 03 40 67 be
       -0.24775209 -0.24864234 -0.016349657 -0.22583012
0002c0 1b 4c 9e 3e 39 5f 08 be 1e 67 a4 be 87 c4 c8 3d
       0.3091744 -0.13317575 -0.32109922 0.098031096
0002d0 78 19 fc 3d e2 dd c8 3d f5 d0 72 3d b3 9c 15 be
       0.12309545 0.09807946 0.05928131 -0.14610557
0002e0 fe 36 27 bd 61 5a 93 be 65 83 6d 3e 99 63 bf 3d
       -0.04082393 -0.2877989 0.23194654 0.093451686
0002f0 2e d7 06 3e 04 e8 37 3e c2 5b 88 3e 08 a9 e8 3d
       0.13168022 0.179596 0.26632506 0.11360365

bias f4 [3]
000000 20 55 ea bd 7a da 69 3e 0b 0b 3a bd
       -0.114420176 0.22837248 -0.045420688
