data/models/V8_model_fullV4.pth (torch, 115660 bytes, 26 tensors)

weight f4 [8, 2, 5, 5]
00000000: 50ba b1be 3dd8 55be a321 42bd d12e e7bc
00000010: c2e5 06be 670b 3dbe a3ee 123f 46db 923e
00000020: 94ec f13e 94f6 a93e 9334 3dbe 85a5 043d
00000030: d738 cabe 9fbf 61bd 9e72 273e 6e6d 8d3d
00000040: a7d7 163e 9c4e dfbd cd0b 1fbe a32c 7cbe
00000050: 2f6b 1a3d fdad 06be 0a92 f6bd bb4f e0be
00000060: 61c3 01be 8a68 e3bd a796 6fbe 0d03 22be
00000070: 8d1c a5be 9dfc f33d 4551 2e3e 96dd bf3e
00000080: c5e7 893e 9a35 56bd a8b3 a73e 8130 b53d
00000090: 0f28 043e 5a6e 723e 74fd 403c a489 89be
000000a0: 9a40 a8bd 88ed 70be b222 babd 2dc8 dbbd
000000b0: e7a6 71be 0547 653e 48a0 09be ae0f dabd
000000c0: db7d 70bd 801d 5ebe 4db4 a83d a61a dd3d
000000d0: 2da3 47be 9abd 4fbe b8ef b13d d18f e8be
000000e0: 4174 f2bc d4c2 d23e 2691 b03e 97d6 c43e
000000f0: 842a 4bbe fe94 85be 32aa 123e 5af4 2f3d
00000100: 52b8 5f3e 8c0a e43a 246f cfbd 59d7 98be
00000110: 499a f3bc 45bb 29be 70ee 87bc b145 873d
00000120: 758d 5f3d ff42 65bb 79db d83d 4802 0e3d
00000130: 97d7 a23d 1fa0 6e3e 2573 fb3e f3ba aa3e
00000140: 1dab 5d3e b3ac 113e b450 da3e 8777 1f3f
00000150: a147 913d ae38 a6be 221f a8be fd10 86be
00000160: 5ed3 a63e fa18 fcbc 23ec cabe ef63 38be
00000170: d940 b73e bd48 da3d 93b2 8a3d 1e1e 3cbd
00000180: 015e 6d3e 3288 e23e 9c02 363e 0064 953e
00000190: 6dcd fa3e 7739 3a3e 18c9 d6bd 5190 853e
000001a0: 83f4 8d3e 2912 f93d 5089 013d 0b2e 91be
000001b0: e870 2dbe 35af 92be 00d0 42bc e786 8bbe
000001c0: 30a1 9dbe 0166 af3d 641e a8be 2601 193f
000001d0: 0d99 7d3e f13d 9c3e 7be6 3a3e edfe 73bd
000001e0: 784c 823e bc04 37be 78af bfbe e241 b4be
000001f0: 6225 2ebe 3354 893e 55c6 b43d f8d3 62bc
00000200: ad44 373d ed74 8d3e fcc4 8c3d 8617 3bbe
00000210: 1b35 c0be 3783 b6be b560 6fbe 0818 1dbb
00000220: cc44 913d b568 f3bc 8b23 1bbe 062a 19be
00000230: f2b3 223e 2c78 bf3e ba13 b33e 7523 e73d
00000240: eb9d 053d 7342 10bc ee4c 98be 3a9b 47be
00000250: 59e3 f6be 21af b3bd d87a fd3c 71a6 8d3d
00000260: 5054 28be a506 9abd ff73 483e 5d78 b73d
00000270: fc3f ef3d b42f db3c 8d54 2abd e799 85be
00000280: 832e 703d 92d7 b23e 9d63 023e 1b7c 353e
00000290: e939 b4bd 7976 86bd 78a6 debd 01a3 48be
000002a0: 016d c23c de3d e8bd b7b8 913e 831e c03d
000002b0: 74f2 0c3f ce65 ccbd 8755 be3e dd24 70be
000002c0: eb95 88be 404c 1dbc dacc 873d a1b5 af3d
000002d0: 0b47 d0bc c4b0 81be 4344 16be 0c98 87be
000002e0: 3149 66be 30b3 4f3e 1f15 453d 6ea3 a8be
000002f0: 2b89 58bd 28a1 d7bd 2730 853e 35fb 1739
00000300: 378a 863e 77e7 9c3d d89c 62be b907 a93d
00000310: 024d 6b3e 4330 b23e 424d 97bd 0544 003f
00000320: fa41 6bbe 99dc 4fbe b7d9 aebe e02a b1be
00000330: ae1e 51be 44cf 84bd fe3a 83bd e95c a9be
00000340: dbe5 66be 6410 6e3e 2b4c 69bd 09f2 95bc
00000350: b206 bd3d d351 bbbc a042 c33d 9b0d 9abe
00000360: 596d e4bc 7726 7abe 0c22 4dbe 991e 8cbd
00000370: eba1 f43e 256d a8be 942b 693e ff29 e43d
00000380: b452 e73d c350 d4bd d140 92be 19b8 cebc
00000390: aa84 7dbd cbef 723e e1b9 60be 0e5a 3fbe
000003a0: 1835 5cbe fb83 3bbe c065 92bd bcc9 b33e
000003b0: 9fbe d8bd 684e ebbd 9173 91be 16c4 963e
000003c0: f39f 06be 6af6 82bd 7626 d5be 42b1 4abd
000003d0: 600b ad3d da95 debe f61d 133e 6a4a 2f3e
000003e0: b6ff 983e 6e2a 39bd 21cc 87bd 2940 af3d
000003f0: 8185 2dbe c3cd eb3c c855 933e 5899 053d
-0.34712458 -0.2088327 -0.04739536 -0.028220566 -0.13173583 -0.18461381 0.5739538 0.28682917
0.47250807 0.33195937 -0.18477087 0.032384414 -0.3949649 -0.055114385 0.16352317 0.06905638
0.14730702 -0.109036654 -0.15531845 -0.24626403 0.037699874 -0.13152309 -0.120395735 -0.4381083
-0.12672187 -0.111039236 -0.23397313 -0.15821476 -0.32248345 0.119134165 0.1702319 0.37473744
0.2693464 -0.052297212 0.32754254 0.08847142 0.12905906 0.23674908 0.011779178 -0.26862824
-0.08215447 -0.23528111 -0.09088649 -0.1073154 -0.23598824 0.22390373 -0.13440049 -0.10647522
-0.058713775 -0.21690941 0.08237515 0.107960984 -0.1949584 -0.20287171 0.08688301 -0.45422223
-0.02959645 0.41164267 0.3448574 0.3844497 -0.19840437 -0.26090235 0.14322737 0.04295764
0.21847656 0.0017398163 -0.1012862 -0.29851797 -0.029736655 -0.16575344 -0.016593188 0.066050895
0.054578263 -0.003498256 0.10588736 0.034670144 0.07951277 0.23303269 0.49111286 0.33345756
0.21647306 0.14226036 0.42639697 0.6229176 0.0709374 -0.32465118 -0.32836252 -0.26184836
0.32583135 -0.030773629 -0.39633283 -0.18006872 0.35791662 0.10658405 0.067723416 -0.04592716
0.23180391 0.44244534 0.17774433 0.29177856 0.48984852 0.18185984 -0.10487574 0.26086667
0.2772561 0.12161667 0.031625092 -0.2835544 -0.16937602 -0.28649297 -0.011890411 -0.2725136
-0.3078704 0.085643776 -0.32835686 0.5976738 0.24765415 0.30516008 0.18251984 -0.059569288
0.25448966 -0.178729 -0.3743856 -0.35206515 -0.17006448 0.2682205 0.08826891 -0.013844483
0.04474323 0.2762827 0.06873509 -0.18270692 -0.37540516 -0.35646984 -0.23376735 -0.0023970623
0.070932 -0.029713014 -0.15150277 -0.14957437 0.15888956 0.3739637 0.34975988 0.1128606
0.032621305 -0.008804905 -0.29746193 -0.19492808 -0.48220327 -0.087736376 0.030942366 0.06916512
-0.16438413 -0.075207986 0.19575499 0.08958504 0.11682126 0.026756145 -0.04158454 -0.2609398
0.058638107 0.34930092 0.12733312 0.17723124 -0.08800108 -0.065655656 -0.10871595 -0.19593431
0.023733618 -0.11339925 0.2846124 0.0938082 0.55057454 -0.09980355 0.37174627 -0.23451562
-0.26676878 -0.009600699 0.06630869 0.08579565 -0.0254245 -0.25330174 -0.14674477 -0.2648319
-0.22488858 0.20283198 0.048115846 -0.32937187 -0.05286519 -0.10528785 0.260133 0.00014494064
0.26277325 0.07661336 -0.22130144 0.08253426 0.22978595 0.34802446 -0.07387783 0.5010379
-0.22974387 -0.20298995 -0.34150478 -0.34603024 -0.2042186 -0.06484845 -0.06407736 -0.33078697
-0.2254862 0.2324844 -0.056957405 -0.018303888 0.09229793 -0.022866165 0.09534192 -0.30088505
-0.027884172 -0.24428736 -0.20032519 -0.068417735 0.47779784 -0.3289577 0.2277053 0.111408226
0.11295071 -0.103669666 -0.28565076 -0.025234269 -0.061894096 0.23724286 -0.21945907 -0.18686697
-0.21504629 -0.18312065 -0.071483135 0.3511485 -0.10583233 -0.11489564 -0.28408483 0.29446477
-0.13146953 -0.06394656 -0.41630906 -0.049485452 0.08449435 -0.43473703 0.14366898 0.1711823
0.29882592 -0.04520648 -0.066307314 0.085571595 -0.16945459 0.028784638 0.28776383 0.032616943

bias f4 [8]
00000000: b6d4 273e 7acf c0bc 36ad 583d fcad 243e
00000010: 9689 053e feee 21be 55cc 14be f3e3 4cbe
0.16389737 -0.023536433 0.05289956 0.16081995 0.13040766 -0.15813825 -0.14531071 -0.2000883

weight f4 [8]
00000000: 970c 903f bd8e a13f 17c3 743f c982 7e3f
00000010: b8fb 6d3f 6120 603f 996d 373f d4ee 763f
1.1253842 1.2621685 0.95610183 0.9941831 0.9296222 0.87549406 0.7165161 0.9645817

bias f4 [8]
00000000: 3c4f 6b3e b86e e7bd f767 c4bd d4c7 1c3c
00000010: fc16 ca3b 888b f4bb dc39 8d3d 7bd6 dd3d
0.22979444 -0.11300415 -0.09590142 0.009569127 0.0061672907 -0.0074629225 0.068958014 0.108319245

running_mean f4 [8]
00000000: b5b8 193f 43df 943f 0df6 eb3e 71c9 0b3f
00000010: 6800 a53f 179e 513f bf41 b03f d756 b23e
0.60047466 1.1630634 0.4608616 0.5460425 1.2890749 0.8188185 1.3770064 0.3483188

running_var f4 [8]
00000000: cf9e ca3e 71cf b140 8190 b43e 9423 943f
00000010: 20b4 0c40 e491 2140 edc8 da40 4d9a 703e
0.39574286 5.5565724 0.35266498 1.1573358 2.198494 2.5245295 6.837027 0.23496361

weight f4 [16, 8, 3, 3]
00000000: e3e6 633d dfc1 c8bd f624 94bd 0f8c 633d
00000010: 3f06 8fbe 768d ab3d 3e80 12be 6134 8a3d
00000020: 3615 6c3e af8c f7bd de11 2d3e 8114 a13d
00000030: f66f 053f d482 913e 964f 8e3e 4675 0a3e
00000040: 5adf f63c 9162 843c 1846 f23d 8697 e93c
00000050: 2fef 113e 4502 253e 0f2f ba3e 26ba 1fbe
00000060: f9e3 b3bd d28e 0bbd f866 be3d f8ef 9fbe
00000070: 1a67 1b3d 6d1e fcbd afb9 12be 8ccd 43be
00000080: 6644 95be bc9e 383e b983 bbbe 670e 02be
00000090: f3a6 e23d 3092 51be 8eba 163e edd1 d6bc
000000a0: 4ff9 263e 81f8 863d 81f9 dbbd b26c ae3d
000000b0: 12b9 9d3d 0b69 d93e 02fe ae3e a24f 0a3f
000000c0: f822 973e 6bfa 8b3e 9f1c 983e 2c3a e63d
000000d0: 2958 47be 0c13 de3d 636c 2a3e c607 a03e
000000e0: 07da e63e d0d7 873d 2315 2e3d 0aa9 2d3e
000000f0: 497f 543c c67e 51bd 3aed 903e 9def aabd
00000100: c3cf 8c3e 055b 583e d79f 37be 4b12 a1be
00000110: 662b f1bd 48c0 dbbd cc7c 4f3e d582 d13c
00000120: e3f4 bfbd 4d35 a0be 7848 e63d 8a48 7e3e
00000130: 5f92 5d3d 3a0a c0bc 3e46 c5be 6f7f 87be
00000140: df50 eebe 6307 1d3e b289 08be a917 b5bc
00000150: 33b6 0e3f a641 053f d482 0e3e 3909 7dbe
00000160: 585e d73c b56e debe e274 913d 59de dcbd
00000170: 6325 5f3d 22f2 5fbe a48a 50be 2248 00be
00000180: fb33 3ebd db41 25be 4b16 46be f612 6cbe
00000190: 7972 8ebc 3cfa d63d 013a 22be 7fd5 823e
000001a0: 8cfe 073c c6d7 e43e f34c 163e 3802 253e
000001b0: 46e2 353d 3f52 84be e86f 113d 130d 0bbe
000001c0: 93ed 423d deae 4d3c 868e c63d bdcc 713e
000001d0: b8d8 01be 985b ab3d 518e c43d 8844 1e3e
000001e0: 271a cebc d594 ba3c 8eda 9f3d a528 4d3b
000001f0: 6cf2 59bc 9d2b 203e aca4 1e3e dc39 17bd
00000200: 85aa 45bc 04fd 63be 8b3f 863c 8cab 113d
00000210: 0a37 93bd db76 35be 0546 14be df2e 87be
00000220: ff1e 10be 29ca adbe 7d38 b0bd f60b 663e
00000230: a0a3 9fbe 0ff0 f1bd afca 2ebe ef32 18bd
00000240: 5537 853e aa4c b03e 206f 633d 0f12 463d
00000250: 5927 003e ca50 e8bd 886c 6a3d 7995 45bd
00000260: 9c81 f4bd bf31 13be 1209 8c3e e242 c13e
00000270: f797 023c b49c 853c 6bee 813e 6d45 8f3d
00000280: 89ac ab3e 1743 853e 2da0 acbd 583a a0be
00000290: 4e4f a0bd 287e d7bd 279d 213e 4b55 04bd
000002a0: 8f25 153d 537e 0ebe 43bd 783e f501 dd3d
000002b0: 1651 0b3d 881b 1a3e 0508 5bbe bd36 2cbd
000002c0: d714 05be ebe9 443e e118 5fbe 3b46 253e
000002d0: e9f4 823e 49fb bc3e 7543 603e 1247 6a3d
000002e0: abca 91bc f632 563e 8322 7e3e fec5 fd3e
000002f0: 2b4a 673d cf9a 77be e6e4 433e 2861 d03d
00000300: 2c1a 7bbc 21ff d03d c96f 553e 0b7e 44be
00000310: d9bc 8dbe 2329 5e3d 2dd4 44be 6af4 9fbd
00000320: 6af9 98bd f340 573d 6cbd 49be 2230 24be
00000330: 8d4a 75be 1c97 57be ea13 f43d 156d 5abc
00000340: fd77 cd3d e07f 25be 3fec 3bbd e7f9 bebd
00000350: 1342 0f3e 0ea0 afbd 1d61 66bd cce5 983d
00000360: 9e14 2d3e c9df 003e bf66 793e 84da d9be
00000370: cb76 a9be d428 453e f5a0 633b abfc ebbd
00000380: b93f c33d ff94 9b3e cd39 f33e 770e a83e
00000390: 7f12 103e 2d03 263e 1835 84bd 161e 733e
000003a0: 5d5d 993e 75c8 d93e b959 103e abba 7b3d
000003b0: 87b0 ec3e 4959 b13d 6ac9 87bd fece f13d
000003c0: e3a6 1d3e 0695 353e 93eb a33c ac66 993c
000003d0: 35f9 55be 6fc7 6f3d 9d5f b2be 813d c1be
000003e0: 5c39 88be 1243 9b3e f479 683e f8a0 bc3d
000003f0: 2860 6a3e 6d3f 92be 4659 b33d 670d dbbd
0.055640113 -0.09802603 -0.07233612 0.055553492 -0.27934453 0.08376591 -0.14306733 0.06748272
0.23054966 -0.1208738 0.16901347 0.07865239 0.52123964 0.28420126 0.27795094 0.13521299
0.0301358 0.016160281 0.118297756 0.028514635 0.14251398 0.16114147 0.36364028 -0.15598354
-0.08783717 -0.03407175 0.092969835 -0.3123777 0.037940122 -0.12310491 -0.14328645 -0.19121379
-0.29153746 0.18029302 -0.36623934 -0.12700807 0.11066999 -0.20465922 0.14719602 -0.026223147
0.16306041 0.06590367 -0.107409485 0.08516826 0.07701315 0.42462954 0.34178168 0.5402776
0.29518867 0.2733949 0.29709336 0.11241564 -0.19467224 0.10843477 0.16642909 0.3125593
0.45088217 0.0663296 0.042500626 0.16959015 0.0129698 -0.05114629 0.2830599 -0.08346484
0.2750226 0.21128471 -0.17932068 -0.3145927 -0.11775856 -0.10730034 0.2026245 0.02557508
-0.0937288 -0.31290665 0.11244291 0.24832359 0.05409467 -0.023442376 -0.38530153 -0.26464412
-0.46546075 0.15334849 -0.13333777 -0.022106009 0.55746764 0.52053297 0.13917094 -0.2471055
0.026290104 -0.43443838 0.07102372 -0.10784597 0.054479014 -0.2186971 -0.20365387 -0.12527516
-0.04643629 -0.16138403 -0.19344442 -0.23054108 -0.01738857 0.10496947 -0.15842439 0.2555351
0.008300435 0.44695872 0.14677791 0.16114128 0.044405244 -0.25844 0.035507113 -0.13579206
0.04758985 0.012553899 0.09695153 0.23613258 -0.12680328 0.083670795 0.09597457 0.1545583
-0.025158955 0.022776047 0.07805358 0.0031304744 -0.013302427 0.15641637 0.15492505 -0.036920413
-0.012064581 -0.22264487 0.016387722 0.03556399 -0.07188232 -0.17721121 -0.14479835 -0.26402947
-0.14074324 -0.33943298 -0.08604524 0.224655 -0.31179523 -0.11813366 -0.17069505 -0.03715795
0.26018777 0.3443349 0.0555259 0.048357066 0.1251501 -0.11343534 0.05723241 -0.04823825
-0.119387835 -0.14374445 0.2735067 0.3774634 0.007970802 0.016310073 0.2537721 0.06995664
0.3353007 0.26027748 -0.084289886 -0.31294513 -0.07827626 -0.10522109 0.15782605 -0.032307904
0.03641277 -0.13915376 0.24290948 0.10791389 0.034012876 0.15049565 -0.21389778 -0.04204439
-0.12996231 0.19229858 -0.21786834 0.16140072 0.25577477 0.36910465 0.21900733 0.057196684
-0.017796835 0.20917878 0.24817853 0.4956512 0.056467216 -0.24180149 0.19130287 0.10174781
-0.015326064 0.10204912 0.20843424 -0.19188707 -0.27683142 0.05423845 -0.19221564 -0.0781029
-0.07469447 0.052552175 -0.19701165 -0.16033986 -0.2395422 -0.21053737 0.11917861 -0.013331671
0.100326516 -0.16162062 -0.0458796 -0.09325009 0.13990049 -0.0857545 -0.05624496 0.07465705
0.16902396 0.12585367 0.24355601 -0.42549527 -0.33098444 0.19253856 0.003473339 -0.11522802
0.095336385 0.30387112 0.47505036 0.32823536 0.14069556 0.16212149 -0.06455439 0.23741946
0.29954043 0.4253575 0.14096726 0.061457317 0.4622843 0.08659608 -0.066302136 0.11807059
0.15395693 0.17732629 0.020009791 0.018725716 -0.20895846 0.058539804 -0.34838572 -0.37742236
-0.26606262 0.30324608 0.22702771 0.0921039 0.22888243 -0.28564015 0.08757262 -0.10695916

bias f4 [16]
00000000: 2e24 bdbd eba2 f2bd c3d2 34be 968f 79be
00000010: 39af 80bd b602 afbd 5f49 503d c26c 90bd
00000020: e7bf 59be c948 5ebd 20ca 44be e0f6 bdbd
00000030: ee9d 14be 7107 86be 41bd c8be e02f 733e
-0.09235416 -0.118474804 -0.17658524 -0.2437118 -0.06283421 -0.08545439 0.050851222 -0.07051994
-0.21264611 -0.054268632 -0.1921773 -0.09275603 -0.1451337 -0.26177552 -0.3920689 0.23748732

weight f4 [16]
00000000: 62a2 883f 8814 863f 734b 8b3f 8a03 863f
00000010: 93ae 6f3f f7ba 6e3f c5e4 8a3f 90ba 973f
00000020: d764 4b3f 45df 413f 2af7 773f 60c5 703f
00000030: 22ef 7f3f 8ea7 753f f90a 743f 7619 833f
1.0674555 1.0475016 1.08824 1.046983 0.93625754 0.93254036 1.0851065 1.1853809
0.79450744 0.7573131 0.9686152 0.9405117 0.9997426 0.95958793 0.9532924 1.0242145

bias f4 [16]
00000000: 7d05 c73c 528f fa3d ac1e 1d3e 78a9 cfbd
00000010: b788 1a3d 471e 9d3e cfb6 713e 2249 1fbe
00000020: 6c55 153e af12 e13c 012a db3d d6dc 983e
00000030: 5a32 913c a462 963d e09b 653d 1db0 8a3e
0.02429461 0.122343674 0.15343732 -0.101397455 0.037728038 0.30687162 0.23604892 -0.15555242
0.14583367 0.02747473 0.10701371 0.29855984 0.017724205 0.07343033 0.056056857 0.2708749

running_mean f4 [16]
00000000: 9461 953f 15f3 843f 549d 3e3f 6ea0 553f
00000010: 20b1 dd3e bccb 793f 3040 983f 9b77 8a3f
00000020: 12c2 113f 6d9d ce3e 4266 1f3f 008e ec3e
00000030: cc89 be3f e5ef 973f a64b 393f c7e6 8e3f
1.1670403 1.0386683 0.74458814 0.8344792 0.43299198 0.975765 1.1894588 1.0817751
0.5693675 0.4035448 0.6226541 0.46202087 1.4885802 1.1870085 0.72381055 1.1164178

running_var f4 [16]
00000000: 97de fe40 78f5 4f40 1a54 f93f 8476 8a40
00000010: eb42 ed3e 2235 2540 3381 b73f d951 2140
00000020: ca1e c43f 3801 3b3f 477c ea3f 7005 1b3f
00000030: a27c 6f40 95f1 e240 e2e7 5040 e460 d83f
7.9646716 3.2493572 1.9478791 4.3269672 0.46340117 2.581368 1.4336303 2.5206206
1.5321896 0.73048735 1.8319176 0.6055517 3.741982 7.09199 3.264153 1.6904569

weight f4 [32, 16, 3, 3]
00000000: 83c6 5b3d cdf1 afbd ae8b b83d dab2 e2be
00000010: 5a2e bdbd 6a71 adbe 5fba c0bd f76c a13d
00000020: 920f ccbd 8342 b43d cc63 4c3e 9e9c b1bd
00000030: baa4 6cbd ed54 62bc a6ee 173d 5fa0 8bbe
00000040: 533b fdbd 8930 e9bc 28fc b73d ba39 88be
00000050: 03fd 37be 3a8e 57be 59c3 f6be 0202 67be
00000060: cc94 42be b410 6dbe ac17 0dbd e0f9 2ebe
00000070: 7af6 1d3e 5bdf 523e df75 39be ce01 08be
00000080: de59 05be cad2 2b3e 09c4 cbbd d0b6 0dbd
00000090: 4278 27be 907c 86be b3cf 82bd bd1d 673e
000000a0: 836c 943e ed1f e73d 1555 f7bb 2638 52be
000000b0: 0c3f edbd 2636 f13c 0ba9 fdbd 004e 113d
000000c0: a30d 3fbe 0155 1cbe c010 8abd adc8 56be
000000d0: 0581 18bd 2fa4 d7bd 3045 36be 92e3 afbe
000000e0: 885f e6be 487c 693e 6cf8 c23d 600b 1dbe
000000f0: d631 90bd 7ff2 1dbe 48b5 7dbe 3d53 533e
00000100: 8ab3 b23e 6ad2 9c3e d0e2 473c 1009 f0bd
00000110: 2fe7 8bbe 044c 853e d7c3 8f3d 1273 c13e
00000120: 9c00 d33d db0c 1d3c d141 843e b0c3 7bbd
00000130: fd2e 3bbe 65f1 813d 3aa0 8ebe 4452 c5bc
00000140: 4018 c7bd fceb c9bd c77e 083e 558b 90bd
00000150: 8ca7 8d3e e058 9a3e 784a c1ba 4260 52be
00000160: 84b9 68be 0e5a 923d 504d b23b 8c77 88bd
00000170: b1e1 823d cf9d b33d 65c5 81bd 5192 803e
00000180: b527 c2ba 2f27 c2bd 4883 c0bd a31a 063e
00000190: 87ed 2b3c 8672 02be c03d 9ebd bddc 983d
000001a0: 602e 9f3e 78b5 36be 8355 2ebe 2247 bcbe
000001b0: 8bcb 25bd ca7b ae3d 7580 ddbd 89be 84be
000001c0: 8f66 3bbe a8c9 7cbe 7816 b1bd 69e4 92bd
000001d0: ea70 f8bd af2d 63bd f120 913c b69e f2bc
000001e0: 95fa 76be 286e d23b 68d2 b1bc d2aa f5bc
000001f0: 2b0c 40be 06a5 6abe 377d 8ebc b889 20bc
00000200: 9c91 60be 9833 6ebe f634 a43d f6eb 12be
00000210: defb 8abd d5cd 15be ba99 da3c 6792 3fbe
00000220: 2e81 c5be 8321 fdbe 912b 6a3e 20fb 223e
00000230: dff1 4d3e d011 51bd 49af 6bbd 57ab a5bd
00000240: 884a 6e3b a79f 23bc b3e1 9f3d 8f30 5bbd
00000250: 30a0 a0bd 55f4 cebc ea03 89bd c53a 13be
00000260: 5f24 45bd 3093 a4bd 1685 75be 568d 2bbe
00000270: fe9c ec3d 355e 24be e90d 3bbe 94d3 08be
00000280: e167 16be 3353 3c3e 1c40 573e 25b3 603d
00000290: 07d1 9e3d 3ea7 1bbe b42d a33e 2806 593d
000002a0: 390e a03e 5d58 1b3d 9b5c 013e 2b8f f13e
000002b0: 73fd 963e dae0 3e3e 547a afbc a7d0 e03d
000002c0: d7f0 593e 5380 053e 36c1 293e c104 ed3d
000002d0: 6376 0d3d 0cac 033e aa2f d1ba 23e9 62be
000002e0: e4ca 46be 6bc0 f4bd 4356 973d 52d9 cfbd
000002f0: 6224 903c 2af2 8d3e d879 cc3c 7844 1fbd
00000300: fec9 4dbe a351 c13d 7092 113e 7bce 42be
00000310: 7566 82bd 276c 96be 5ed1 a13a 9529 60bc
00000320: 87d4 83be 1526 833e b30a 63bd 423c 273e
00000330: 8dd4 29be 9048 2cbe 681a a1be cdb7 8cbd
00000340: dcfa 093e 3ea7 8cbd 048a 86be 52af 21be
00000350: f3fa 11be 24ae 9b3e 17a7 953e 4a10 9a3e
00000360: 6c1b 58bd fade 8b3e a8e2 083e 713f 2bbe
00000370: bb74 773d 1f35 b0bd 2102 29be 7efe 31be
00000380: 241d 18bb 1627 7cbe feaa b03c bf22 283d
00000390: 15ee 8cbd 3b27 a1bd 94fe 1f3e 67c3 9bbe
000003a0: f96d 5fbe f804 183e e9f0 8abe 1ae9 e73d
000003b0: e550 d53e bb8a 05be 8d61 10bd ef5a a83e
000003c0: 00f7 883b f3a2 0d3e fd94 b03d db2e b8bc
000003d0: 5ff7 7a3c 9006 0f3e b8e3 353e 827a 533e
000003e0: c000 c53d 3bff 09bd d839 2c3c 2a88 02bf
000003f0: df3a 03be 73bf b13c f8ec df3d ba96 debd
0.053656112 -0.08591042 0.09011017 -0.44277078 -0.092373565 -0.3387559 -0.094105475 0.078821115
-0.09963907 0.088017486 0.19959944 -0.086724505 -0.057774283 -0.013814193 0.037092827 -0.2727079
-0.12364831 -0.028465526 0.08983642 -0.26606542 -0.1796761 -0.21050349 -0.48195913 -0.2255936
-0.19002074 -0.23150903 -0.034446403 -0.17087507 0.15426055 0.20593016 -0.1811137 -0.13281938
-0.13022563 0.16779628 -0.099495 -0.03459817 -0.16354468 -0.2626691 -0.06387272 0.22569938
0.28989038 0.11285386 -0.0075479844 -0.20529231 -0.11584291 0.029444765 -0.12385758 0.035474777
-0.18657546 -0.15266801 -0.06741476 -0.20974989 -0.037232418 -0.105293624 -0.1779983 -0.3435331
-0.4499476 0.22801316 0.09520039 -0.1533637 -0.070407555 -0.15424536 -0.24776185 0.20637222
0.34902602 0.30629283 0.012200072 -0.117204785 -0.27324817 0.26034558 0.07019775 0.37783104
0.103028506 0.0095855845 0.25831464 -0.06146592 -0.18279643 0.063448705 -0.27856618 -0.024087079
-0.09721422 -0.098594636 0.13329612 -0.070578255 0.2766689 0.3014593 -0.0014746925 -0.20544532
-0.22727019 0.07146083 0.0054413453 -0.06663427 0.063907035 0.08770334 -0.06336478 0.2511163
-0.0014812859 -0.0948013 -0.0940004 0.13096099 0.010493643 -0.12739 -0.07726622 0.074639775
0.3109007 -0.17842662 -0.17024808 -0.3677302 -0.040477317 0.08519705 -0.10815517 -0.25926617
-0.18300842 -0.24686301 -0.08646864 -0.07172472 -0.12130912 -0.05546349 0.017715903 -0.029616695
-0.24119027 0.006421823 -0.021706775 -0.02998868 -0.18754642 -0.22914514 -0.017393691 -0.00979846
-0.21930546 -0.23261869 0.08017914 -0.14347824 -0.06786321 -0.146293 0.02668463 -0.18708192
-0.3857512 -0.4943963 0.22868182 0.15916109 0.20111798 -0.051042378 -0.05754021 -0.08089321
0.0036360342 -0.009986795 0.078067206 -0.053513106 -0.07843053 -0.025262991 -0.066902 -0.14377888
-0.04813039 -0.08035886 -0.2397655 -0.16753134 0.115533814 -0.16051562 -0.18267025 -0.1336196
-0.14688064 0.18391113 0.2102055 0.054858346 0.077547126 -0.15200517 0.31870806 0.052984387
0.3126085 0.037926067 0.12632982 0.4717954 0.2949024 0.18640462 -0.021420635 0.10977297
0.2128328 0.13037233 0.1657761 0.11573172 0.03453673 0.128586 -0.001595964 -0.22159247
-0.19413334 -0.11950763 0.073895 -0.101488724 0.017595474 0.2772382 0.024960443 -0.038883656
-0.20096585 0.09439399 0.14216018 -0.19024079 -0.063671984 -0.2937939 0.0012345721 -0.013681789
-0.25748083 0.25614992 -0.055430125 0.1633158 -0.16584988 -0.16824555 -0.3146546 -0.06870995
0.13474602 -0.068678364 -0.26277173 -0.15789536 -0.14255886 0.30406296 0.29229042 0.30090553
-0.052760527 0.27318555 0.13367712 -0.1672342 0.060414057 -0.08603882 -0.16504718 -0.17382237
-0.0023210729 -0.24624285 0.02156591 0.04104876 -0.06881348 -0.07868811 0.15624458 -0.30422518
-0.21819295 0.14845645 -0.27136925 0.113237575 0.4166328 -0.13041203 -0.03524928 0.32881877
0.0041798353 0.13831691 0.08622167 -0.02248328 0.015317767 0.13967347 0.17762649 0.20652202
0.09619284 -0.033690672 0.010511838 -0.5098902 -0.12815426 0.021697735 0.1093387 -0.108685926

bias f4 [32]
00000000: 47d6 27be f478 8dbd 8878 88be e124 2a3d
00000010: cfcb e2bc 42bc c2bd 08ff f6bd 2610 d03d
00000020: c853 7ebe 0565 ecbd 792a dcbd 1a22 91bd
00000030: ec61 11be 8770 d2bd 48f5 533c 5bf2 2b3d
00000040: 9a2c f7bd 20a2 00bd c8e9 5bbe 7a3c 7ebd
00000050: 12dd acbc 6cd8 b63e 2ae5 00be 9dd9 0abf
00000060: 81ca 34b9 35e4 58bc 0eec e93b 3cc2 0c3d
00000070: 258f 14be c810 99b9 c7b8 09be d7be 5ebe
-0.16390334 -0.069078356 -0.26654458 0.041539077 -0.027685074 -0.095085636 -0.12060362 0.1015933
-0.24836648 -0.115427054 -0.107502885 -0.070865825 -0.1419751 -0.10275369 0.012936898 0.041979175
-0.12069054 -0.031404614 -0.21475899 -0.062069394 -0.021101508 0.35711992 -0.12587419 -0.542383
-0.00017241576 -0.013238003 0.0071387356 0.034364924 -0.1450773 -0.00029194937 -0.13449393 -0.21752487

weight f4 [32]
00000000: 2ff3 833f 6b65 853f d856 4b3f 8e9a 863f
00000010: 962c 5a3f 307a a33f fe71 753f 771c 763f
00000020: 39e2 6e3f 67c3 683f 86cf 8f3f ecd0 7a3f
00000030: f316 853f 8d4d 8f3f 3c72 6b3f 91a2 7b3f
00000040: 48b9 6c3f 598a 893f 7613 7e3f bcad 993f
00000050: 2668 6d3f 43d5 563f 1108 993f cd78 953f
00000060: cd16 743f 0934 713f 6996 913f 3db1 653f
00000070: 51aa 933f 7cbd 803f d203 893f 4e33 743f
1.0308589 1.0421575 0.7942939 1.0515916 0.8522428 1.2771664 0.95877063 0.96137184
0.9331394 0.9092316 1.1235206 0.9797504 1.0397629 1.1195542 0.9197118 0.9829493
0.92470217 1.0745345 0.99248445 1.2006145 0.9273704 0.8391916 1.1955587 1.167749
0.9534729 0.94220024 1.1374027 0.8972357 1.1536351 1.0057826 1.0704291 0.95390785

bias f4 [32]
00000000: ca46 f7bd ca00 5abe a584 f23d 88ae 7ebe
00000010: 7c7e 923e 7156 09bd ef45 1b3e de96 b13e
00000020: 44e4 723e fad6 173e e488 d03e c8c3 04bc
00000030: e285 d03c 38f1 febd e909 063e 6f68 4c3c
00000040: bff4 673e 8370 1b3e fa18 b53d 1f32 79be
00000050: db30 443e 00a3 29bc 7ce0 793d 227f 173e
00000060: 5f70 0dbd fd4b 6c3e 2179 703e 1f11 2fbe
00000070: 0281 533e 390e 81bc 3406 cfbd 7bd0 373d
-0.12074049 -0.21289364 0.11841706 -0.24871266 0.28612125 -0.033529703 0.15163396 0.34685415
0.23719889 0.14828101 0.4072944 -0.0081033185 0.025454465 -0.124483526 0.13089718 0.012476071
0.22651957 0.15179639 0.088426545 -0.24335526 0.19159262 -0.010353804 0.0610051 0.14794591
-0.034530994 0.23075862 0.23483707 -0.17096375 0.20654681 -0.015753852 -0.10108605 0.044876557

running_mean f4 [32]
00000000: b0ba 983f 53b2 be3f fe69 9c3f ad02 aa3f
00000010: 1403 9a3f 825a 733f 8f59 ad3f 73af a03f
00000020: 01f5 893f 42ab 0d40 d02e 633f e82b 3e3f
00000030: 7cf0 de3f c8cd 643f 9ce2 0240 01f3 2240
00000040: 82a4 f73f 3b6d fd3f a323 c13f 1c85 b03f
00000050: fef3 ba3f bbf3 8f3f 9fc8 3b40 0194 693f
00000060: b68d c13f 6119 bd3f fe2c d03f e52f 773f
00000070: e0de 353f 94a5 0340 a40b 923f 0185 033f
1.1931973 1.489817 1.2219846 1.3282067 1.2032189 0.9505998 1.3542956 1.2553543
1.0777894 2.2135777 0.88743305 0.74285746 1.741714 0.893765 2.0450811 2.5460818
1.9347079 1.979896 1.5089 1.3790622 1.460571 1.1246256 2.93412 0.9124146
1.5121372 1.477337 1.626373 0.96557456 0.71043205 2.056981 1.1409802 0.5137482

running_var f4 [32]
00000000: d4d7 7540 a6e1 0741 aec2 f440 5d9a 6740
00000010: 211d 4140 0cf6 3540 dde4 c540 68ad b840
00000020: 3d45 a140 b6fd d940 78db 4540 08fc 963f
00000030: 3e20 3b41 a21b 1240 921b c040 a0ae fe40
00000040: 93fd 6541 dbf0 6f41 9b95 1041 50a8 1241
00000050: 2c74 5b40 e585 4740 a309 df41 89a5 d740
00000060: 4b55 6640 7ac6 0241 8802 4740 cec5 3240
00000070: 42d3 d73f 7ced 4e41 f07a 3440 ee18 993f
3.841298 8.49259 7.6487646 3.6187966 3.017403 2.8431425 6.1841874 5.7711678
5.039702 6.8122206 3.0915203 1.1795664 11.695372 2.2829366 6.0033655 7.9588165
14.374408 14.996303 9.036525 9.166092 3.4289656 3.1175473 27.879705 6.738957
3.5989559 8.173456 3.1095295 2.793323 1.6861346 12.93298 2.8200035 1.1960733

weight f4 [64, 32, 3, 3]
00000000: 29e1 603e c292 e73d 4e2e 313d a0cd d93c
00000010: 0218 7cbb 0796 673e cce6 213e 7d8f 013e
00000020: 4239 653e 43f4 d13d b1af 96bd 2dc0 8e3d
00000030: b386 383e 9454 513e d625 383e a1f3 91bd
00000040: 95f8 d7bd b8a3 acbc f9d4 fbbd 82ae 2fbd
00000050: eed0 02be 6933 64be 0677 0bbe 1ca8 9ebe
00000060: 70c1 a2bd 18ac aa3d 8411 2c3d 943d b63e
00000070: 0e9b 4e3e 4447 0c3e f54d c03d fc8a 113e
00000080: a3f6 213e ab46 0b3e bac2 0a3e 2dec 883e
00000090: 16f7 0cbe 1a3f 51be fafa dfbd 3bc1 c4bd
000000a0: 9598 f7bd 2717 cdbd 0447 353e 1bf4 f3bd
000000b0: a7ef 643d cbfe bd3d 6e74 74bd 35d0 2ebd
000000c0: 53ba 983e 3d7d 003f b360 cd3e b429 f8bd
000000d0: c9e0 6abe eb02 10be e897 00be d000 84bb
000000e0: c38a a9bd 2b4e d2bd 49c1 e9bc 2e27 60bb
000000f0: bd4c 42be 5b43 15be 2d5a 583b b64c 90be
00000100: 4d09 8ebe b1e4 3cbe 3202 b8bd ea76 00be
00000110: 1eef 90be 4b8b 413d 9c26 8d3d d597 b93d
00000120: 4bcf f3bd 5a57 743d e74a 01be 4829 ad3d
00000130: 1aad c7bd d3f1 feba 32c5 f3bc b71d 6dbe
00000140: 0fe8 42be bc70 5fbc 3629 7abe 88ca 85be
00000150: 90fe 97bd 6fda e83c b1b6 b0bd 46dd a1bd
00000160: 3d54 8bbd d8de 6ebe cd1b 0cbe e1af 3cbe
00000170: 4cec 65be 297d b0bd 5667 4abd 0926 603c
00000180: 43d9 fcbd c88a 283d b093 433e f650 013e
00000190: 1b8e ad3d 8b23 7b3e 022f 13be 660e 04be
000001a0: d2e3 9fbe 6304 88bd 5c82 5fbe 0c2d fbbd
000001b0: e557 8fbd 4976 40be a001 aebc 0d18 60bc
000001c0: b315 ed3b 10c9 4abe 8ea0 84be 4dca 0ebe
000001d0: 2b81 6fbe 8d8a bf3e 1c49 2a3e 6f8a 7b3e
000001e0: 16d3 7ebd 979e d1bc 2b06 a5bd 1ca6 7f3e
000001f0: a64f ea3d ee1a 823e efa3 673d b61e b03d
00000200: 874a 7b3d 7a06 63bc dad9 723d 22da ebbc
00000210: 7f34 b4bd f5fd 2d3e b002 8cbd 4d16 1b3d
00000220: b738 95bb 8e38 46bd eb2a 7abd 4272 07bd
00000230: 3fa9 6fbd 0e77 ca3d d7f8 96bd 91a6 e93d
00000240: 8002 80bd ffb9 3fbd 9fe8 f03c 2600 89be
00000250: 70fe 80bd 1e9b 20be 6621 15be 73e7 03be
00000260: e016 1dbe 3601 0ebc c568 913c 4953 853d
00000270: 934f cabe 905c 2e3d 59e2 dcbd ef5d 37be
00000280: 0447 67be bb67 f4bb 9809 5bbb 3206 bc3d
00000290: 5c38 38bd 88a2 17be d1d8 6ebd 5adc 18bd
000002a0: 7caf 89be 7e4b 75be b7e9 d9be d526 8eb8
000002b0: 1631 993c 8b60 753d 607e a73d 8feb d53d
000002c0: faf6 e33d cf77 4bbe 4027 78be c80d d7be
000002d0: 489f 1bbe e628 b7bd 9788 3cbe f26a 903b
000002e0: e9b9 1ebd 1d83 81be 071e 57be f581 47bd
000002f0: 43d4 3ebd 4f7c 97bd 81aa 693d bf2d a037
00000300: f7d7 8c3d 4932 563e 212b 333e 5308 b2bd
00000310: ad2c a7bd 95a0 6d3b 3758 8d3d 6366 173e
00000320: 224f 50bd 2b74 18be 557e 6fbe 7252 8fbe
00000330: 88a9 09be fbdb adbd 8de4 7abe 669d 453d
00000340: ddb1 a6bd 90bf 27be c992 4ebe ba55 be3d
00000350: d512 2fbd e91b b03c 9758 65bc 4f84 5d3e
00000360: 5b64 23bd 1963 8d3c 3ce9 ad3d 9e5e b93e
00000370: d852 5e3d c29e 103e 138d cabc 9d3d e63c
00000380: 74dd 2b3c 6987 20bd 7330 2abd 9130 933d
00000390: 7766 2bbe 0faa 27bd dcd7 983d 6aa4 27be
000003a0: 3cd0 04be bde6 0ebe 163c 57be 9922 cdbd
000003b0: 94d2 3abe a81b 513d 5b19 14bd c589 a83c
000003c0: acdf 063e 003d 6139 69d3 d63d fb63 073e
000003d0: fa57 0dbe 223f 313d 4636 1d3e 3454 413d
000003e0: 1367 d93d f082 40be 62e8 ccbd 0d16 34be
000003f0: 283e 65be 7e3a 2fbe c7b2 d8bd faf4 3ebe
0.21960892 0.11307289 0.04325705 0.026587307 -0.0038466458 0.22615825 0.15810698 0.12652393
0.22385123 0.10251667 -0.07357729 0.06970248 0.18020134 0.2044242 0.17983183 -0.07126547
-0.1054546 -0.021074161 -0.12296481 -0.042891033 -0.12775013 -0.22285236 -0.13619623 -0.30987632
-0.079470515 0.083336055 0.04200889 0.35593855 0.20176336 0.1369906 0.09389869 0.14213175
0.1581674 0.13601176 0.13550845 0.26742688 -0.13766131 -0.20434228 -0.10936542 -0.09607168
-0.120896496 -0.100141816 0.17702872 -0.11911794 0.055892613 0.092771135 -0.05968135 -0.04267903
0.29829654 0.501911 0.40112838 -0.12117329 -0.22937311 -0.14063613 -0.12557948 -0.004028417
-0.0827842 -0.102688156 -0.028534548 -0.003420304 -0.18974586 -0.14576475 0.0033012733 -0.28183526
-0.2774147 -0.18446614 -0.08984794 -0.12545362 -0.28307432 0.04725198 0.0689213 0.09062163
-0.11904772 0.059653617 -0.12626229 0.084551394 -0.097498134 -0.0019450731 -0.029757116 -0.23155867
-0.19033836 -0.013637718 -0.24429783 -0.26131082 -0.07421601 0.02842447 -0.086285956 -0.07903533
-0.068031766 -0.23327196 -0.1368248 -0.18426467 -0.22453421 -0.086176224 -0.049414955 0.013680943
-0.12346127 0.041147977 0.19099307 0.1262854 0.0847437 0.24525277 -0.14373401 -0.12896118
-0.312285 -0.06641462 -0.21827072 -0.122644514 -0.069991864 -0.18795122 -0.02124101 -0.013677609
0.0072352528 -0.19803262 -0.25903744 -0.13944359 -0.23389117 0.37410393 0.16629452 0.24564527
-0.062213026 -0.025588317 -0.08057817 0.2496571 0.11440973 0.2541117 0.056552824 0.08599608
0.06135037 -0.013856525 0.05928979 -0.028790537 -0.08799075 0.16991408 -0.0683645 0.037863065
-0.00455388 -0.04839378 -0.061076086 -0.03306795 -0.058511015 0.09885989 -0.07371681 0.11408723
-0.06250477 -0.04680824 0.029407797 -0.26757926 -0.0629853 -0.15684173 -0.14563522 -0.1288126
-0.15340757 -0.008667281 0.017750153 0.06510026 -0.39513835 0.042568743 -0.1078536 -0.17906927
-0.22585684 -0.0074586547 -0.0033422466 0.09180869 -0.044975623 -0.14808095 -0.05831224 -0.03731952
-0.26891696 -0.23954579 -0.42561123 -6.778321e-05 0.018700164 0.059906524 0.08178401 0.1044532
0.111310914 -0.19869922 -0.24233723 -0.42002702 -0.1519748 -0.08943348 -0.1841148 0.00440728
-0.038751516 -0.25295344 -0.21007548 -0.04870792 -0.046589147 -0.07396757 0.05704737 1.9094789e-05
0.068771295 0.2091762 0.17496921 -0.08692994 -0.08162818 0.0036259044 0.06901591 0.14785151
-0.050856717 -0.14888065 -0.23388036 -0.27992588 -0.13443577 -0.084892236 -0.24501248 0.04824581
-0.081393935 -0.16381669 -0.20173182 0.09293695 -0.04274257 0.021497684 -0.013998172 0.21632503
-0.03989063 0.017259168 0.084917516 0.36205 0.054278225 0.14123061 -0.024725473 0.028105551
0.01048981 -0.039191637 -0.04155011 0.07186998 -0.16738306 -0.040933665 0.07463047 -0.16371313
-0.1297006 -0.13955207 -0.21019015 -0.100163646 -0.18244392 0.051051766 -0.036156993 0.020573506
0.13171262 0.00021480396 0.10489542 0.13221733 -0.13803092 0.0432731 0.15352735 0.047199443
0.10615363 -0.18799949 -0.10005261 -0.17586537 -0.22386992 -0.17112157 -0.10580974 -0.18648139

bias f4 [64]
00000000: 744f b6bd 58b8 0cbf cdac eebc c335 5abe
00000010: 3c18 aabd 72af 6bbc 4bff 7fbe e1c7 ccbd
00000020: cbcc bcbd 6b66 acbe d698 43be 914a 19bd
00000030: 73be 60bb 8c99 5ebd e1ee 56bd acdc 06be
00000040: 07eb 973c 66b7 26be 39e7 2ebd a335 89be
00000050: 2332 7bbe afd3 01bf 037b aabd cc95 09be
00000060: da63 62be a285 3fbd 5190 003d ddfd 063c
00000070: a353 67bc 785e 22be 61ff e4bd 92ed 793c
00000080: 3d16 83be ce37 11be 825f 60be 9abd 01be
00000090: d470 6e3d 4819 00be a0d2 153d 2e5e 9abe
000000a0: ba6f 9b3d cca5 19bd 87ca 54be 8744 4dbd
000000b0: 88b9 3c3d 7f12 623c 20c1 d83d f0fa c6bd
000000c0: f2f2 98bc f335 c1be 2158 51be a045 003c
000000d0: b88b 4e3d ffa4 723a 64d7 a03b e192 9bbe
000000e0: 05ba 023c 0011 37bd b0a5 11be 07fd b9bd
000000f0: d860 8dbe da0b 443d 2efb 373d b190 a7bd
-0.08901873 -0.54968786 -0.029135132 -0.21309571 -0.083054036 -0.014385091 -0.2499973 -0.099990614
-0.09218749 -0.3367189 -0.19101271 -0.037424628 -0.0034293204 -0.054345652 -0.052473906 -0.13170117
0.018544687 -0.16280898 -0.04270098 -0.26798734 -0.24530844 -0.5071363 -0.08324244 -0.13436049
-0.22108403 -0.0467583 0.03138763 0.008239237 -0.014119062 -0.1585635 -0.11181522 0.015254395
-0.25602904 -0.14181444 -0.21911433 -0.12669984 0.05821307 -0.12509644 0.03657782 -0.30149978
0.075896695 -0.03751163 -0.20780383 -0.05011418 0.046075374 0.013798355 0.10583711 -0.09715831
-0.018670533 -0.37736472 -0.20443775 0.0078291 0.050426215 0.0009256154 0.004908489 -0.30385497
0.007978921 -0.044693947 -0.14223361 -0.09081464 -0.27612948 0.047862865 0.044917278 -0.081818946

weight f4 [64]
00000000: 3d38 b13f 7f5e 843f 1b77 b23f c532 a13f
00000010: edfd a03f cc21 a53f 35a7 9e3f ed6a 973f
00000020: 1d6e c23f 9447 a13f 9230 923f a766 bb3f
00000030: b856 b23f 3a05 d13f 2749 b73f 1221 b23f
00000040: de82 b03f 01dc a03f 7ae7 be3f 89fa 9c3f
00000050: 84a5 a13f 9c2d b23f a7bc a83f fb83 983f
00000060: 587b b43f 2a81 cc3f 67fe a73f a716 ae3f
00000070: f436 963f ea93 993f eeb2 ac3f 8ab1 c03f
00000080: d629 8d3f 990c a93f d52e b53f 6947 9b3f
00000090: 19b5 ad3f 0e72 a13f 7879 9b3f 5162 933f
000000a0: 9419 ad3f d93d a83f 7074 963f c6c3 a03f
000000b0: a3f0 b03f 9fb9 a73f 8332 9b3f da87 7c3f
000000c0: f194 a83f c281 963f 0414 b93f 2aac b93f
000000d0: 6218 b93f 39ce 9b3f 8863 c53f cef5 a23f
000000e0: 55cc ab3f 1430 993f 99b1 9b3f e2b7 bd3f
000000f0: 4d85 b53f 5165 a93f 42dd a23f 537b b83f
1.3845288 1.0341338 1.3942598 1.2593619 1.2577492 1.2900939 1.2394778 1.1829506
1.5189854 1.2599969 1.1421072 1.4640702 1.3932714 1.632972 1.4319199 1.3916342
1.3789937 1.256714 1.4914391 1.2263957 1.2628636 1.3920169 1.3182572 1.1915277
1.4100142 1.5976918 1.3124512 1.3600663 1.173552 1.1998265 1.3492105 1.5054181
1.1028392 1.320697 1.4154917 1.2131168 1.3570892 1.2612932 1.2146444 1.1514379
1.3523431 1.3143874 1.1754284 1.2559745 1.3823436 1.3103522 1.212479 0.98644793
1.3170453 1.1758349 1.4459233 1.4505665 1.4460566 1.2172309 1.5421 1.2731264
1.3421732 1.1967797 1.2163574 1.4821742 1.4181305 1.3234044 1.2723773 1.4412636

bias f4 [64]
00000000: 8434 673d fb89 ff3d ae09 5a3d 61d7 94bc
00000010: c65f 27bc e971 5a3d dd7f 96bc 962b dcbc
00000020: 0070 9b3d 79be 85bc cc12 1fbb 42c0 7b3d
00000030: e3d6 6d3d d736 8f3d fc4d 8a3d dbb4 9c3d
00000040: 9f14 863d 1cd3 7ebc 3110 773d b922 4ebc
00000050: 9abc 32bc e0b8 13bd 852e 623d feb1 59bc
00000060: 5569 5a3d 42b7 633d 5d0b 823d bbf8 4b3d
00000070: 68f0 a9bc 3703 d2bc 9b83 5f3d 5910 803d
00000080: a196 1ebc 77dc 8cbc d79c 9a3d 1516 92bc
00000090: cc1d 423d 1a66 39bc bc31 8b3d b87f 56bc
000000a0: 12fb 7d3d ee32 653d 868d bebc 57c7 c3bc
000000b0: 683a 593d 4275 4d3d d078 48bc 7270 6b3d
000000c0: b423 6b3d b290 08bc 9563 f7bc c9b1 433d
000000d0: 25d5 6f3d 14ea 79bc 5665 983d 07dc 89bc
000000e0: b375 803d 7323 32ba 9f4d 96bc d2e7 5f3d
000000f0: 702d 933d 06bd 823d fcfe e4bc 1c17 723d
0.056446567 0.124774896 0.053231888 -0.018169107 -0.010215705 0.05333129 -0.018371517 -0.026876252
0.07589722 -0.016326176 -0.0024272678 0.06146265 0.05806626 0.06992882 0.067531556 0.07651683
0.06546902 -0.015553262 0.060318176 -0.012581521 -0.010909224 -0.036064982 0.055220146 -0.013287066
0.05332311 0.05559469 0.063498236 0.049797755 -0.020744517 -0.025636299 0.054568868 0.06253118
-0.009679467 -0.01719497 0.07549446 -0.017832795 0.047391698 -0.011315847 0.067965955 -0.013091974
0.062007017 0.055956773 -0.023260843 -0.023898764 0.053034216 0.050160654 -0.012235835 0.057480283
0.057407096 -0.008335279 -0.030198852 0.04777697 0.05855288 -0.0152535625 0.07441203 -0.01682855
0.06272449 -0.00067954435 -0.01834756 0.05466444 0.07186401 0.063837096 -0.027953617 0.05910407

running_mean f4 [64]
00000000: c73d 5e40 7019 4040 ebe7 4340 05ed 0740
00000010: 30ea 0d40 721b 3440 1cef 3340 7e45 cd3f
00000020: 7cf4 7b40 02a8 ec3f 1067 2b40 3619 3b40
00000030: 1262 2040 353b 5640 5467 5f40 47c7 6940
00000040: 2ce1 4a40 2169 7040 164f 6d40 869f 3a40
00000050: 4651 7640 89a5 a23f b2f9 3840 738c 783f
00000060: 4d77 0f40 e379 4f40 f3dd 6b40 5caf 5740
00000070: b7b2 8d40 7c38 c33f bf7b 1b40 4b13 6b40
00000080: 5b33 0040 d5de 0540 6c68 4740 f52a 4840
00000090: 1270 4840 f841 0540 b1c3 8040 b1a7 d13f
000000a0: d96f 8140 79d3 4440 fe51 8a3f cf44 c23f
000000b0: 24a9 3840 b532 5c40 0106 8040 27fd 4640
000000c0: 71fd 5140 9fd7 d63f 84f5 713f 58da 3b40
000000d0: 49a0 bf3f 96ef 6340 e7b0 7440 eb58 2940
000000e0: a377 7240 36b4 5540 b47f 7a3f 39e8 3440
000000f0: 6f04 3b40 7c4e 9e40 e3e7 cd3f 611b 3a40
3.4725206 3.0015526 3.0610301 2.1238415 2.2174187 2.8141751 2.811469 1.6036832
3.9367971 1.8488772 2.6781654 2.9234138 2.5059857 3.3473637 3.4906816 3.652788
3.1699934 3.7564166 3.707952 2.9159865 3.8487105 1.2706767 2.8902402 0.9708931
2.2416565 3.2418144 3.6854217 3.370078 4.428066 1.5251613 2.4294279 3.6730525
2.0031345 2.0917256 3.1157484 3.127622 3.1318402 2.0821514 4.023888 1.63793
4.0449033 3.0754073 1.0806272 1.5177249 2.8853235 3.440595 4.000733 3.1092012
3.2810938 1.6784552 0.9451525 2.9352016 1.497079 3.5614982 3.8232973 2.6460521
3.788552 3.3391242 0.9785111 2.8266737 2.9221456 4.9470806 1.6086391 2.907921

running_var f4 [64]
00000000: 29e2 0442 954c 3342 d611 ec41 fd85 9041
00000010: f3fd af41 93c1 bb41 0798 e941 4062 c240
00000020: d367 2442 843d 9041 3595 a641 88c0 d141
00000030: 52d3 c741 bd93 ff41 77c6 0042 cf07 1542
00000040: eae5 ef41 d8a0 4642 4845 0942 a61b ef41
00000050: ffc0 5842 e896 f140 60f3 ce41 4870 9640
00000060: 8a23 b041 8698 e941 820c 0f42 a4dd e441
00000070: 9213 3942 67c8 0141 56f2 ba41 01cd f241
00000080: 0ebf 8341 762c 8f41 71c0 1342 8533 ec41
00000090: 4623 dc41 46e2 7341 bf99 0e42 a929 0e41
000000a0: f616 0042 2db7 c041 c4fc 8b40 68d5 e240
000000b0: d771 ca41 9ea9 0342 eaf4 3042 5d60 ff41
000000c0: ca52 ee41 9d4e 4241 d7bb 8d40 678d b841
000000d0: 8368 2241 979c 1a42 56bf 1942 7087 e041
000000e0: 29f2 0542 7844 0f42 7bdb a540 4ae3 e941
000000f0: e2ca e141 1628 2c42 003e 1541 d484 dd41
33.22086 44.824787 29.508709 18.065424 21.998999 23.469519 29.199232 6.0744934
41.10139 18.030037 20.822855 26.21901 24.978184 31.947138 32.193813 37.257626
29.987263 49.657074 34.317657 29.8885 54.188473 7.549671 25.868835 4.701206
22.017353 29.199474 35.762215 28.608223 46.26911 8.111426 23.368328 30.3501
16.468288 17.89671 36.93793 29.525156 27.517223 15.242743 35.650143 8.885171
32.022423 24.089441 4.374605 7.0885506 25.305586 32.91564 44.239174 31.922052
29.790424 12.144193 4.4291797 23.069044 10.150516 38.65292 38.43685 28.066132
33.486485 35.816864 5.183042 29.235981 28.224064 43.039146 9.327637 27.689857

weight f4 [2, 64]
00000000: 7175 973e 5b22 26be 5c20 a73e ff35 86be
00000010: 5df9 3dbe 81f1 963e c821 14be 1368 65be
00000020: 6873 da3e c381 65be ddbc fabd 732d 5e3e
00000030: acf4 ba3e 3cfd e83e 8743 c93e 53fa a43e
00000040: 217d 9b3e 9bdb 95be c657 c43e 3e29 8fbe
00000050: 746a d4bd d960 0fbe 9466 903e 9b6f 4abe
00000060: feb5 a23e 01d0 043f e6a0 3e3e c06f a83e
00000070: 50c7 6ebe f23e 85be f831 7d3e b2b7 913e
00000080: e7f8 93bd 89b6 aebe ea50 8c3e 4658 8dbe
00000090: 61f0 bb3e cdb8 98be 5438 093e b84b 07be
000000a0: 6c45 a83e e2db 8b3e 6c37 85be 3ba4 99be
000000b0: e1f7 a53e a88f 8d3e 6ac2 8ebe cb67 4bbe
000000c0: d359 ba3e c87b 83be 9fc4 8ebe 8771 cd3e
000000d0: 93ab da3e b18d 96be f5d1 983e 41ba 9abe
000000e0: daec 9e3e 6a9e 0fbe 0de3 79be 8bfb ca3e
000000f0: 65ad 3b3e 6fc3 953e 8f53 3cbe 8591 ba3e
00000100: 0d5e b7be 6d13 1c3e 6027 9ebe d59c 2a3e
00000110: 8dcd 9d3e 4cf8 72be 3661 973e 757d 0a3e
00000120: d3b5 7dbe 2330 a83e 4abd 2b3e c754 a0be
00000130: 2020 7ebe 4766 8bbe ec1b 88be 0b5c 28be
00000140: 5bea 94be c842 553e 884f d8be 05a6 a23e
00000150: b3fc af3e 1e71 c53e 9c1c 9cbe efc4 293e
00000160: 5f27 a1be 40f0 a9be ac43 a8be 9c44 aabe
00000170: d638 f33d 06f5 9f3d 09fc a4be 28e3 a5be
00000180: 115a 513e 7109 9c3e 7447 44be e00c c33d
00000190: 5dc1 bebe d412 883e dbbe 28be f069 7c3e
000001a0: 9bb6 93be 0907 a4be c235 953d bdb3 243e
000001b0: 40a5 a8be 153d a6be 0b2e d23d 6cc5 9ebb
000001c0: e5b1 86be e7a0 4a3d 2be1 b43e f1ef d1be
000001d0: a86e 86be 8f3e 883e 4b3c aabe e90e 673e
000001e0: 8078 8fbe 2b07 933e fdf4 a23d a9d9 3bbe
000001f0: c5f6 b2be 744e 51be 3c19 833e 9350 b6be
0.29581788 -0.16224043 0.32641876 -0.2621307 -0.18552156 0.29481128 -0.14466012 -0.22402982
0.42666173 -0.22412781 -0.12243054 0.21697025 0.36514795 0.45505702 0.39309332 0.32222232
0.30368903 -0.29269108 0.38348216 -0.27961153 -0.10371867 -0.14001788 0.2820326 -0.19769137
0.31779474 0.5187989 0.18616065 0.32897758 -0.23318219 -0.26024586 0.24726093 0.2846046
-0.07225209 -0.34123638 0.27405483 -0.2760641 0.36706832 -0.29828492 0.13400394 -0.13212478
0.32865465 0.27316195 -0.26018846 -0.3000811 0.3241568 0.27648664 -0.278827 -0.19863813
0.36396655 -0.25680375 -0.27884385 0.40125677 0.42709026 -0.29404977 0.29847685 -0.30220225
0.31040078 -0.14025274 -0.24403019 0.39645037 0.18327864 0.29250666 -0.1839125 0.36439148
-0.35813943 0.15241785 -0.30889416 0.16661389 0.30820885 -0.2372753 0.29566354 0.1352442
-0.24776392 0.32849225 0.16771427 -0.3131468 -0.24816942 -0.2722647 -0.26583803 -0.16441362
-0.2908505 0.20826256 -0.42248178 0.31767288 0.34372482 0.38562864 -0.30490577 0.1657903
-0.3147535 -0.3319111 -0.3286413 -0.3325547 0.11876075 0.078104064 -0.32223538 -0.3239987
0.20444514 0.30475953 -0.19167882 0.0952394 -0.372569 0.26576865 -0.16479056 0.24649787
-0.28850254 -0.32036617 0.07285644 0.1608419 -0.32938576 -0.32468477 0.10262688 -0.004845312
-0.26307598 0.049469855 0.3532804 -0.41003373 -0.262563 0.26610228 -0.33249125 0.22564282
-0.28021622 0.28716406 0.07956884 -0.1834475 -0.34953895 -0.20440084 0.2560519 -0.35608348

bias f4 [2]
00000000: 7777 033e ef7f 8e3d
0.12838541 0.06957995
