data/models/V8_model_state_dict.pth (torch, 114580 bytes, 50 tensors)

conv1.weight f4 [8, 2, 5, 5]
00000000: 8887 933e d978 d83e eb72 413e d4c2 b13e
00000010: 6a05 963c 56b9 73be 4142 b73d 1cf0 723e
00000020: 8ed8 833e f565 9cbd 96d8 9d3e deb0 073e
00000030: b695 d93e cd1a 373e 0fa0 1fbd bc5d f1be
00000040: fb91 91be 3fb4 b0be 3c04 8dbe 8164 86bd
00000050: 9239 4cbe e2dd a3bd 1ec0 5cbe cd80 13be
00000060: 8f13 80be ed4b e33d 0083 0d3e 3d67 9b3e
00000070: eea0 54bc a08a a23e 673a b43e 6310 15be
00000080: 89b8 de3d c282 2b3d 0a6f 92bb cfb0 d13d
00000090: 16b6 853d 6357 0b3e b388 273d d82f 323e
000000a0: 3d45 05be 1715 d2be 6d10 3bbe 2234 fdbd
000000b0: 06a4 35bd fcd8 c2bc e929 3abe b336 c4bd
000000c0: 1db6 41be 37b1 ca3d b6d7 7d3d 1b32 b23d
000000d0: 5015 e9bd f569 003e ca3b c1bd 6bb9 18bf
000000e0: ed19 77be 4446 b53e 5368 87bd c62d 393d
000000f0: cd5c ecbe 31e1 dfbe c780 23be f4f0 afbc
00000100: 1582 87bd 628a 89be 6d8a 17be d185 dcbd
00000110: 6b68 41be 6aaa 043e d796 57bd 2bd2 a83e
00000120: 6f51 8d3e 36ca b03e 84ab 05bf 3bdc 4a3d
00000130: 1d2a e13e 9b40 ec3c 93cc 6c3e 53df 593d
00000140: 815c a0be c8e7 3d3b 0fd8 2bbe bc04 fabe
00000150: 0a61 e5be 50f5 94be 820d b6bd 8d80 0d3d
00000160: be87 00be f8be 23be 442f 9dbe 1d8c 433d
00000170: d403 5ebe 3f6b f9bd 4be6 78bd 51c5 2d3e
00000180: 9d87 033e a168 a13e baf2 4b3d 0623 adbe
00000190: 98a3 d83d 65b7 fa3e ae76 c23d 6b82 dc3d
000001a0: 9b60 5dbe 9c41 d33c be98 6dbe e75f 293d
000001b0: be4d 363e 3bae 64be 60d3 d23e 0494 053f
000001c0: e876 33be 8168 b53e 9e45 f03d c865 413e
000001d0: 5c9e 903d 157a c43e 571c 9abe 41e7 883e
000001e0: a21f 44be 9acf 2a3d 02a2 3abe a475 6aba
000001f0: 234d 913e aa51 a73e c09a 953e 9fc0 e43e
00000200: 3866 65bd 7d88 e93c c846 cdbe 479c 3abd
00000210: af24 d2bd 2ea4 71be 8718 8dbe 9e74 a43e
00000220: ee3b 133e cbbc d63e f0a9 ae3e 926f 2dbe
00000230: b60c 17be 9197 4ebd f73c e23d 3441 f53c
00000240: 2716 a5be 7ca6 22bd f854 af3d 4dd1 72be
00000250: 7ad9 003e 8df0 793e e611 ec3d 62dd 8ebe
00000260: be12 b9bd 8427 91be dcab 203e 5e6b 523e
00000270: 08c9 4ebe a1f0 483e 149e 5c3e e0f1 973c
00000280: 1758 28bf 1e6f 01bf eaf3 963d b369 aa3e
00000290: e4b9 f83d b5e6 89be 6236 75be 22e4 6cbe
000002a0: 7b45 163f 4efc fa3e 9855 babe 9210 efbc
000002b0: 921c 12be 4417 5d3e a8be 3b3e ca0b 50be
000002c0: 85dc a5bd 7107 023d dc3b 123e 9cf1 123d
000002d0: 6933 d3be ca7b 9cbe 08ef 04bf 9a3f 3f3d
000002e0: c292 523e af57 27be c25c c3bc 21ed 1a3e
000002f0: acc8 5f3d e8d5 e83e 32a3 a2be 653d 3a3e
00000300: e368 243e 22c2 003e 32a8 c23e bf4f a3be
00000310: 3b8e a7be 3b8f f63d cccb ebbd a449 d83e
00000320: d084 82be aee1 17be 31d5 bebe 8de1 6abe
00000330: cb09 ed3d 0fb3 51bb eded b83d 8c8a ccbe
00000340: 23f7 6fbe 05eb 693e 7a93 84be 564f 70bd
00000350: 4660 89be 0ebd 9bbd 89d0 e1be 06f5 c3be
00000360: 7cae 32be d279 c83d 908f 263e 7919 bdbd
00000370: 51e0 3bbd e135 b63c 4cce d4bd 829c da3e
00000380: 9baa af3e a006 f53c 96d3 453d 94d8 0dbf
00000390: ed2f 433e e9cf b23d 22c5 ab3e ed14 0dbe
000003a0: 315d 18bd 4f77 113e 204c 82bd 37b5 223e
000003b0: 54a2 05bd e119 c6be f384 f53d bf74 023e
000003c0: 4e64 05bd 54df 17be e55d 5abd 9c27 1bbe
000003d0: 740f cfbe e858 29bc 0e7e ad3d 32f6 ebbd
000003e0: 422e 6d3d 2654 9e3d adca 0b3f f1c8 303e
000003f0: 1712 1fbf 27b3 8dbe 05d6 1a3d 8c65 f8bd
0.2881434 0.422797 0.18891494 0.34718955 0.018313129 -0.23801169 0.08948184 0.23724407
0.25751156 -0.07636634 0.30829304 0.13251063 0.42497033 0.17881317 -0.038971003 -0.47141826
-0.28431687 -0.34512517 -0.27542293 -0.06562138 -0.19943836 -0.08001305 -0.21557662 -0.14404602
-0.25014922 0.11098466 0.13819504 0.30352202 -0.012977822 0.31746387 0.35200807 -0.14557032
0.10875041 0.041872747 -0.0044688033 0.10238802 0.06528871 0.13607554 0.04090185 0.17401063
-0.13014694 -0.41031715 -0.18267985 -0.12363459 -0.044345878 -0.023785107 -0.1818005 -0.095807455
-0.18917127 0.09897082 0.061973296 0.08700963 -0.11381018 0.1254042 -0.09435232 -0.59657925
-0.24130984 0.3540517 -0.06611695 0.04520967 -0.4616455 -0.43726495 -0.15967093 -0.0214772
-0.06616608 -0.2686339 -0.14798899 -0.10767711 -0.18887489 0.12955633 -0.052634086 0.32972845
0.2760119 0.34529275 -0.5221484 0.049526434 0.43977442 0.0288394 0.23124914 0.053191494
-0.31320575 0.0028977264 -0.16781639 -0.48831737 -0.44800597 -0.2909341 -0.08889295 0.034546424
-0.12551782 -0.15990818 -0.30700123 0.047741044 -0.21681148 -0.12178659 -0.0607665 0.16969801
0.12844701 0.31525138 0.04979203 -0.33815783 0.10578078 0.48968044 0.094952926 0.10767063
-0.21618883 0.02578812 -0.23202798 0.041351225 0.17803094 -0.22332089 0.4117689 0.5217898
-0.17525828 0.35431293 0.117320284 0.18886483 0.07061455 0.3837439 -0.30099747 0.26738933
-0.19152692 0.04170189 -0.18225864 -0.00089439214 0.28379163 0.32679492 0.29219627 0.44678208
-0.056005687 0.028507465 -0.40093064 -0.045559194 -0.10260903 -0.23597786 -0.27557775 0.32120222
0.1437833 0.41940913 0.34114027 -0.16937092 -0.14750943 -0.050437514 0.11046784 0.029938318
-0.32243463 -0.039709553 0.085611284 -0.23712654 0.1258296 0.24408169 0.11526851 -0.27903277
-0.09036778 -0.2835046 0.15690559 0.2054877 -0.20193875 0.19623043 0.21544677 0.018547952
-0.65759414 -0.50560176 0.07370742 0.33283767 0.12144831 -0.26933828 -0.23946527 -0.23133901
0.5869977 0.49020618 -0.36393428 -0.029182706 -0.14268711 0.21590906 0.18334448 -0.20316997
-0.080987014 0.031745378 0.14280647 0.035874948 -0.4125016 -0.30563194 -0.5192723 0.046691515
0.20563796 -0.16342042 -0.023847941 0.1512952 0.054634735 0.45475698 -0.31765133 0.18187483
0.16055636 0.12574056 0.38018948 -0.3189678 -0.327257 0.12039038 -0.115134805 0.42243683
-0.25491953 -0.14832184 -0.37272027 -0.22937603 0.115741335 -0.0031997596 0.09029756 -0.39949453
-0.23434119 0.22843559 -0.25893766 -0.05866941 -0.26831263 -0.07604419 -0.44104412 -0.38272876
-0.17449373 0.097888604 0.16265702 -0.09233374 -0.04586822 0.022242488 -0.103909105 0.4269753
0.3430985 0.029910386 0.048297487 -0.55408597 0.19061251 0.08731062 0.33548838 -0.13777514
-0.03719825 0.14205669 -0.06362176 0.1588944 -0.03262551 -0.3869162 0.11988249 0.12739848
-0.03256636 -0.14831287 -0.0533122 -0.15151829 -0.40441477 -0.010336138 0.08471309 -0.115215674
0.057905443 0.07730894 0.54606134 0.17264153 -0.6213698 -0.27675745 0.03780176 -0.121287435

conv1.bias f4 [8]
00000000: 4469 033d 9589 0e3e b8fe e0bd 5076 0bbf
00000010: 3f39 ecbe a9ba b73c 4d14 d0be fac7 dd3c
0.03208281 0.13919671 -0.10986084 -0.54477406 -0.46137425 0.022427874 -0.40640488 0.027072895

bn1.weight f4 [8]
00000000: d6aa 913f f442 6f3f b89e 543f fb8b 923f
00000010: a820 333f 632e 623f 3151 833f 880c 763f
1.138026 0.9346154 0.83054686 1.1448969 0.69971704 0.8835203 1.0259153 0.9611287

bn1.bias f4 [8]
00000000: 6340 233e 5a5f 2c3e 551c 01bf dc7b 92be
00000010: 9503 1f3d b2b1 943e 327a ecbe 80d5 2f3e
0.1594253 0.16833249 -0.50433856 -0.28610122 0.038821775 0.2904182 -0.46186978 0.17171288

bn1.running_mean f4 [8]
00000000: d856 043f 3a6d 9b3f 42d0 833f 67f9 b03e
00000010: 76ba 453f 0f19 c33f 220a 0e3f d007 a13f
0.51695013 1.2142708 1.029793 0.3456528 0.7723764 1.5242022 0.5548421 1.2580509

bn1.running_var f4 [8]
00000000: 8871 233f 0f8e 9a40 a36c 1640 d560 983f
00000010: 5836 3040 4af0 0441 96a6 943f bb92 b440
0.6384511 4.829841 2.3503807 1.1904551 2.7533169 8.308664 1.1613338 5.6429114

conv2.weight f4 [16, 8, 3, 3]
00000000: e699 eabe 6baf 9bbd ed71 8ebe 28a3 a43e
00000010: fca3 86bd 5347 f03e 5974 57be 712b b9be
00000020: 95c4 83be 5747 9ebe 14b6 11be 789e 0fbd
00000030: ca47 10be 9eb9 853b 71ad a13d 61e5 0a3d
00000040: d1ad 25be 26f5 67be 1d94 383e 91e2 883d
00000050: 451a f7be 4fd6 613e 27a6 cc3d 1b59 cf3c
00000060: 8168 d73e 56ad 3d3e 04e3 f1bc 63d3 0abe
00000070: 84cb 813d 066b 12be 9d53 6c3b 93eb 4fbd
00000080: d56c 233e 32b2 ea3e 6510 0d3f 5bd2 833e
00000090: d2fe 11be d897 9c3d 3fce e6be 92ea 03be
000000a0: 8f96 943e bfdd 003e aaf9 ac3d 8f4f d33e
000000b0: b0cb 06bc 44aa c3be eddf 8f3d 45a0 d13d
000000c0: 25ae cf3c 83b1 67be d557 3bbe 9e3c d9be
000000d0: 5cf5 11be d3ad 953c d881 e53c 5b7e 1b3e
000000e0: 6bf6 bebd 6d89 043d 71c5 043e 0181 1d3e
000000f0: 295a b73e 17a4 6b3e 14bb 883d ad02 88be
00000100: c8bb 143e 897e 58be 2d28 f13d c426 ed3d
00000110: 95cd 883e da1a b13c 0459 04bf cb3c b7be
00000120: 5fcd 133d 8f4e 413e e633 85bc 038a 9cbd
00000130: 0ff6 2abd f98f 943e c624 8dbb 6758 f6bc
00000140: d31a 95be 7e07 08be 6294 ccbe feda 55be
00000150: 587f 223e 8a2e a5bd 15eb 243d 0e60 a6bd
00000160: 7d10 ae3c ba2b 94be f46f 30bc 825e 0b3e
00000170: 2a37 5a3e 2155 a1bd b314 113e 8373 35be
00000180: 6ceb 18be 21c0 a8be 163b 933e 69cf 133e
00000190: fed4 b8bd 8b09 31be 0e4e 53be 1403 0fbf
000001a0: 0b78 e6be 0861 3abe 0007 a7be ea9e 8dbe
000001b0: 910f 703e e726 5f3e a251 12bd c81a a9bc
000001c0: c935 50bd ab13 59be c629 6dbe 502d 933d
000001d0: 5dd0 bcbd 3422 85bc 76c2 d33d 46e1 dd3d
000001e0: a0e7 36be 954c 21bd 635e 713d 10ef ce3e
000001f0: a37d 45be ca60 6dbe 3bfc 793e 4f6a 183e
00000200: e39b 9a3e 1bec 423d c3d0 58bd a134 e5bd
00000210: 7d54 a6be 584a dfbe a876 17be 7091 89bd
00000220: 870a f2be fb82 cebe 4f99 02be 0cdf 1bbd
00000230: 98e0 0e3d 49a5 1e3e a4fa 9cbe a0d6 0fbd
00000240: cea9 80be bda1 243d 4e8a 1d3e 85e6 ffbe
00000250: 5eb2 aebe 1112 e9be 1302 ee3d 38fc 83bd
00000260: 4b77 96bd b8f2 5cbd 76e8 4dbe cf77 03be
00000270: 61dd 653e 0410 8e3e 3097 f93d 4700 a5bd
00000280: cf50 4fbe f07c a53d 3462 abbd c52e 623e
00000290: 62b1 36be 3b51 d93d 16c5 b1be 2459 2dbe
000002a0: fa50 b93e fca1 953d e3ab 03be 2b53 71be
000002b0: d5b1 70be e42b 5ebe c957 7f3d b080 8abe
000002c0: c814 3c3d c0c3 57be d7d8 25bd 6327 09be
000002d0: aeac 8b3e 56f2 0f3e abe4 4bbe ad60 833b
000002e0: ac78 343e 656b d7bb 4969 edbd 2a1c 85be
000002f0: 362e 9bbe a437 96be 59f0 ef3d 154f 93be
00000300: 937e 05be 6f15 33bf 4666 33bf 429c 0f3d
00000310: 1f06 8d3e f2be a9be 8c0e ccbd 3209 0dbe
00000320: d3fd 6bbc d9b5 9a3d b840 4d3d 168f f9bd
00000330: 8bd2 b73d c185 6abc 5bb5 98be a8ef 42bd
00000340: fca6 7bbe fd5a 8cbe 149e 50bd 3661 ce39
00000350: 351a 173e 417d 99bd 3d1b bfbe 791a ec3c
00000360: 09d5 77be 83c6 0bbf e909 02bf 0ed7 d43e
00000370: ca74 0abe db55 da3e ad2e 993e 2307 82be
00000380: 7600 6cbe ae00 203e 896a b93d 0bca fb3d
00000390: 6ad0 803e 5b65 d33d d62b f73d 0b44 e4ba
000003a0: 026a ca3e 348b bf3b 21b8 acbd ff8c 4dbd
000003b0: fa5c c6bd 477f 8a3d cf6d 123d c497 2c3d
000003c0: eca4 193d 7b16 ba3d 2526 2bbe 7c79 463e
000003d0: 00cc 2c3e 766e 67be 9215 ca3d 8284 02be
000003e0: a83c 8bbe 857a 763d aad5 303d e055 193e
000003f0: 4bf2 ba3c 8da6 47be 61b2 dcbd bb17 f03d
-0.4582054 -0.07601818 -0.27821293 0.32155728 -0.06574246 0.46929416 -0.21040477 -0.36165956
-0.25735918 -0.30913803 -0.14229614 -0.035063237 -0.14089885 0.004080965 0.078944094 0.03391016
-0.16179587 -0.2265211 0.1802525 0.06683839 -0.4826223 0.22054408 0.099926285 0.025311043
0.42071918 0.18523154 -0.029527195 -0.135572 0.06337646 -0.14298639 0.003606058 -0.05076177
0.15959485 0.45839077 0.5510314 0.25746426 -0.14257362 0.076461494 -0.45079228 -0.1288245
0.29021117 0.1258459 0.08446057 0.41271636 -0.008227274 -0.3821584 0.07025132 0.10235647
0.025351593 -0.22626309 -0.18295224 -0.4242906 -0.14253753 0.018271362 0.028016016 0.1518492
-0.09324344 0.032357622 0.12965943 0.15381242 0.35810974 0.23011814 0.06676307 -0.2656454
0.14524758 -0.2114202 0.11775241 0.115796596 0.26719347 0.02161925 -0.5169833 -0.3578857
0.03608453 0.18877624 -0.016260099 -0.07643511 -0.041738566 0.29016092 -0.0043073623 -0.03007145
-0.29122028 -0.13284108 -0.39956957 -0.2088432 0.1586889 -0.08065517 0.040263254 -0.0812379
0.021248097 -0.2893961 -0.010768879 0.1361027 0.21310106 -0.07877565 0.14168052 -0.17719845
-0.14933556 -0.32959083 0.28756016 0.1443459 -0.09025 -0.17288797 -0.20635244 -0.5586407
-0.4501346 -0.18201077 -0.32622528 -0.27660304 0.23443438 0.21792184 -0.035722382 -0.020642653
-0.050832544 -0.21198909 -0.23160467 0.07186377 -0.0921943 -0.01625166 0.10339825 0.10833983
-0.17861795 -0.039379675 0.058927905 0.40416765 -0.19286208 -0.23181453 0.24412625 0.14884304
0.30197057 0.04758845 -0.052933466 -0.11191679 -0.32486334 -0.43611407 -0.14791358 -0.06717193
-0.47273657 -0.40334305 -0.12753795 -0.03805451 0.034882158 0.15492739 -0.30659974 -0.03511679
-0.2512955 0.04019331 0.1538479 -0.4998056 -0.34120458 -0.45521596 0.116214894 -0.06444591
-0.07346972 -0.053942412 -0.20108208 -0.12838672 0.2244773 0.27746594 0.1218704 -0.080566935
-0.2024567 0.080804706 -0.0836834 0.22088154 -0.17841104 0.106111966 -0.34720677 -0.16928536
0.36194593 0.07306287 -0.12858538 -0.23566882 -0.23505338 -0.2169643 0.062339578 -0.27051306
0.045918256 -0.21070766 -0.040489998 -0.13393931 0.27280182 0.14057288 -0.19911449 0.0040093274
0.17624158 -0.0065740817 -0.11592347 -0.2599805 -0.30308694 -0.29339325 0.117157646 -0.28771272
-0.13036565 -0.6995458 -0.7007793 0.03506113 0.27543733 -0.33153492 -0.09963712 -0.13773039
-0.014403778 0.07554216 0.05011055 -0.121854946 0.08975705 -0.014314116 -0.29825863 -0.047591835
-0.24575418 -0.2741317 -0.050932005 0.0003936381 0.14756091 -0.074945934 -0.3732547 0.028821217
-0.2420236 -0.5459978 -0.5079637 0.41570324 -0.13521114 0.42643628 0.29918423 -0.2539607
-0.23047051 0.1562526 0.09053523 0.12294396 0.25159007 0.103220664 0.12068908 -0.0017415298
0.39534003 0.0058454517 -0.08433557 -0.050183292 -0.096857026 0.067625575 0.035749253 0.042136922
0.037510797 0.09086319 -0.1671377 0.1938228 0.16874695 -0.22600731 0.098673955 -0.1274586
-0.27194715 0.060175437 0.043172516 0.14974165 0.022820612 -0.19497128 -0.107762106 0.11723276

conv2.bias f4 [16]
00000000: 9802 debe 61b3 a33c 8d0d 05bd b675 e53d
00000010: fcb8 aebd d1a8 b7bd bb46 e6bc 2c9e 0fbe
00000020: 9769 fabd e951 08be 9093 443e 11d9 b0be
00000030: 59e8 febe e144 43bd 6b68 42be 8b43 dabd
-0.43361354 0.019982995 -0.032483626 0.11204092 -0.08531377 -0.08967746 -0.028109899 -0.14025182
-0.12227171 -0.13312496 0.19196916 -0.3454061 -0.49786642 -0.04767311 -0.18985145 -0.10657414

bn2.weight f4 [16]
00000000: 1380 993f 03b9 b13f bcaa 6f3f ba3f 3d3f
00000010: 49fc 333f 8d50 3f3f 3363 7d3f 74c4 3b3f
00000020: 21d1 443f 5f66 6e3f d7ad 1b3f 1686 833f
00000030: 9ef5 5a3f 1734 4e3f 48e6 6c3f 6d02 7f3f
1.199221 1.3884586 0.93619895 0.73925364 0.7030683 0.74732286 0.9897949 0.7334664
0.76881605 0.93124956 0.60812134 1.0275295 0.8553103 0.8054823 0.9253888 0.99613076

bn2.bias f4 [16]
00000000: 11bd cb3e 2a0b 64be 076c 883c 0904 373e
00000010: e609 393f ecc8 853e 125d 663e e3af 833e
00000020: e498 b8bc d32c b0bd d4be bb3e 07ed 41bd
00000030: 2db6 053d 8253 e23e 3aa8 06be 4258 903c
0.39792684 -0.22269884 0.016653074 0.17872633 0.7228073 0.26129854 0.22496441 0.25720128
-0.022533841 -0.086022995 0.36669028 -0.047345188 0.03264444 0.44204336 -0.13150111 0.01762021

bn2.running_mean f4 [16]
00000000: 480e 463e c1cf ba3f afed 803f 2a4f e13f
00000010: 50cb c83f d9fb b03f 318b 613f a869 763f
00000020: 88ed c23f 10d1 8d3f 87c0 2c40 2842 ec3e
00000030: 1ffb 953f 6ce9 e03f a080 883f cfc5 8b3f
0.19341385 1.4594651 1.0072535 1.7602284 1.5687046 1.3826858 0.88103014 0.9625497
1.5228739 1.1079426 2.699251 0.46144223 1.1717261 1.7571235 1.0664253 1.0919741

bn2.running_var f4 [16]
00000000: 55b1 103f 238f c43f ecec 923f e2d1 bf40
00000010: 2965 1d41 df19 0941 c5ff e13f f728 6e40
00000020: e9af 0941 2e85 5e40 4e28 8040 fcad 3740
00000030: 049b ce40 3971 ff40 cdcd 1b40 f00e cf3f
0.5652059 1.5356182 1.1478553 5.9943705 9.837197 8.568816 1.765618 3.7212503
8.605447 3.4768786 4.00492 2.8699942 6.456423 7.982571 2.434436 1.6176434

conv3.weight f4 [32, 16, 3, 3]
00000000: 9929 383c a48b 1e3b 780f 6dbe 0365 1e3e
00000010: 9646 a73e 905e e93d 7d63 963e 984f c2bd
00000020: 38dc eb3e 16b4 ea3d 7489 823e 6324 6a3e
00000030: b002 c6bd bb91 03be ab6d 41bd 5602 1bbe
00000040: b371 38be 1335 cdbe f9e7 09be 0869 9d3d
00000050: 91e8 58bd c3f7 623e b63c 943b 2e48 143e
00000060: dad1 95be 1118 7bbe 68a8 2abe 5926 94be
00000070: bb20 76bd 0075 97be f745 0d3e 388e be3e
00000080: 8490 dabd a2b5 923e 60db 253e 2072 343e
00000090: c0a0 82be dc74 49bd 0155 59bd be30 8d3c
000000a0: c329 46bd 9eca 00be c633 bb3d d344 c4bd
000000b0: 3f4f 3ebc 4533 93be d816 d9bd 4fc6 47be
000000c0: 05f6 41be 0013 4e3e 9f27 61be d8c6 283e
000000d0: 0eda 423e a711 c23d 6ae3 163d c8a4 0dbd
000000e0: 1c97 933d b2ff 0c3c 43bf 45be c08b b23d
000000f0: a68e a3be 4392 09bf 6e69 a2be 1ffe 92be
00000100: 3995 15be dbcf 0c3e dd91 0fbe 4fc8 443e
00000110: bddf 963e ecd5 e9bd 95d4 0abe 10f0 af3d
00000120: f43a 54be 73aa 98be 893c 92bb c733 27be
00000130: 72db 7cbd d9db 04bb 1127 743c 60d1 5fbd
00000140: bb54 e73d e911 75bc 332f 0f3e 94ac 4d3e
00000150: 6efb 233c 13fd b9bd e154 19be 3f4a 6dbd
00000160: 5f00 06be 17f4 45be d46e 113d 6ed2 23be
00000170: 2d83 c7bd 514b 4e3d 9162 003e 109f a83e
00000180: 05fd d93e 9fb9 c33e 7fba d8bc b39e 86be
00000190: e277 08be 959c a8be e7ed c53d 7ebd ffbd
000001a0: 1b42 813c db65 103e 70a3 a23e 24b2 d83e
000001b0: c9fb eabd eed2 02be 1ca7 96bd 9edd 5fbd
000001c0: 689b 03be 56ca 04be 7be3 61be 5697 cabd
000001d0: f3fc 25be b34a ad3d 852f 38bb 9abb 9bbc
000001e0: 7b06 f9bd 3261 a7bd 2390 313d ba02 2ebe
000001f0: ef79 04be b320 dfbc 4b4b 593e ee04 f83d
00000200: 68a8 a8bd e57e 153e 5e33 203e bf51 84bc
00000210: 2204 e3bd 63f0 893d 2863 913d daf0 43bd
00000220: c6d7 c63d a0b6 c33c 2bbc 1d3e 9494 a53e
00000230: f75e 823d d079 873d a8a4 273e 9aa5 e13c
00000240: c982 a1bb 311c 933d a690 663e eac4 0bbe
00000250: 5218 a7be 5d2d 79be ecbe 05be 119e debd
00000260: 4423 45be 8a1c f7be c383 9abd 53bd 94be
00000270: 2025 babd 2b15 82be f19e e0bc 94dc 8dbc
00000280: af8a 6dbc c6e2 c1bd 015a 8bbe c9ff 8fbd
00000290: d257 d3be 7b72 81bd e9a9 d83d 64ff 6ebe
000002a0: 5d77 a0bc 89b9 c5bd b23e f0bd 4821 5c3e
000002b0: 425b 0f3c 2e94 ee3d 2750 703e eaa5 db3d
000002c0: 145b f03d 06a1 31bd 95da 293e e722 9c3e
000002d0: fdcf 89bc f2fe 9d3e 64e8 283e 0d1f a33e
000002e0: c122 b63c f864 b43e fc74 243e 497a 303d
000002f0: 0105 943d 82a6 db3d 8a7b 9f3d 43c2 583e
00000300: cc42 623e 42b1 923d a426 11be 2e1d 3dbd
00000310: 7484 433d c9ac d83c 1bce bebd 78b1 6c3d
00000320: b74e 20be 2b4b 0b3e c63c 2abe b06e bdbd
00000330: 0079 1bbd 8937 c1bb 2bf7 d43d 5110 a13e
00000340: b7ee 3a3e b0e1 0fbd 93f0 633e ac15 44bd
00000350: b4c5 38be 2e5b 823e d9c5 423d 8711 71bc
00000360: 47d5 7b3e 9821 973e 00f3 633e d742 a93e
00000370: ec42 093e 1c5e 7a3e fd80 323e 74ff 733e
00000380: 9379 f33d e4a1 f4bd 9071 a6be baf3 733d
00000390: 8719 40be 7330 76be dc57 21bd 4f88 bfbd
000003a0: 7ed5 15be 0aad 92bd f584 c53c b113 233e
000003b0: c3ba 0f3d e4af 893e e327 3abd 2333 ae3d
000003c0: e862 423e aa9d 29bc f821 3dbd 48cf e33e
000003d0: 91f7 373d 4c27 333e 04c3 a7bc 8d14 823d
000003e0: b480 a03d 1923 113d 21df f63d 43e6 2fbd
000003f0: 5e09 15be 92cc 2b3e 77a6 cebd 05ba bf3d
0.011240386 0.002419212 -0.23150432 0.1546822 0.3267104 0.113949895 0.2937278 -0.094878376
0.4606645 0.1146013 0.25495493 0.22865443 -0.09668481 -0.1284856 -0.04722373 -0.1513761
-0.18012123 -0.40079555 -0.13467397 0.07686049 -0.052956168 0.22164826 0.004523839 0.1448066
-0.29261667 -0.245209 -0.16665804 -0.28935507 -0.060089808 -0.2958145 0.1379622 0.3721788
-0.106720954 0.286542 0.16196966 0.1762166 -0.25513268 -0.04918371 -0.05305958 0.017235156
-0.04837967 -0.12577292 0.091407344 -0.0958344 -0.011615573 -0.28750053 -0.1060006 -0.19509242
-0.18941505 0.20124435 -0.2198777 0.16482103 0.19028494 0.09476023 0.036837973 -0.034580976
0.07206556 0.008605884 -0.19311242 0.087180614 -0.3194477 -0.537388 -0.3172106 -0.28709504
-0.14607705 0.13751166 -0.14020486 0.19217037 0.29467574 -0.114177555 -0.13557656 0.0859071
-0.20725614 -0.29817542 -0.0044627828 -0.16328345 -0.061732717 -0.002027264 0.014901892 -0.054643035
0.11295458 -0.014957883 0.13982849 0.20085365 0.010008676 -0.09081473 -0.14973785 -0.057932135
-0.13086079 -0.19331394 0.035506085 -0.15998241 -0.09741817 0.050364796 0.125376 0.32933855
0.4257585 0.38227555 -0.026456116 -0.26292953 -0.13326982 -0.32931963 0.09664517 -0.12487315
0.015778592 0.14101355 0.31765318 0.4232341 -0.114738055 -0.12775776 -0.07356092 -0.05465471
-0.12852252 -0.1296781 -0.22059433 -0.09892146 -0.16209774 0.08461513 -0.0028104496 -0.019010354
-0.12159439 -0.081728354 0.04335035 -0.16993228 -0.12937139 -0.027237272 0.21220128 0.12110315
-0.08235246 0.14599188 0.15644595 -0.01615226 -0.11084773 0.06735303 0.07098991 -0.047837116
0.09709124 0.023890793 0.15403812 0.3233992 0.06365769 0.06615031 0.16371405 0.027544785
-0.004928921 0.071831115 0.22516116 -0.13649336 -0.32635742 -0.24333711 -0.13061112 -0.108699925
-0.19251734 -0.4826396 -0.07544663 -0.29050693 -0.09089112 -0.25406775 -0.02741954 -0.017317094
-0.014498397 -0.09467082 -0.27217105 -0.07031209 -0.4127794 -0.063206635 0.10579283 -0.23339611
-0.019588167 -0.09654529 -0.11730708 0.21497071 0.008749785 0.11649357 0.23468076 0.10725005
0.11736122 -0.043366455 0.16587289 0.30495378 -0.01682281 0.3085857 0.164949 0.31859627
0.022233369 0.35233283 0.16060251 0.04308537 0.07227517 0.10725118 0.07787235 0.21167855
0.22095793 0.071627155 -0.14174896 -0.046170406 0.04773374 0.026449578 -0.09316655 0.057786435
-0.15655027 0.13602893 -0.16624746 -0.092496276 -0.03795719 -0.005896513 0.10398706 0.3145776
0.18255125 -0.03512734 0.2225974 -0.04787223 -0.18044168 0.2546019 0.047551963 -0.0147136515
0.24593078 0.29517817 0.22260666 0.33058807 0.13404435 0.24449962 0.17432018 0.23827916
0.11888423 -0.11944941 -0.32508516 0.059558608 -0.18759738 -0.2404192 -0.03939043 -0.09352171
-0.14632222 -0.07161911 0.02411125 0.1592548 0.03509022 0.26892006 -0.045448195 0.08505847
0.18983042 -0.010352531 -0.046174973 0.4449408 0.044913832 0.1749546 -0.020478733 0.06351576
0.07837048 0.035433862 0.12054277 -0.042944204 -0.14554355 0.16777256 -0.100903444 0.09361652

conv3.bias f4 [32]
00000000: 83f1 babd ffb2 0bbe ae0d afbe 7d9d 90be
00000010: db23 373c af05 28bf a65f 963d 7560 d6be
00000020: e213 20bb 917a 05be 44c3 c0bd 2645 abbe
00000030: 80dd 1ebe 57c3 22be 1d58 5cbe f424 97be
00000040: 6bac 83be cb00 0ebe 7f67 fcbd c434 6dbd
00000050: 1c05 40ba 8967 40be a8ed 52be a8f6 53be
00000060: d0eb 09be 1585 7cbe 2e2f 11be 5583 febd
00000070: a28d ebbe 4af2 04be aff1 b6bc fe2e 22be
-0.09128096 -0.136425 -0.34190124 -0.28245154 0.011177982 -0.6563367 0.07342462 -0.41870466
-0.0024425914 -0.13035037 -0.09412244 -0.33451194 -0.15514183 -0.15894829 -0.21517988 -0.2952038
-0.25717482 -0.1386749 -0.12324428 -0.05791165 -0.000732498 -0.18789496 -0.20598471 -0.2069956
-0.13468862 -0.24660142 -0.14178154 -0.12427393 -0.46006495 -0.12983051 -0.02233204 -0.15838239

bn3.weight f4 [32]
00000000: a799 4d3f c01e 3d3f 9f39 b63f 8826 7a3f
00000010: d6b8 7d3f 7aca 903f a802 7b3f 41c2 983f
00000020: d2b5 3d3f f152 303f c19a 3c3f 1967 5c3f
00000030: b07b 7b3f c4f7 3e3f d6c9 343f b8be 173f
00000040: 9fcf 4d3f 6557 463f a47a 593f fc0c 283f
00000050: d05d 503f 0db2 4a3f 735a a73f d07f ab3f
00000060: c1c7 313f 7ad7 643f a2d4 083f 7951 603f
00000070: 15b7 753f 2568 423f dbae 663f 9c45 2d3f
0.8031258 0.73875046 1.4236335 0.97715044 0.9911016 1.1311791 0.9805093 1.1934282
0.7410556 0.6887656 0.73673636 0.86094815 0.9823561 0.7459681 0.7062048 0.5927539
0.8039493 0.77477103 0.8495276 0.6564481 0.81393147 0.79177934 1.3074478 1.339838
0.69445425 0.8939129 0.5344945 0.8762432 0.95982486 0.7594016 0.9011056 0.6768434

bn3.bias f4 [32]
00000000: 43a1 963d 038b 0a3f 898f 743e 8dd2 e6be
00000010: 9f2c ab3e c3b3 933e be54 0b3f e256 f43e
00000020: 2e0d 61be 0f7e af3d 2216 8f3e 82d8 9bbd
00000030: c16b c93e 623e e93e e6ed 903e fcf7 a13e
00000040: 4a66 0f3e 1fae 03be 034b afbd 46a7 c33e
00000050: f406 e53e 5a55 313f 0aa2 653e 6817 b93e
00000060: cad6 9a3e 6cf8 eabd 01ed 813e ad4e ac3d
00000070: 8327 0d3d 334c ec3c 5765 1d3f 2f1e b7bb
0.07354977 0.54118365 0.2388288 -0.45082512 0.3343248 0.28848085 0.5442618 0.47722536
-0.21977684 0.08568966 0.27946573 -0.07609655 0.39340022 0.45555407 0.28306502 0.3163451
0.14003864 -0.1285939 -0.08559229 0.38213557 0.44731867 0.6927086 0.22425094 0.3615067
0.30241996 -0.11473164 0.25376132 0.08413444 0.03446151 0.028844928 0.6148276 -0.005588315

bn3.running_mean f4 [32]
00000000: d10e 893f e47e 3240 3d04 443f 2118 203f
00000010: 7587 9c3f fef0 8e3d 640d 9d3f d405 3d3f
00000020: 05a8 0940 947d ec3f d22d d53f e716 053f
00000030: 6fb3 283f 7442 f23f 93d4 0a3f 8da1 4540
00000040: b27b 183f 3975 6f3f 1d34 f13f 80c0 e63f
00000050: 5090 5940 555b 6a40 2470 863f d696 583f
00000060: 4554 9a3f 6455 a23e 6203 ed3f 2abc 873f
00000070: 7c97 b83d 0236 433f 870e 9c3f 4894 0640
1.0707647 2.7889948 0.7656897 0.6253682 1.2228838 0.06979559 1.2269711 0.7383702
2.15088 1.8475823 1.6654608 0.5198807 0.65898794 1.892653 0.5423061 3.0879853
0.59563744 0.9353824 1.8844029 1.8027496 3.3994331 3.6618245 1.0502973 0.8460516
1.2056967 0.31705773 1.8516657 1.0604298 0.09013268 0.76254284 1.2191933 2.1028004

bn3.running_var f4 [32]
00000000: 225d 2b40 fc57 fb41 4d0b 5540 7ad3 0940
00000010: b302 b240 5eca 533e e97e 6540 2c23 6b40
00000020: aca9 6141 e874 5941 cdc0 0841 575f a63f
00000030: 1094 ef3f c0e6 e740 2b7d 693f 2963 2c42
00000040: 8776 0b40 f08f 6140 3f8a 1f41 799c 4441
00000050: 67c6 eb41 b4aa 6142 42f6 5e40 bd7b 2140
00000060: 7244 c940 99c0 573f 0267 5e41 aa95 6f40
00000070: c006 e03d 37a5 2840 6c71 6240 2779 a841
2.6775594 31.417961 3.3288147 2.1535325 5.5628295 0.20682666 3.585871 3.6740217
14.103924 13.591042 8.5470705 1.2997845 1.871706 7.2469177 0.91206616 43.096836
2.1791093 3.5244102 9.9712515 12.288201 29.471876 56.416702 3.4837804 2.5231774
6.289605 0.84278256 13.900148 3.7435098 0.109387875 2.635084 3.5381727 21.059156

conv4.weight f4 [64, 32, 3, 3]
00000000: 0778 e33e a398 073f 6720 d43e 8aa9 5bbe
00000010: 0c24 f6bd 731f dabb e576 8f3d 9d5e d93e
00000020: a552 ad3d edfa e2bd 60bb a0be 4bcb 68be
00000030: b377 583d 43aa 983d cd5f cfbd 32d6 2e3e
00000040: 61ec 1abe 5780 bebc de7b ccbd 3980 6ebb
00000050: ad50 1a3c d17c efbd dde2 0a3e b1a7 28bc
00000060: 6224 d4bd f016 19be fa4d bdbc 7b97 303d
00000070: 75d2 e4bd 1ec1 eebd 5f89 e43e 444b 0abd
00000080: 815b 5d3e 93cf 65be 4f82 093d e665 b8bd
00000090: 6b3e 2c3b e1cb 773d 19ae d43d ca31 b03b
000000a0: a156 9dbb 4bfa 453e f1ee a4bd 83c2 04be
000000b0: f730 be3d a24a f23d bb8c 003e 0b87 763c
000000c0: 50af 303d 4e62 203d 2364 9b3d 6fe2 0bbe
000000d0: c9dc 96be d2e0 25be 39f7 d8be 0da0 d3be
000000e0: 246b b6be 262f 01bd 09a5 81be 3fe6 1bbc
000000f0: 4ce8 2c3e 31df 013e be54 2f3e ab5d 4ebe
00000100: 31d2 d3bd d143 31be ad8c aebd 3b14 6d3d
00000110: 1dc7 1ebe 3e13 1fbe 692a b53c 8b3d 523c
00000120: 56f6 87bd 67e2 ddbd e3e4 d3bd 75eb bd3d
00000130: 66b2 9f3d 22f8 c33d 3273 c73d ebeb 10be
00000140: f0c9 18bd b423 acbd 1b42 28be 0387 1abe
00000150: a19e e0bc a43d 9dbc e227 f63d 2763 383e
00000160: a3a3 33ba 9a16 4d3d 48e3 17be 0af7 17be
00000170: da8b 0ebe dd2c 8b3d effa 903c 4825 b93d
00000180: 3161 443e 712b 5c3c 8fa6 303e c909 8ebe
00000190: f50b 17be c090 50be 60e1 ec3d bfb1 6ebd
000001a0: 2ef4 61bd 5a79 cc3b 1672 1a3e 054d 69be
000001b0: cc9b 67be 078f a8be ef1f ebbd fe95 463d
000001c0: f591 d63d 64ff 283e 6f02 073e f261 8f3d
000001d0: 242c 323e f1dc 26be 688c 8ebd dba7 cbbd
000001e0: 803e 663d 9814 283e 0ca2 333e 4050 19bd
000001f0: adec 893e 279d fd3d 76e8 7d3d cdf0 17bd
00000200: f326 5fbe 221f fe3d 0d7e 673d 0fee 773e
00000210: 2320 293e 8df4 543c 1276 db3d f7ec b5bd
00000220: 2a0e d3bd 7996 98bc c613 5fbc 1b89 f6bd
00000230: 5b0b 2e3d 057b 513d d425 abbd 0001 ec3d
00000240: f177 20bd c213 1bbd 0e9a 163d 9ac4 343e
00000250: a7c5 713d 5f8a 5f3d e851 cabc d733 a0be
00000260: f85c c2bd 7e96 a5bd 3324 7dbe 1d00 84be
00000270: 1f7e 3d3e 1fc4 4abe e5fe f5bd fe98 22bd
00000280: 468f 31be 0ba6 80be 1e8d 8f3d 2a76 c2bd
00000290: 4b6b fcbc 14be 003e 25a1 313e b0de 4e3e
000002a0: 5e79 883e 9ce0 6abd ff56 f83d 7b84 07be
000002b0: 680c 44be e003 03be ead8 5c3c a90b 293e
000002c0: 0f45 22be ce61 1e3b 860b 39bb aab1 9d3d
000002d0: 8a13 4cbe df0a bebe 3be3 27be dcc9 4bbe
000002e0: 11db 04be eed5 11be 8acb 4b3d 8404 c9bc
000002f0: 1648 b9bc 23cf 1b3e f1a5 82be bce4 bebc
00000300: 318a 9b3e 9770 62bd bb65 523c b9aa 843d
00000310: da55 343d 2675 923d e9b7 93bd 9237 b4bd
00000320: abff 00bd 9e6e 81be 4609 90be fdd6 1cbe
00000330: a15c 72be 9efa 8bbe 011e 5abd b437 a1be
00000340: 1416 84be 3205 55be 1704 ffbd 10c7 e0bd
00000350: 6d8b 5bbd 5e5c e4be 2921 a1be bf16 cbbe
00000360: 9360 1dbe 1b1c 4fbe 2593 523d fef3 0d3d
00000370: b451 bc3d 63f2 5bbd a27b 823d 7af7 803d
00000380: fa04 103e b64b fdbd d37a c83c 3c6a 13be
00000390: 6e1b 97bd e66a 5dbc b317 36bc 318e b33a
000003a0: f831 1d3d 8ae7 3d3d 0949 d0bc 06dc a1bc
000003b0: 1b84 413b 850e 23be 2a7a ba3b 47df 4ebd
000003c0: 2b09 8dbd fab6 dc3c 5a2c 6b3e c184 fdbd
000003d0: 2802 b6bd 3717 42be cfd0 acbe d4a5 37be
000003e0: 54ac 60be 5993 68be 4c28 56be d6dc 76be
000003f0: 669d 903e 6cd1 9d3e 9399 623e 17b3 883d
0.4442751 0.5296728 0.4143097 -0.21451393 -0.12018594 -0.006656581 0.07005099 0.42454997
0.08463029 -0.110830165 -0.31392956 -0.227338 0.05284853 0.0745435 -0.101256944 0.17073897
-0.15129234 -0.023254557 -0.09984563 -0.0036392345 0.009418649 -0.11693729 0.13563104 -0.010293887
-0.10358502 -0.14950156 -0.023108471 0.043113213 -0.11172954 -0.11657928 0.44636056 -0.033763185
0.21616937 -0.22442465 0.033571538 -0.090038106 0.0026282321 0.06049717 0.10384769 0.005377029
-0.0048015867 0.1933376 -0.08053387 -0.12964825 0.09286683 0.11830641 0.12553684 0.015046845
0.04313594 0.03915625 0.07587459 -0.13660596 -0.2946532 -0.16199043 -0.42376116 -0.41333047
-0.35628617 -0.031539105 -0.25321224 -0.009515344 0.16885489 0.12682797 0.1712217 -0.20152919
-0.10342825 -0.17311026 -0.085229255 0.05788062 -0.15505643 -0.15534684 0.02211495 0.012832056
-0.06638782 -0.108341984 -0.10346391 0.092734255 0.07797699 0.09568812 0.09738769 -0.14152496
-0.037301958 -0.08405247 -0.16431467 -0.15090565 -0.02741939 -0.019194432 0.12019326 0.18006574
-0.0006852692 0.050070383 -0.14832795 -0.14840332 -0.13920537 0.06795666 0.01769778 0.09040314
0.191777 0.013438092 0.17251037 -0.2774184 -0.14750655 -0.20367718 0.11566424 -0.05827498
-0.05516451 0.006240052 0.15082583 -0.22783287 -0.22618026 -0.3292162 -0.114807 0.048482887
0.10477058 0.16503674 0.13184522 0.070011035 0.17399651 -0.1629522 -0.06960374 -0.09944125
0.05621195 0.16414106 0.17542285 -0.037430048 0.26938382 0.1238349 0.06198927 -0.03709488
-0.21792202 0.12408282 0.056516696 0.24211906 0.16516165 0.012997759 0.107158795 -0.08883088
-0.10305436 -0.018626438 -0.013615554 -0.120378695 0.0424913 0.05114271 -0.083568245 0.11523628
-0.039176885 -0.03786064 0.03676801 0.17653123 0.059026387 0.05457532 -0.024697259 -0.3128955
-0.09490389 -0.08085345 -0.2472084 -0.25781336 0.18505143 -0.19801377 -0.12011508 -0.039696686
-0.1733981 -0.2512668 0.07009338 -0.09495194 -0.03081288 0.12572509 0.17346628 0.20202136
0.26655096 -0.05734311 0.12125968 -0.13234131 -0.19145358 -0.12794447 0.013479451 0.16508354
-0.15846656 0.0024167183 -0.0028235628 0.07699902 -0.19929329 -0.3711767 -0.16395275 -0.19901222
-0.12974192 -0.14241764 0.049754657 -0.024538286 -0.022617381 0.15215735 -0.25517228 -0.023302428
0.3037887 -0.055283155 0.012841637 0.06477875 0.044027187 0.071512505 -0.072128125 -0.08799662
-0.031493824 -0.25279707 -0.28132075 -0.15316387 -0.23668148 -0.27339643 -0.05325127 -0.3148781
-0.25798094 -0.20802763 -0.12451952 -0.10975468 -0.053599764 -0.4460172 -0.31470612 -0.3966579
-0.15368871 -0.20225565 0.05140986 0.034656517 0.09195271 -0.053697955 0.06371237 0.062972024
0.14064398 -0.12367956 0.02447263 -0.14395994 -0.07378279 -0.013514256 -0.011114049 0.0013698993
0.038377732 0.04636339 -0.02542545 -0.019758236 0.0029528204 -0.15923508 0.0056908326 -0.050505903
-0.06886514 0.026942719 0.22966138 -0.123788364 -0.0888713 -0.18954168 -0.33753058 -0.17934352
-0.21940738 -0.22712459 -0.2091381 -0.2410768 0.28245085 0.3082384 0.22128896 0.06674784

conv4.bias f4 [64]
00000000: 7c4e a7be 4c8a ad3d c1b2 9dbe 045f 63be
00000010: 2468 c0bd 836e b2be fb01 2ebe 15d0 a9be
00000020: 9505 c2bd 3bf5 19bd 8313 a0be 2b1b 623e
00000030: d957 75be e08a 8bbd 0448 853d 3a15 42be
00000040: b71d 6338 ccae c6bd a02c 453e d119 50bd
00000050: 73af edbd 6b7b 46bd ec9b 93be 22e7 bcbd
00000060: bcc2 d2bd bef4 dcbd b402 00bc 5f61 1c3e
00000070: eb2c 69bd e212 bebd d686 c0bd c880 2abe
00000080: 040b 0ebe 8591 68be f782 97bd 5824 39bd
00000090: ef67 e0be 0f3f 81bd 1e3b fe3c c416 27bd
000000a0: b41f 733c 1b59 7dbb 37c2 50bd 69a5 c8bd
000000b0: 35b9 32bd 439f a7bd 092a 0c3e 0798 2cbd
000000c0: e2d1 a1be 139f 9abd 7937 63be e16c 8dbb
000000d0: 8240 463c 004c d8bd e38d 993d c5d7 d4bd
000000e0: 063c 7f3d 0cda 3f3b d1fb 20be d008 bbbd
000000f0: 7328 d5bb fd62 98be 4af0 c43d 2c43 adbd
-0.32677066 0.08473644 -0.3080044 -0.22204214 -0.09394863 -0.3484994 -0.16992943 -0.33166566
-0.09473721 -0.037587386 -0.31264886 0.22080676 -0.23959292 -0.06813598 0.065078765 -0.1895341
5.414869e-05 -0.097013086 0.19255304 -0.05080587 -0.1160573 -0.048457544 -0.28829896 -0.092237726
-0.10291049 -0.10788868 -0.0078131445 0.15271519 -0.056927603 -0.09280945 -0.09400718 -0.16650689
-0.1387139 -0.22711761 -0.073980264 -0.045200676 -0.43829295 -0.063108556 0.031034049 -0.040793195
0.014839102 -0.0038657847 -0.050966468 -0.097971745 -0.04363366 -0.08184674 0.1368791 -0.042137172
-0.3160544 -0.07549872 -0.2218913 -0.004315958 0.012100341 -0.10561371 0.07497766 -0.10392717
0.062313102 0.0029274253 -0.1572106 -0.0913254 -0.006505066 -0.29763022 0.09616144 -0.08460078

bn4.weight f4 [64]
00000000: aca3 ac3f 47a9 973f 2719 3340 cd02 cc3f
00000010: 339d ba3f b27f eb3f 514a 1a40 fbc5 3440
00000020: 5320 7b3f 515d ae3f 2214 2f40 5cdf 773f
00000030: 3353 3340 8a0b 6d3f afe2 a63f 1a34 1140
00000040: 566f 7d3f 1f2f 0240 8ff4 8c3f db1f 903f
00000050: a51f 713f 0ca4 803f 9653 4040 0892 773f
00000060: 5718 713f 8e2b ad3f bb35 b13f 53a5 743f
00000070: 2de1 833f cd01 0040 1b02 773f e95a a23f
00000080: 0f52 813f cdc5 6f3f 5e96 0540 804c 813f
00000090: 6031 ce3f 0224 7f3f f4cc a33f 099a 793f
000000a0: ebbd 913f dc8d 7c3f 7061 8b3f 6cc9 633f
000000b0: 0911 783f a44f 793f 7585 823f 2947 b03f
000000c0: a384 d43f 11a4 823f 3a27 473f 3766 803f
000000d0: 207d 803f 93b1 6e3f 7f2c 803f 5cf0 7e3f
000000e0: e6b9 a23f c201 843f 5595 693f 0a74 703f
000000f0: 56b8 a23f 8ae8 7f3f 3b95 7d3f dd87 7d3f
1.3487449 1.1848534 2.7984102 1.5938355 1.4579223 1.8398345 2.410786 2.8245838
0.980962 1.3622228 2.7356038 0.96825194 2.801953 0.9259573 1.3037928 2.268805
0.9899801 2.034126 1.1012133 1.1259722 0.9418891 1.0050063 3.0051017 0.967072
0.94177765 1.3528917 1.3844522 0.95564765 1.0303093 2.00011 0.9648759 1.2683994
1.0103167 0.93661195 2.0873027 1.0101471 1.6108818 0.9966432 1.2796922 0.97500664
1.1386083 0.9865396 1.088911 0.8897922 0.96900994 0.97387147 1.0196978 1.3771716
1.6602978 1.0206319 0.7779423 1.0031193 1.0038185 0.93239707 1.0013579 0.9958551
1.2712982 1.0313036 0.9124349 0.9392706 1.2712505 0.999642 0.9905583 0.99035436

bn4.bias f4 [64]
00000000: cec0 04bf db4b 513e a485 2f3e 2d84 f8be
00000010: 9767 493e 227e e5bd ec36 a5be 1f8b 2abe
00000020: 9b3d 78be b817 a23e da0a ecbd b160 973e
00000030: 8e68 ddbd 9f1d 62be 873d 163e b8e4 fa3e
00000040: 1282 933e 6a2e d23e 7fa6 62bd a0a1 b03e
00000050: 85e9 63be b529 debe 8ff6 88be f14b babe
00000060: c5e7 73be f84c 90be 4166 f93e ec9c 8a3e
00000070: 9e38 bbbe 1034 38be afad 74be 67aa f53d
00000080: c3e5 cfbe fb08 cb3d 95a2 263f 1205 163e
00000090: 0ada efbe 219e bbbe 754d 973e ecca cfbe
000000a0: 0b5a 733e fc38 b9bd 9901 923e 17af 66be
000000b0: e1f4 c2be 089f e4be b5fe 8d3e c876 973d
000000c0: 7016 e7be dfa9 d9be 9611 e33c 4b1a 06bf
000000d0: 3455 903e b468 5dbe 3049 243e b4c9 e8be
000000e0: f7ef 3d3e bfdb cabe e558 b0be 6659 44be
000000f0: a791 893e 7e70 c5bc 21eb 99bc 153a ac3e
-0.51856697 0.20439093 0.17140824 -0.48538342 0.19668423 -0.112056985 -0.32268465 -0.16654633
-0.2424225 0.3165872 -0.11525507 0.29565957 -0.10810958 -0.22081612 0.14671908 0.49002624
0.28810173 0.41051036 -0.055334564 0.3449831 -0.2225705 -0.43391195 -0.2675061 -0.36386064
-0.23818882 -0.28183722 0.48710826 0.27072847 -0.36566633 -0.1798861 -0.2389438 0.11995392
-0.40604982 0.09913822 0.6509183 0.14650372 -0.46846038 -0.3664408 0.29551283 -0.40584505
0.23764817 -0.09044072 0.28516844 -0.22527729 -0.38077453 -0.4465258 0.2773339 0.073957026
-0.45134306 -0.42512414 0.027718347 -0.5238387 0.28190005 -0.21621972 0.16043544 -0.45466387
0.1854857 -0.39620778 -0.3444282 -0.19174728 0.26868936 -0.024101492 -0.018788876 0.33638063

bn4.running_mean f4 [64]
00000000: 2473 553f d75b 9e3f c848 7e3d 936a 723e
00000010: 8466 623e 346a 213d 5914 f53d 5b7b a73d
00000020: b3e8 f93f 78c0 3a3f 5085 073e 1b7c e040
00000030: 1156 353e 799c 0f40 f313 a23f 1062 3f3d
00000040: cedb 6e40 88bb b13d 4159 5140 9fb3 5240
00000050: de2a f03f 3396 8b3f 6c8e 5d3d 0eb5 2340
00000060: 217f ec3f f19d ad3d 8d03 ea3f df4b b040
00000070: c371 1740 bfb6 563e 065d 0a40 ef54 1e3f
00000080: 380d c93f 52a7 be3f 5509 963e 81b5 2140
00000090: addd 003e 1b91 5e3f b3b4 923f 75b1 c43f
000000a0: 5a7a 6540 4162 5d3f b701 2a40 14f6 f63f
000000b0: af11 2e40 bd1d da3f 318e 8f40 f171 793f
000000c0: b251 503e 2b83 2d40 78fa 5b3f 0250 6740
000000d0: cec4 7840 1252 1040 b9ef 7740 875d 1040
000000e0: c620 e23f 3211 7d3f 2c25 cb3f 5a9f 2140
000000f0: 498c f13f b075 ba3d 045f 4440 82d6 0940
0.83378816 1.2371777 0.06208113 0.23673467 0.22109419 0.039407924 0.11966772 0.08177825
1.9524139 0.72949934 0.13234448 7.0151496 0.17708613 2.2439253 1.2662338 0.04672438
3.7321658 0.08678347 3.2710726 3.2922132 1.8763082 1.0905212 0.054090902 2.5579257
1.8476297 0.084773906 1.8282334 5.5092616 2.3663185 0.2096815 2.1619277 0.6184835
1.5707159 1.4894812 0.29303995 2.5267031 0.12584563 0.86940163 1.1461395 1.5366656
3.5855927 0.8647805 2.6563547 1.9293847 2.7198293 1.7040325 4.4861073 0.97439486
0.20343664 2.7111309 0.8592906 3.6142583 3.887012 2.2550092 3.8740065 2.2557085
1.7666252 0.9885436 1.5870719 2.525351 1.8870937 0.09104478 3.0682993 2.1537175

bn4.running_var f4 [64]
00000000: d92c 9640 e67b 6640 3a19 b13e d738 813f
00000010: 87e6 423f 3690 0e3e 11aa 193f aad3 d23e
00000020: aa71 4d41 5277 0040 1edb 523f 6938 1e42
00000030: e84a 833f 1616 c641 58b5 4a40 70b0 3a3e
00000040: 4591 2742 af6e aa3e 1642 bb41 a23a 0042
00000050: b651 8141 113f c540 5bdf 883e 6eca 9741
00000060: cdbe 9f41 1015 803e 102b 9640 a755 3b42
00000070: 9b0f 8841 4341 9b3f a8b5 9241 2ff9 2640
00000080: 62cf 4b41 3007 c340 f43f 8a3f 38ee 0242
00000090: 38a3 083f e650 8840 c399 a540 3c77 4c41
000000a0: 1d81 5441 8d98 7a40 d561 1c42 6b15 9b41
000000b0: 35e1 f341 5c15 2e41 e451 0f42 53cb 8640
000000c0: 5c32 593f 5c1d b841 d817 6d40 42d9 0b42
000000d0: 0e5b 4542 52cb ad41 aa1f ff41 556b 9541
000000e0: 7c82 da40 52c7 7640 e26e 6f41 e3f4 c341
000000f0: b4dd fa40 cd7f 3f3e 80ab 8241 b26a b341
4.6929746 3.6013122 0.3458956 1.0095471 0.76133007 0.139222 0.60025126 0.41177112
12.84025 2.0072827 0.82365596 39.555088 1.0257235 24.760784 3.1673183 0.18231368
41.891865 0.3328757 23.407269 32.05726 16.164898 6.1639485 0.26732907 18.973843
19.968164 0.2501607 4.6927567 46.833645 17.00762 1.2129291 18.3387 2.608959
12.738131 6.0946274 1.0800767 32.732635 0.5337405 4.2598753 5.1750197 12.77911
13.281522 3.915561 39.09554 19.385458 30.484964 10.880215 35.82997 4.21232
0.8484247 23.014336 3.7045803 34.962166 49.33892 21.724277 31.890461 18.677408
6.8284283 3.8559155 14.964571 24.494574 7.8395634 0.18701096 16.33374 22.427097

lin.weight f4 [3, 64]
00000000: fb77 09be 95df 613e 679c 60bf 522c 8a3d
00000010: 4882 df3e 7078 0bbf 99d0 52bf ca8b 98bf
00000020: 3f30 38be 891e 833e 6614 a8bf 8618 123e
00000030: 7ad1 abbf c905 a7bd ecba ec3e 66af efbe
00000040: 3a6a 6c3e b7f5 f4be 3fea 523e 6308 883e
00000050: f96e 07be ee38 cabd 3c71 84bf 2038 f8bd
00000060: f3c0 63bd 0904 713e d6f2 453e 2143 853d
00000070: ae16 57be 126c 37bf bdb0 17be 4cf0 b53e
00000080: 5ce2 0bbe a0fd c3bd 2b19 84bc d1d2 a63d
00000090: 5d78 75be 5cd6 14be d6a3 ec3e 39eb 0bbe
000000a0: 1236 433e cb88 633d 6990 913e 6f85 3f3c
000000b0: c80c 00be cae3 23be f56d 7f3d e17c d43e
000000c0: 263a 1ebe 2533 06be b2d1 a5bd 721a 45bd
000000d0: b579 0d3e a716 05be 6f73 3c3e f9b7 03be
000000e0: 4f0f 8e3e df0c 3bbc 2b82 a3bd 1922 1abe
000000f0: 7e5a 843e 36c1 e3bd d110 4d3d c1b5 183e
00000100: f3fe 0a3f ba4d 5cbe 1d34 3fbe ea12 2b3f
00000110: 9723 e6be 4bfe 143e e3b9 083f bc9c 8d3e
00000120: e59c 293e d8bf 17bf dfed 853e d9ff c8bd
00000130: 3e35 a53e 2e23 1f3e 4d8d b0be 7d63 34bf
00000140: 6fef 1dbe c309 15bf b53f 093e 4b4d b7be
00000150: fbf4 113e a790 993e a529 9f3e 87ca 6f3e
00000160: 8aa0 533e 96cb 493e 86f9 77bf 81a7 4cbe
00000170: a73d 983e 6354 b63e 4d41 663e 8f54 3ebe
00000180: 3c0a 793e 3258 1ebe 0a4d a6bf 1751 24be
00000190: 5d3c 3d3f 345e 853e 76be d2be 23f3 843e
000001a0: c3a2 9cbe de58 b13d 6a6d eebd 933e 4f3e
000001b0: 1e06 443e 51f1 633e daa4 82be 8d3b 3abe
000001c0: 178b 3a3f a224 953e 2cf5 d3bd dd95 963e
000001d0: 9a47 49be 5c60 ea3d 1857 f0bd a632 433e
000001e0: a30b acbe fb1d 643e 0482 333e 42ef 3e3e
000001f0: 1478 f0be 79de 20be 1cb0 0d3b 48d1 4fbe
00000200: 39f2 7cbe 540e f7bc f1e4 663f 9e0e bbbe
00000210: eb08 c6be 8361 d93e b21a e73e 856d 893f
00000220: 6032 8ebd e2e2 5ebd 39c2 8b3f 8a44 a73d
00000230: 312f 973f 44fb cabc 1be7 5fbe cffe 363f
00000240: 5a55 a63d b253 1a3f 559d 85be 5768 853d
00000250: c36a 44bd b685 1bbe a598 493f 256c 0abe
00000260: e6f8 4abb c69e 85be 0ae9 6a3e 4358 bbbc
00000270: 6991 35be 54e8 033f 0b54 1abd 354b 0cbe
00000280: 6a53 31be e699 213d 06a9 dd3e a685 10be
00000290: 15f1 71be fb3a 23be cb54 093d 070a 30be
000002a0: 6639 013e 43a0 eebd 40d8 af3d 6f8a 173d
000002b0: ff0f 1bbe 1728 5dbe 9e92 bcbd cf3b 51be
000002c0: dfb2 bfbe a016 35be 2b2a 94bd 90f1 2dbe
000002d0: 594a 643c 23cc 6cbd c893 c3bd 8353 2cbe
000002e0: 93d0 dbbd 2457 3ebe 8a2c b1bd 6bda 893b
000002f0: af4c a8bd 798d b13d e449 32be 4a97 af3d
-0.13424675 0.22057946 -0.8773865 0.06746735 0.43654084 -0.5448065 -0.82349545 -1.191766
-0.17987154 0.25609234 -1.3131225 0.14267167 -1.3423302 -0.081554 0.4623636 -0.46813506
0.23087397 -0.47843716 0.2059717 0.265689 -0.13225926 -0.0987414 -1.0347056 -0.1212008
-0.055603933 0.23536696 0.19330916 0.065069444 -0.21004745 -0.7164928 -0.14813514 0.35534894
-0.13660568 -0.095698595 -0.016125282 0.08145679 -0.23971696 -0.14534897 0.46218747 -0.13663949
0.19063595 0.055550378 0.2843049 0.011689528 -0.12504876 -0.16004863 0.062360723 0.41501525
-0.1545187 -0.13105448 -0.08096637 -0.048120923 0.13815959 -0.12996922 0.1840341 -0.12863149
0.27746055 -0.011416643 -0.07983812 -0.1505207 0.2585029 -0.111208364 0.050064865 0.14913084
0.5429527 -0.21514025 -0.18672223 0.66825736 -0.44949028 0.1455013 0.5340864 0.2765864
0.16563757 -0.59277105 0.26158044 -0.09814424 0.32267183 0.15540764 -0.34482804 -0.7046431
-0.15423368 -0.5821802 0.13403209 -0.35801157 0.14253609 0.29993173 0.3108646 0.23417102
0.2066671 0.19706568 -0.9686512 -0.19985773 0.29734537 0.35611257 0.22485848 -0.18586944
0.2432031 -0.15463331 -1.299226 -0.16046558 0.7392023 0.26048434 -0.41160935 0.2596675
-0.30592927 0.08659528 -0.11641963 0.20238714 0.19142959 0.22260024 -0.25516397 -0.1818678
0.72868484 0.2912951 -0.10349497 0.29411212 -0.1965622 0.1144416 -0.11735362 0.1906229
-0.33602628 0.22277062 0.17530066 0.18645957 -0.46966612 -0.15709867 0.0021619862 -0.20294678
-0.24701776 -0.0301582 0.90193087 -0.3653459 -0.3867868 0.42457208 0.45137554 1.0736548
-0.06943202 -0.05441559 1.0918647 0.0816737 1.1811277 -0.024778016 -0.21865503 0.7148256
0.08121748 0.6028396 -0.26096597 0.06514042 -0.04795338 -0.15187725 0.7874854 -0.13517816
-0.003097111 -0.26097697 0.2294046 -0.022869235 -0.17731251 0.5152638 -0.037677806 -0.13700564
-0.17316976 0.03945341 0.43293017 -0.14113483 -0.23627122 -0.15940468 0.03352813 -0.17191325
0.12619552 -0.11651661 0.08586168 0.036997255 -0.15142821 -0.21597324 -0.092076525 -0.20432971
-0.37441155 -0.17684412 -0.072346054 -0.1698668 0.0139337415 -0.057811867 -0.095496714 -0.16828732
-0.10733142 -0.18587929 -0.08651073 0.0042069457 -0.08217751 0.08669562 -0.17411 0.08573778

lin.bias f4 [3]
00000000: a781 223e ac73 92be 8a4b 5b3e
0.15869771 -0.28603876 0.21415535

conv.0.weight f4 [8, 2, 5, 5]
00000000: 8887 933e d978 d83e eb72 413e d4c2 b13e
00000010: 6a05 963c 56b9 73be 4142 b73d 1cf0 723e
00000020: 8ed8 833e f565 9cbd 96d8 9d3e deb0 073e
00000030: b695 d93e cd1a 373e 0fa0 1fbd bc5d f1be
00000040: fb91 91be 3fb4 b0be 3c04 8dbe 8164 86bd
00000050: 9239 4cbe e2dd a3bd 1ec0 5cbe cd80 13be
00000060: 8f13 80be ed4b e33d 0083 0d3e 3d67 9b3e
00000070: eea0 54bc a08a a23e 673a b43e 6310 15be
00000080: 89b8 de3d c282 2b3d 0a6f 92bb cfb0 d13d
00000090: 16b6 853d 6357 0b3e b388 273d d82f 323e
000000a0: 3d45 05be 1715 d2be 6d10 3bbe 2234 fdbd
000000b0: 06a4 35bd fcd8 c2bc e929 3abe b336 c4bd
000000c0: 1db6 41be 37b1 ca3d b6d7 7d3d 1b32 b23d
000000d0: 5015 e9bd f569 003e ca3b c1bd 6bb9 18bf
000000e0: ed19 77be 4446 b53e 5368 87bd c62d 393d
000000f0: cd5c ecbe 31e1 dfbe c780 23be f4f0 afbc
00000100: 1582 87bd 628a 89be 6d8a 17be d185 dcbd
00000110: 6b68 41be 6aaa 043e d796 57bd 2bd2 a83e
00000120: 6f51 8d3e 36ca b03e 84ab 05bf 3bdc 4a3d
00000130: 1d2a e13e 9b40 ec3c 93cc 6c3e 53df 593d
00000140: 815c a0be c8e7 3d3b 0fd8 2bbe bc04 fabe
00000150: 0a61 e5be 50f5 94be 820d b6bd 8d80 0d3d
00000160: be87 00be f8be 23be 442f 9dbe 1d8c 433d
00000170: d403 5ebe 3f6b f9bd 4be6 78bd 51c5 2d3e
00000180: 9d87 033e a168 a13e baf2 4b3d 0623 adbe
00000190: 98a3 d83d 65b7 fa3e ae76 c23d 6b82 dc3d
000001a0: 9b60 5dbe 9c41 d33c be98 6dbe e75f 293d
000001b0: be4d 363e 3bae 64be 60d3 d23e 0494 053f
000001c0: e876 33be 8168 b53e 9e45 f03d c865 413e
000001d0: 5c9e 903d 157a c43e 571c 9abe 41e7 883e
000001e0: a21f 44be 9acf 2a3d 02a2 3abe a475 6aba
000001f0: 234d 913e aa51 a73e c09a 953e 9fc0 e43e
00000200: 3866 65bd 7d88 e93c c846 cdbe 479c 3abd
00000210: af24 d2bd 2ea4 71be 8718 8dbe 9e74 a43e
00000220: ee3b 133e cbbc d63e f0a9 ae3e 926f 2dbe
00000230: b60c 17be 9197 4ebd f73c e23d 3441 f53c
00000240: 2716 a5be 7ca6 22bd f854 af3d 4dd1 72be
00000250: 7ad9 003e 8df0 793e e611 ec3d 62dd 8ebe
00000260: be12 b9bd 8427 91be dcab 203e 5e6b 523e
00000270: 08c9 4ebe a1f0 483e 149e 5c3e e0f1 973c
00000280: 1758 28bf 1e6f 01bf eaf3 963d b369 aa3e
00000290: e4b9 f83d b5e6 89be 6236 75be 22e4 6cbe
000002a0: 7b45 163f 4efc fa3e 9855 babe 9210 efbc
000002b0: 921c 12be 4417 5d3e a8be 3b3e ca0b 50be
000002c0: 85dc a5bd 7107 023d dc3b 123e 9cf1 123d
000002d0: 6933 d3be ca7b 9cbe 08ef 04bf 9a3f 3f3d
000002e0: c292 523e af57 27be c25c c3bc 21ed 1a3e
000002f0: acc8 5f3d e8d5 e83e 32a3 a2be 653d 3a3e
00000300: e368 243e 22c2 003e 32a8 c23e bf4f a3be
00000310: 3b8e a7be 3b8f f63d cccb ebbd a449 d83e
00000320: d084 82be aee1 17be 31d5 bebe 8de1 6abe
00000330: cb09 ed3d 0fb3 51bb eded b83d 8c8a ccbe
00000340: 23f7 6fbe 05eb 693e 7a93 84be 564f 70bd
00000350: 4660 89be 0ebd 9bbd 89d0 e1be 06f5 c3be
00000360: 7cae 32be d279 c83d 908f 263e 7919 bdbd
00000370: 51e0 3bbd e135 b63c 4cce d4bd 829c da3e
00000380: 9baa af3e a006 f53c 96d3 453d 94d8 0dbf
00000390: ed2f 433e e9cf b23d 22c5 ab3e ed14 0dbe
000003a0: 315d 18bd 4f77 113e 204c 82bd 37b5 223e
000003b0: 54a2 05bd e119 c6be f384 f53d bf74 023e
000003c0: 4e64 05bd 54df 17be e55d 5abd 9c27 1bbe
000003d0: 740f cfbe e858 29bc 0e7e ad3d 32f6 ebbd
000003e0: 422e 6d3d 2654 9e3d adca 0b3f f1c8 303e
000003f0: 1712 1fbf 27b3 8dbe 05d6 1a3d 8c65 f8bd
0.2881434 0.422797 0.18891494 0.34718955 0.018313129 -0.23801169 0.08948184 0.23724407
0.25751156 -0.07636634 0.30829304 0.13251063 0.42497033 0.17881317 -0.038971003 -0.47141826
-0.28431687 -0.34512517 -0.27542293 -0.06562138 -0.19943836 -0.08001305 -0.21557662 -0.14404602
-0.25014922 0.11098466 0.13819504 0.30352202 -0.012977822 0.31746387 0.35200807 -0.14557032
0.10875041 0.041872747 -0.0044688033 0.10238802 0.06528871 0.13607554 0.04090185 0.17401063
-0.13014694 -0.41031715 -0.18267985 -0.12363459 -0.044345878 -0.023785107 -0.1818005 -0.095807455
-0.18917127 0.09897082 0.061973296 0.08700963 -0.11381018 0.1254042 -0.09435232 -0.59657925
-0.24130984 0.3540517 -0.06611695 0.04520967 -0.4616455 -0.43726495 -0.15967093 -0.0214772
-0.06616608 -0.2686339 -0.14798899 -0.10767711 -0.18887489 0.12955633 -0.052634086 0.32972845
0.2760119 0.34529275 -0.5221484 0.049526434 0.43977442 0.0288394 0.23124914 0.053191494
-0.31320575 0.0028977264 -0.16781639 -0.48831737 -0.44800597 -0.2909341 -0.08889295 0.034546424
-0.12551782 -0.15990818 -0.30700123 0.047741044 -0.21681148 -0.12178659 -0.0607665 0.16969801
0.12844701 0.31525138 0.04979203 -0.33815783 0.10578078 0.48968044 0.094952926 0.10767063
-0.21618883 0.02578812 -0.23202798 0.041351225 0.17803094 -0.22332089 0.4117689 0.5217898
-0.17525828 0.35431293 0.117320284 0.18886483 0.07061455 0.3837439 -0.30099747 0.26738933
-0.19152692 0.04170189 -0.18225864 -0.00089439214 0.28379163 0.32679492 0.29219627 0.44678208
-0.056005687 0.028507465 -0.40093064 -0.045559194 -0.10260903 -0.23597786 -0.27557775 0.32120222
0.1437833 0.41940913 0.34114027 -0.16937092 -0.14750943 -0.050437514 0.11046784 0.029938318
-0.32243463 -0.039709553 0.085611284 -0.23712654 0.1258296 0.24408169 0.11526851 -0.27903277
-0.09036778 -0.2835046 0.15690559 0.2054877 -0.20193875 0.19623043 0.21544677 0.018547952
-0.65759414 -0.50560176 0.07370742 0.33283767 0.12144831 -0.26933828 -0.23946527 -0.23133901
0.5869977 0.49020618 -0.36393428 -0.029182706 -0.14268711 0.21590906 0.18334448 -0.20316997
-0.080987014 0.031745378 0.14280647 0.035874948 -0.4125016 -0.30563194 -0.5192723 0.046691515
0.20563796 -0.16342042 -0.023847941 0.1512952 0.054634735 0.45475698 -0.31765133 0.18187483
0.16055636 0.12574056 0.38018948 -0.3189678 -0.327257 0.12039038 -0.115134805 0.42243683
-0.25491953 -0.14832184 -0.37272027 -0.22937603 0.115741335 -0.0031997596 0.09029756 -0.39949453
-0.23434119 0.22843559 -0.25893766 -0.05866941 -0.26831263 -0.07604419 -0.44104412 -0.38272876
-0.17449373 0.097888604 0.16265702 -0.09233374 -0.04586822 0.022242488 -0.103909105 0.4269753
0.3430985 0.029910386 0.048297487 -0.55408597 0.19061251 0.08731062 0.33548838 -0.13777514
-0.03719825 0.14205669 -0.06362176 0.1588944 -0.03262551 -0.3869162 0.11988249 0.12739848
-0.03256636 -0.14831287 -0.0533122 -0.15151829 -0.40441477 -0.010336138 0.08471309 -0.115215674
0.057905443 0.07730894 0.54606134 0.17264153 -0.6213698 -0.27675745 0.03780176 -0.121287435

conv.0.bias f4 [8]
00000000: 4469 033d 9589 0e3e b8fe e0bd 5076 0bbf
00000010: 3f39 ecbe a9ba b73c 4d14 d0be fac7 dd3c
0.03208281 0.13919671 -0.10986084 -0.54477406 -0.46137425 0.022427874 -0.40640488 0.027072895

conv.2.weight f4 [8]
00000000: d6aa 913f f442 6f3f b89e 543f fb8b 923f
00000010: a820 333f 632e 623f 3151 833f 880c 763f
1.138026 0.9346154 0.83054686 1.1448969 0.69971704 0.8835203 1.0259153 0.9611287
