data/models/V8_model.pth (torch, 115998 bytes, 50 tensors)

conv1.weight f4 [8, 2, 5, 5]
000000 a3 15 7e 3e 5f 3d 03 bd d0 c6 27 3e 0d 4f 35 3d
       0.24812941 -0.03204095 0.16384435 0.04426484
000010 2e 48 e6 3d 40 a3 bd be ff 57 8d 3e ad 3e 21 3d
       0.11244236 -0.37038612 0.27606198 0.039366413
000020 77 60 b3 3d b3 7f 2d bd 4d ca 13 3f 6d ff 80 3c
       0.087586336 -0.04235811 0.5773056 0.015746797
000030 ab 2c a7 be 8d b8 4d be e5 59 82 be 94 56 42 3e
       -0.32651266 -0.20089932 -0.2545921 0.1897834
000040 32 cd 90 3d ce 1e a0 3d a4 cd 54 be 72 89 1a be
       0.07070388 0.078183755 -0.2078157 -0.15091494
000050 20 8a 99 be 20 45 35 3e 27 a5 25 be 74 56 f4 bd
       -0.29988194 0.1770215 -0.16176282 -0.11930552
000060 9f fb d3 3a e0 3c 0d be f9 9d 75 be 46 6f bd bd
       0.0016173011 -0.13792753 -0.23986043 -0.09249739
000070 ce fb 90 bc ea 75 ee bd 4e 97 7d 3e e3 33 a9 3e
       -0.017698195 -0.11643584 0.2476475 0.330474
000080 66 0c 1c 3f a0 50 e6 3d 95 78 6b 3e f6 f0 89 3d
       0.6095642 0.11245847 0.22995217 0.06735413
000090 4e 77 61 3c 73 19 df 3e 3c 81 af 3e fb 78 29 3e
       0.013761355 0.43574104 0.34278286 0.16550057
0000a0 6a da 44 be cd 22 32 3e 68 85 12 3e 71 b6 1a 3d
       -0.19223943 0.17396088 0.14308703 0.037771646
0000b0 05 04 74 3c 8c d7 80 bd 58 6c 69 3e 90 30 ca 3d
       0.014893536 -0.06291112 0.22795236 0.09872544
0000c0 ea 91 6f 3e 40 9d 30 3e 72 9e 25 3e c0 6b fc 3d
       0.23395506 0.17247486 0.16173723 0.12325239
0000d0 a6 2b b9 3d 0d a9 7e 3e ae 7f 57 bd 7c 63 ac be
       0.090415284 0.24869175 -0.052612 -0.3366965
0000e0 ad 26 a1 be 87 e6 85 3e ab e6 88 be 83 ef 82 3e
       -0.3147482 0.2615244 -0.26738486 0.25573358
0000f0 66 0b 48 3e aa 41 39 3e fa 28 a6 be f7 ca 47 be
       0.19535598 0.18091455 -0.32453138 -0.19511019
000100 4c aa 0b 3e 34 24 27 be 24 64 85 bd 48 93 24 be
       0.13639182 -0.16322404 -0.06513241 -0.16071808
000110 6f 72 38 3c fe 7c 1f 3e f9 03 fa 3d f8 5c 34 be
       0.011257752 0.15575024 0.12207789 -0.1761359
000120 5c 4c 78 3e cf b3 dd 3d 99 b4 43 3d a3 31 0b 3e
       0.24247879 0.108253114 0.047779653 0.13593154
000130 39 86 01 be 59 f9 1a 3d 05 e8 f0 3c 24 d5 9d 3d
       -0.12648858 0.037835453 0.02940751 0.07706669
000140 82 11 7d be 0d 65 db 3d fa 14 a5 3d b6 8d 06 be
       -0.2471371 0.10712633 0.080606416 -0.13139996
000150 9b f9 5c bd 53 b5 d9 bc 9b 01 6d 3e 53 e7 3f 3e
       -0.05394898 -0.02657572 0.23145144 0.18740587
000160 4c 18 71 be 97 b0 6e be 0e b9 0b bd 8d f3 00 be
       -0.23544425 -0.23309551 -0.03411203 -0.12592907
000170 c1 95 84 be 21 e8 f1 3e 8e d8 96 be ea 8c bd be
       -0.25895503 0.47247413 -0.29462093 -0.3702157
000180 9a e6 7d 3e 23 0e 92 be 00 31 85 bd c2 1c c0 3c
       0.24794999 -0.2852641 -0.06503487 0.023451213
000190 da f5 39 be e3 c5 b8 3e e4 08 db 3c 9d f2 e2 bd
       -0.18160191 0.36088476 0.026737638 -0.11081431
0001a0 0e 4d 95 be 6b bf 42 3d e8 ce 04 bd 5a 37 86 3e
       -0.2916035 0.04754583 -0.032423884 0.26214105
0001b0 58 c8 39 bd 80 58 16 be 91 dc eb 3d ed 0e 61 be
       -0.04535708 -0.14682198 0.11516679 -0.2197835
0001c0 b1 11 d8 bd 7a ae dc bd 21 f1 d8 be f8 b1 58 bd
       -0.10550249 -0.10775466 -0.42371467 -0.0529041
0001d0 67 8c 6b 3e 8d bd 23 bd 13 27 82 be c6 e5 71 bd
       0.23002778 -0.03997569 -0.25420436 -0.05905702
0001e0 66 cd ab 3d 74 0f 83 be af b2 e9 3d 6b 1a 54 3d
       0.08388786 -0.25597727 0.11411034 0.051783007
0001f0 64 6b a6 3e d6 08 68 be 03 8c 86 be 08 c6 07 be
       0.32503808 -0.2265962 -0.26278695 -0.13259137
000200 77 63 7a 3e cc dd 84 be 03 c5 a7 3e fd 70 38 bd
       0.24452005 -0.25950468 0.32767496 -0.04502963
000210 97 e6 a8 bd 1d 73 8e 3e 53 3f 94 bd 27 ed 50 3d
       -0.082471065 0.278222 -0.07238641 0.051007416
000220 03 59 17 3e dd 93 b9 3e fa 05 28 3e dc e4 1b 3e
       0.14780049 0.36245623 0.1640853 0.15224022
000230 36 65 03 3f b8 c1 8c bd 04 47 0c be f7 84 bf bd
       0.5132631 -0.068728864 -0.13698965 -0.09351533
000240 9d fa 18 3e 58 04 0f 3f c6 5c 78 3b 8a 70 a9 3e
       0.14939351 0.55866003 0.0037897094 0.33093673
000250 3e 6c 4e be b6 83 0b 3f da e8 32 3e bb 72 18 3e
       -0.20158479 0.5449785 0.17471638 0.14887516
000260 7b 7c 4a be e1 03 89 be c4 b4 74 3d f1 6a 03 3e
       -0.19774048 -0.26760772 0.059742704 0.12833764
000270 47 2d 79 3e 5b f3 5c 3d d2 f4 0d be df 16 2c be
       0.24333678 0.05394302 -0.13862923 -0.168056
000280 6e 33 a7 3d e3 a8 fb bd 98 00 cb 3d 5b 3e 6c 3e
       0.08164106 -0.12288072 0.099122226 0.23070662
000290 67 8c b7 bc 34 bf 73 3e e5 58 18 3e 25 94 40 3d
       -0.022405816 0.23803407 0.1487766 0.04701628
0002a0 db ac 0b 3e af 44 37 3e 99 ef 74 be 33 60 73 be
       0.13640158 0.17897294 -0.23919524 -0.23767166
0002b0 f1 56 4c bd 63 54 57 bd 12 51 b4 3d f7 79 8b bd
       -0.0498876 -0.05257071 0.088045254 -0.06810372
0002c0 00 11 02 3e 82 12 b4 bc 33 2e b8 3c 50 21 02 3e
       0.12701797 -0.021981481 0.022482967 0.1270802
0002d0 a3 3c 31 be c2 1e 30 3e 8b 5c a5 3d e2 f1 c7 3e
       -0.17308287 0.17199233 0.08074292 0.3905173
0002e0 ec 67 c2 3d 6d cb 96 3e 17 65 d6 3e 67 b8 a5 bd
       0.09492478 0.29452077 0.41874 -0.080918126
0002f0 79 e0 fc 3d a1 75 0d 3d 77 56 f7 bd 39 64 83 3e
       0.12347502 0.034536008 -0.12077039 0.256624
000300 4d 4e 9e bd 55 d5 8f be b7 1e 63 be dd 63 00 3e
       -0.077297784 -0.28092447 -0.22179686 0.12538095
000310 69 c3 0f 3d 5d fd 6a bd 8b 32 34 3e 8f b8 08 3e
       0.035098467 -0.057370532 0.17597406 0.13351654
000320 de 38 04 3e df ae ca bd 76 ca 49 3d 9e 4f 46 3d
       0.12912318 -0.09896635 0.049265347 0.048415773
000330 fb 25 a6 bd 9b a3 65 3e 4a dc b0 be 02 9a 16 3d
       -0.08112713 0.22425692 -0.34543067 0.036767967
000340 6b aa 82 be ee 6b 59 be 78 cf 27 3e 40 6f e6 bc
       -0.25520644 -0.21232578 0.16387737 -0.02812922
000350 70 16 77 be 07 08 00 be 2c 24 67 be 0e 6f 13 3e
       -0.24129653 -0.12503062 -0.22572392 0.14397833
000360 af 30 aa 3e a8 e7 80 be b4 1e 00 3d 00 22 d0 be
       0.33240268 -0.2517674 0.03127928 -0.4065094
000370 bd 14 9e be 82 58 51 3c fb b3 0e 3f 0e e3 27 3e
       -0.30875197 0.01277745 0.5574338 0.16395208
000380 b5 8b d0 3e 61 9c 11 3e 15 d2 a0 3c 84 40 d7 be
       0.40731588 0.1421981 0.019631425 -0.4204141
000390 32 f0 37 be 52 e7 e0 3e 86 1e 03 be 9b 6d 10 be
       -0.17962721 0.43926483 -0.12804613 -0.14104311
0003a0 e4 6e d6 3d 3c ad ba bd c7 4e 1a be e4 c6 65 be
       0.104703695 -0.09115073 -0.15069114 -0.22439152
0003b0 e1 0f b0 3e 6b 1b b5 bd fe 13 9d 3e 2a 86 94 be
       0.34387115 -0.0884312 0.30679315 -0.2900861
0003c0 a6 6b cc 3e 3c 7e e7 bd 6c 3b 65 bd 18 93 ae 3d
       0.3992588 -0.11303374 -0.055964872 0.0852415
0003d0 bd eb f2 bd 0d f3 ba 3d b6 8b a1 bd 00 f7 98 bc
       -0.1186137 0.091283895 -0.07887976 -0.018672466
0003e0 5c 06 72 be 5f 69 18 3e 38 00 c4 bd c5 0d 33 be
       -0.23635238 0.14883946 -0.09570354 -0.17485721
0003f0 ac 15 0f 3d 58 a8 dc 3d ee 80 0a be 10 f4 17 be
       0.034932777 0.107742965 -0.13525745 -0.14839196

conv1.bias f4 [8]
000000 0f b5 ba 3a 48 db b1 bc 83 ab 21 3d 92 b3 98 3c
       0.0014244633 -0.021711007 0.039470207 0.018640313
000010 ee a2 28 bd 61 de 8e 3c 6a c8 dd 3c 04 ee 97 bb
       -0.041171007 0.017440023 0.027073104 -0.004636528

bn1.weight f4 [8]
000000 fa 94 79 3f 89 c4 7f 3f c3 42 7a 3f e0 2d 7e 3f
       0.97492945 0.99909264 0.9775812 0.9928875
000010 de 4d 80 3f 7b 5c 85 3f 6a 71 7c 3f e1 43 7e 3f
       1.0023763 1.0418848 0.98610556 0.99322325

bn1.bias f4 [8]
000000 d0 73 83 3d d1 e8 3b bd 88 3f 74 bc b9 86 a3 bc
       0.06418574 -0.045876328 -0.014907725 -0.019961702
000010 03 e2 6e bd a3 87 5f bc 4b 96 a1 3d fb 8f 30 3c
       -0.05832101 -0.013643178 0.07889994 0.010776515

bn1.running_mean f4 [8]
000000 f8 82 75 3f e9 50 61 3e 84 47 11 3f 69 37 41 3f
       0.9590297 0.22003521 0.5674975 0.75475174
000010 27 d1 7a 3e a4 7b 3c 3f 88 25 12 3f 17 5f 21 3e
       0.24493848 0.7362616 0.5708852 0.1575893

bn1.running_var f4 [8]
000000 42 09 d5 3f 70 f1 16 3e 22 60 24 3f ad aa 7e 3f
       1.664345 0.14740539 0.6420919 0.9947918
000010 a9 44 3b 3e 8c 5a e4 3f 87 09 12 3f 35 f4 da 3d
       0.1828791 1.7840133 0.5704579 0.1069111

conv2.weight f4 [16, 8, 3, 3]
000000 39 f1 d4 3d ba 54 64 3d 1d 9c 7a bc 18 16 08 be
       0.10397572 0.055744864 -0.015296009 -0.13289678
000010 01 1e a5 3d 26 99 0a be ec ea 0f be 64 30 4b be
       0.080623634 -0.13534984 -0.1405446 -0.19842678
000020 13 a8 6c 3e 08 81 06 be 57 72 10 be f7 ad a2 bd
       0.2311099 -0.13135159 -0.14106117 -0.079433374
000030 be dc 41 bd f1 06 8f be 3f 72 39 be f1 f7 85 bd
       -0.047329657 -0.27934983 -0.18109988 -0.06541432
000040 f5 9a 83 be c0 3d 37 3e bf a8 1f 3e 4f f0 12 bc
       -0.2570416 0.1789465 0.15591715 -0.008968427
000050 56 8d 01 3e 10 05 7e 3d 26 1d 0b bd bf 8f cb bd
       0.12651572 0.062016547 -0.033963345 -0.09939527
000060 b0 b6 38 bd af a7 13 3e 8a 96 09 3c d5 43 79 bd
       -0.0450961 0.14419435 0.008397708 -0.060855705
000070 dd 70 8a 3e 2c 70 24 be 55 2b 37 3e 2c 04 ec 3d
       0.27039233 -0.16058415 0.17887624 0.11524233
000080 3d 99 cf be 07 3f 8d 3e 1d 16 9f be a7 99 58 3e
       -0.405466 0.2758715 -0.3107156 0.21152364
000090 82 f3 2e 3e c4 ca 05 3e e3 82 3d 3e 68 42 04 3e
       0.17085078 0.1306563 0.1850696 0.12915957
0000a0 2d d3 01 be 0a 11 09 be 1d 73 5c 3e bf 49 b6 3d
       -0.12678213 -0.13385406 0.21528287 0.08900785
0000b0 8a 73 3a be 39 cd e6 bc 4e 8b 03 be f4 c9 b0 3d
       -0.18208137 -0.02817403 -0.1284611 0.086322695
0000c0 2b 14 96 bc 0d 2f 0c 3e c5 84 b6 3e 5f 5f f9 bd
       -0.018320164 0.13689823 0.3564817 -0.12176394
0000d0 51 e2 2c 3e 82 c1 15 3e 47 d8 4f 3e 64 68 67 be
       0.16883208 0.14624599 0.20297347 -0.22598416
0000e0 92 11 85 bd 26 11 33 3d 05 d6 b4 be 39 a1 e7 3d
       -0.06497492 0.043717526 -0.35319534 0.11310048
0000f0 a0 d6 d0 bc 2e c7 28 be 95 b2 0c be de a6 ce bd
       -0.025492966 -0.16482231 -0.13739999 -0.10090421
000100 35 bc 57 3e fc e6 36 bd 26 24 c1 bd 83 ad 0f be
       0.21067889 -0.044653878 -0.09430723 -0.14031033
000110 0f 8c 60 be c4 2f 01 3e bf f9 1a be 00 26 54 be
       -0.21928428 0.12615877 -0.15134333 -0.20717621
000120 11 ba 68 3e 7a cf b4 bd 0f 5b ff bd 73 4f 28 bc
       0.22727229 -0.088286355 -0.1246854 -0.010272848
000130 d5 d0 58 be 7f a6 c6 bd c2 f5 79 bd 39 50 d2 3d
       -0.21173413 -0.09699725 -0.06102539 0.102692075
000140 b0 3a 08 3e ef b4 31 bd 6e db e0 bd df 28 22 3c
       0.13303638 -0.043385442 -0.10979353 0.00989744
000150 d9 2e 06 3e c5 9c 03 be 0b ef a8 3d f6 57 ac 3e
       0.13103808 -0.12852772 0.08248719 0.3366086
000160 d0 08 1a be 34 f2 a7 3e a6 f7 f6 bd 12 39 fd 3c
       -0.15042424 0.32801974 -0.12058954 0.030911002
000170 cb 1a 5b 3d b7 a0 81 3d 94 5d 02 be ad e6 07 3e
       0.05349235 0.06329482 -0.1273101 0.1327159
000180 e7 e6 8c bc 62 a4 85 3d 3d 9c 33 be ca 1c ee bc
       -0.017199947 0.06525494 -0.17540069 -0.029066462
000190 7f c2 08 be bf c6 94 3e 6c 6b 8c bd f1 12 3d 3e
       -0.13355444 0.2905788 -0.068564266 0.18464257
0001a0 39 ac fa 3d d1 f2 3e be 04 10 8f 3e f3 ef 15 3e
       0.1223988 -0.18647315 0.27941906 0.14642315
0001b0 69 4b 97 be db 47 28 3d 6c 95 76 be 12 e9 94 bd
       -0.2954972 0.04108415 -0.24080437 -0.07271017
0001c0 bf 35 ee bc e0 c6 b4 3c 36 a2 1f be d0 32 94 bd
       -0.029078363 0.022067487 -0.15589222 -0.07236254
0001d0 89 2e 8d 3e 67 8b da 3d 8b a0 17 be 89 12 4b 3d
       0.27574566 0.1067112 -0.14807336 0.049578223
0001e0 0f f1 36 be 35 ae 88 be 8b 4c 88 be fb 2a f1 bd
       -0.17865394 -0.2669541 -0.26620898 -0.11775776
0001f0 be 8f 17 3e 6f bf b4 bd 41 63 5f bd a4 1e 39 3e
       0.14800927 -0.088255756 -0.054538015 0.18078095
000200 e2 0e ab bd bc 26 38 3c 37 ce f6 bd 07 0f db 3b
       -0.08352448 0.011239704 -0.12051051 0.006685141
000210 27 9a 2b bd e4 14 42 3e 98 a1 44 3e 61 4a 67 3e
       -0.041895058 0.18953282 0.19202268 0.22586967
000220 55 12 9c 3e 9d 83 0b bf 77 0c 8c 3c dd 56 09 3e
       0.30482736 -0.544977 0.017095787 0.13412042
000230 fe e5 6a 3d e9 6c 81 be be 51 6f 3d 55 a9 81 be
       0.057348244 -0.25278404 0.058427565 -0.25324503
000240 b2 66 7d be ce 98 2d be dd fa fa bd 1b 1a f0 bd
       -0.24746206 -0.16952822 -0.122548796 -0.11723729
000250 05 d0 79 be 26 13 59 3e 18 74 c5 3c fc 52 c4 bd
       -0.2439576 0.21198711 0.02410321 -0.095861405
000260 2b 74 be bd b0 3e cd bd 82 9d 88 3e ea d9 9b 3e
       -0.09299501 -0.10021722 0.2668267 0.30439693
000270 29 0b d9 3a 53 8c 7c bd f5 8f 7b 3e b6 60 f9 3d
       0.0016559112 -0.06165726 0.24566634 0.12176649
000280 f5 ca 24 be c3 f4 c6 3e ff 0a 01 be fc 51 90 bd
       -0.16093047 0.38858613 -0.12601851 -0.07046887
000290 c6 33 f7 3d b3 8e be bb 28 24 e3 3d 4d 1c 3b 3c
       0.12070422 -0.005815351 0.11090881 0.011420322
0002a0 ab 44 41 3e e5 d8 c2 bd 3a a5 32 3d a8 66 a3 3e
       0.18873851 -0.095140256 0.043614604 0.31914258
0002b0 c6 bd ea 3d 5e 81 c1 3d 91 bd 4b be 70 59 17 bd
       0.11461978 0.09448503 -0.19896533 -0.03695053
0002c0 46 18 06 be d7 43 c0 3d 1a 5f af 3d 5e b4 da bc
       -0.13095197 0.093879394 0.08563061 -0.026697334
0002d0 a5 b3 82 be c3 7e c1 3d ff 3c 2d 3e cb 18 24 b3
       -0.25527683 0.09448006 0.169178 -3.8206775e-08
0002e0 b2 fb 8b 3d 16 59 1b 3e 51 6f 93 be 61 6d 3b 3d
       0.068351164 0.15170702 -0.28795865 0.04575861
0002f0 c3 bd 4f 3e 86 91 b6 3c 6e ce c0 bd ed 14 83 3d
       0.20287232 0.022286188 -0.09414373 0.06400476
000300 d6 48 5b 3d aa d9 3b 3d 4d 82 d9 3d 3c 4c 90 ba
       0.05353626 0.045861878 0.10620556 -0.0011009048
000310 3f 20 87 3d b6 cf 13 be a0 98 06 3e 90 2e be bd
       0.06597947 -0.14434704 0.1314416 -0.09286225
000320 cf 54 50 3c 19 1f a5 3e 86 98 c0 bd 01 90 ea 3d
       0.012715532 0.32250288 -0.094040915 0.11453248
000330 17 57 4e 3d 1f 56 6f 3b 1d 23 73 be a7 cd 89 be
       0.050376024 0.0036519838 -0.23743863 -0.26914713
000340 6b ad 2e 3d 68 1b 87 be e0 58 3e be 99 98 87 3e
       0.042645853 -0.26388097 -0.1858859 0.2648361
000350 fc 1a 87 be 48 f1 98 3d e8 a3 c8 be 85 ab fe 3d
       -0.26387775 0.07467896 -0.3918755 0.124350585
000360 c0 f4 d4 bd d3 d2 dc 3b dd c6 f3 3c dc 6e 0f 3d
       -0.10398245 0.0067389994 0.029757911 0.035017833
000370 ed 85 5e bb aa 86 94 3e 72 9d 84 be 7b 63 fe bd
       -0.0033954338 0.2900899 -0.2590137 -0.12421318
000380 92 46 90 be 05 f2 70 be 32 8c 90 bd 8c 2b 31 3e
       -0.2817884 -0.23529823 -0.0705799 0.17301768
000390 6c d1 f9 bd 0d 57 86 3c 2b 4d 02 be 1e 98 66 3d
       -0.12198147 0.01639893 -0.1272475 0.056297414
0003a0 46 39 66 3e 49 28 b9 3d 6c 9e 93 be 8f 39 7b bd
       0.22482786 0.09040887 -0.28831804 -0.06133419
0003b0 c7 3f d3 bd 74 bc 0c 3d 16 e2 70 bb dd 16 fd 39
       -0.10314899 0.03435941 -0.0036755851 0.00048272955
0003c0 a9 89 35 3e 69 4b ad be 66 4d d9 bd 6f 43 04 3d
       0.17728294 -0.33846596 -0.10610466 0.032290872
0003d0 dc 93 02 be 82 c0 92 bd 42 07 d4 3d f2 fb b6 bd
       -0.12751716 -0.07165624 0.10352947 -0.089347735
0003e0 4e f9 b8 3e 24 b9 33 bd f8 0c cf bb b3 df 05 3d
       0.36127704 -0.043877736 -0.0063186847 0.03268404
0003f0 e8 52 92 bd 6c 65 9d bd 13 99 24 be b2 77 9c be
       -0.07144719 -0.0768536 -0.16074018 -0.3056007

conv2.bias f4 [16]
000000 b0 d1 95 bc 17 9b 22 3d ba c3 31 bd 01 12 0b bc
       -0.018288463 0.039698686 -0.04339955 -0.008488179
000010 5a 27 54 bd 67 d1 96 3c c2 fb 7d 3c 7a b9 6b 3b
       -0.05179534 0.018410398 0.015501918 0.0035968707
000020 86 a5 1d 3d 0b f8 65 bd 4b 58 f7 bb f5 19 5c 3c
       0.038487934 -0.056144755 -0.007548367 0.013433923
000030 ad 5d 06 bd 02 05 52 3c d5 54 b9 3c 9e c0 90 bd
       -0.03280418 0.012818577 0.022623459 -0.07067989

bn2.weight f4 [16]
000000 57 5d 80 3f 15 4f 7c 3f 47 0c 82 3f d1 99 7a 3f
       1.0028485 0.9855817 1.0159997 0.97890955
000010 a0 03 82 3f 7a fc 77 3f e3 e3 7f 3f 90 66 74 3f
       1.0157356 0.96869624 0.999571 0.95469
000020 60 b6 82 3f bf 4e 83 3f fa 24 7b 3f 2c 46 80 3f
       1.0211906 1.0258406 0.98103297 1.0021415
000030 3c 06 78 3f 01 01 7d 3f da 69 7c 3f 8e 5f 83 3f
       0.9688451 0.98829657 0.98599017 1.0263536

bn2.bias f4 [16]
000000 4d d8 43 3d 28 3c f0 bc bd b7 97 bd e4 d7 00 bd
       0.047813702 -0.02932556 -0.07408092 -0.03145589
000010 40 db a6 bd 2c 36 a1 3d 3f c9 99 3d 61 e6 a8 3c
       -0.08147287 0.078716606 0.07509088 0.020617666
000020 62 92 86 3d 0c 00 a7 bd 0d 3d 18 3d 4f 23 38 bc
       0.06570889 -0.08154306 0.037167598 -0.011238887
000030 c6 03 d0 bc a8 f8 be 3d 51 17 35 3d 4c 24 6a ba
       -0.025392424 0.09324771 0.04421169 -0.00089318

bn2.running_mean f4 [16]
000000 4f 49 94 3e 0e e3 1e 3f aa 7f 01 3f d2 f4 e6 3e
       0.2896218 0.6206521 0.50585425 0.45108658
000010 d7 78 22 3f 9d 78 3c 3f d8 95 8f 3e 60 41 14 3f
       0.63465637 0.7362154 0.2804401 0.57912254
000020 77 96 fd 3e 0a 77 05 3f 03 c5 21 3f a0 72 5e 3f
       0.49528858 0.52134764 0.6319124 0.86893654
000030 7e b9 ca 3e 86 fc ef 3e 81 37 89 3f 18 7b cc 3e
       0.39594644 0.46872348 1.0720063 0.39937663

bn2.running_var f4 [16]
000000 16 40 7a 3e 02 ef 2a 3f 4b ac 8d 3f 7a ea 7e 3e
       0.2443851 0.66770947 1.1068205 0.24894133
000010 f8 74 d0 3f 01 9d 0c 40 75 37 c5 3e 2a b0 62 3f
       1.6285696 2.1970828 0.38518873 0.88550055
000020 35 c9 85 3f ad 1f 8c 3f 51 7c ff 3e d3 8e 52 3f
       1.0452029 1.0947167 0.49899533 0.8224918
000030 d8 3e 3b 3f 48 fc 85 3e ab 9d d1 3f c9 9f 50 3f
       0.73142767 0.26169038 1.6376241 0.8149381

conv3.weight f4 [32, 16, 3, 3]
000000 c5 61 a7 3d 54 d9 31 bd a5 11 da bd 34 65 29 3e
       0.08172945 -0.04342015 -0.10647897 0.16542512
000010 8e f7 7e 3e e8 42 b3 bd e6 94 80 3d f6 86 c8 3c
       0.24899122 -0.08752996 0.062784 0.024478417
000020 fc ac a8 bc 69 7a 41 be 05 0d 99 bd c7 6f a3 3d
       -0.020590298 -0.18894352 -0.074731864 0.07980304
000030 c5 26 0a be 52 54 17 be 78 56 48 bc e5 a7 36 bd
       -0.13491352 -0.1477826 -0.012227647 -0.04459371
000040 8b ca 4f 3c 51 78 2a bd 79 e4 ff 3d 2d 9b a9 bc
       0.012682567 -0.04161865 0.124947496 -0.020703876
000050 eb b5 a6 bd 50 e3 94 3b b4 fa 30 3e 7b bc f9 bb
       -0.08140167 0.0045436993 0.17283136 -0.0076213456
000060 0c 2f 22 3d be 0b 02 b9 a7 c4 76 be 07 8c e2 3d
       0.03959565 -0.0001240214 -0.24098454 0.11061864
000070 7c 90 2e be 94 48 36 3e f0 d6 1c be 0f c9 cc 3d
       -0.17047304 0.17801124 -0.15316367 0.099992864
000080 02 65 15 3e 9e 21 bd bd 24 8b 35 bd 9f 54 c6 bb
       0.14589313 -0.092349276 -0.044322148 -0.006052568
000090 11 b6 66 3c 18 71 1e 3e aa bb 2d bd db 69 20 3c
       0.014081494 0.1547283 -0.0424153 0.009790863
0000a0 f7 9f eb 3d b8 fc 34 be 66 1f 90 bd f4 6d 53 3e
       0.1150512 -0.1767453 -0.07037239 0.20647413
0000b0 7f e2 95 3c 03 3c 56 bc 05 51 b3 bd 2d 86 ae bd
       0.018296478 -0.013075831 -0.087556876 -0.08521686
0000c0 36 97 a1 bd 45 4f e0 3d 1d db 44 3d d9 23 d6 3d
       -0.07890169 0.109526195 0.048060525 0.10456056
0000d0 4c 79 81 be 7f a5 5a bd 38 91 bb 3d 66 0c 13 3b
       -0.25287855 -0.053380486 0.09158558 0.002243781
0000e0 af 12 77 3e 93 83 88 bd 4c f4 fa bc 3e 7e 4f 3c
       0.24128221 -0.06665721 -0.030634068 0.012664376
0000f0 04 67 7e 3d 15 a1 62 bd 77 54 1f be 8d f0 bf 3e
       0.062109962 -0.0553294 -0.15559565 0.37488213
000100 99 bd 3e bd 4d eb 1a 3e 0f 93 fd bd 6e a0 0f be
       -0.046567533 0.15128823 -0.12381565 -0.14026043
000110 0f aa 53 3d 04 fb 04 3e e1 a9 db bd 91 c5 f2 3d
       0.051675852 0.1298638 -0.10725761 0.11854089
000120 13 f0 44 be cc 09 db bd 83 6a 29 be 92 01 e6 3d
       -0.19232206 -0.10695228 -0.16544537 0.11230768
000130 3a 14 f0 3d c8 ee 18 3e ef 81 7d bd 74 35 91 3e
       0.11722608 0.14934838 -0.061891492 0.28361094
000140 6f c1 17 bd 73 b2 22 bd ff 29 25 3e d1 a9 ba 3d
       -0.037049707 -0.039720964 0.16129301 0.09114421
000150 68 e4 65 be 28 88 12 be 8c 9d 92 ba e5 8d 93 3d
       -0.22450411 -0.14309752 -0.0011185869 0.072047986
000160 4f ef ee bd 30 60 e1 3c 70 ad 2c 3e fd 25 5a bd
       -0.11666738 0.027511686 0.16863036 -0.053258885
000170 0a 83 a4 be 87 5e 5d 3d 95 00 58 3e d3 ab e4 3d
       -0.32131225 0.054045226 0.21093972 0.11165585
000180 ea 7a b4 3d af 21 87 3e 97 66 3d be 55 cf 95 bc
       0.088125065 0.26392886 -0.18496166 -0.01828734
000190 9d 42 1e bd 21 5f b0 3e 7e 0c c6 3d c4 a1 10 bd
       -0.038637746 0.34447578 0.096703514 -0.03531052
0001a0 2b 48 a9 bd 6d 78 af 3d 8c 6d 18 bd d2 0f 6c 3e
       -0.08265718 0.08567891 -0.037213847 0.2305291
0001b0 48 e0 15 3e 56 bb 4b 3e e0 2b 23 3d d6 45 c6 3b
       0.14636338 0.19895682 0.039836764 0.0060508056
0001c0 36 81 bd bd cb be 87 3e 35 8b 14 be 34 58 0b 3e
       -0.09253161 0.2651275 -0.14506228 0.13607866
0001d0 eb 03 e6 bc bc 34 a8 be 2f bf 0e be 11 14 d1 bd
       -0.02807804 -0.32852733 -0.13940118 -0.102089055
0001e0 3f 3d 1d 3d b4 a5 9c bd 78 62 3b be 8a 78 2d be
       0.038388487 -0.07648793 -0.18299282 -0.16940513
0001f0 bd f8 5a 3d ab 1e 1b be 4d a9 6d 3e ce 29 e8 3c
       0.05345987 -0.15148418 0.23209114 0.028340247
000200 a0 45 d7 3d 3f 8d 08 be 97 ed d1 bc 97 9d 63 be
       0.10511327 -0.13335131 -0.025625987 -0.22228085
000210 2e ef 07 be 62 99 55 3d f4 54 00 be 7f c3 80 bc
       -0.13274834 0.05214823 -0.12532407 -0.01571822
000220 12 bd 28 3e 8a 88 95 3d ef 0b 13 be a6 48 a8 bd
       0.16478375 0.073014334 -0.14360021 -0.082169816
000230 3f b7 a6 3e 8f d3 6f bd 95 ae 6f bd 47 2d d0 3c
       0.3256168 -0.058551367 -0.058516104 0.025412215
000240 45 6a a6 3d 6b e1 59 3d 55 b9 2f 3e 4a 8d 5e 3d
       0.08125738 0.05319349 0.17160542 0.054333963
000250 99 32 08 be f3 62 f1 3d ce 31 b4 3d 8b 8a c7 3c
       -0.13300551 0.11786451 0.08798562 0.024358055
000260 27 8e ac bd e0 00 90 bd fa 9c 87 3d f7 ee 86 bd
       -0.08425551 -0.07031417 0.06621738 -0.06588548
000270 3f 96 05 3e 62 03 47 bd c8 0f 9e bd e6 e5 9f 3d
       0.13045596 -0.04858721 -0.07717854 0.078075215
000280 6f ed 93 bd 7b c7 b0 bb 4c 82 13 3d ff c4 51 be
       -0.07223021 -0.0053948737 0.036012933 -0.20485304
000290 db 0e f9 bb ff c9 08 3e 35 87 0b bd 98 5b b6 3d
       -0.007600648 0.13358305 -0.03406449 0.08904189
0002a0 10 7b a0 3d a0 83 04 be 98 00 98 bd e9 5d 2a be
       0.07835972 -0.12940836 -0.07421988 -0.16637386
0002b0 3a e0 a0 bd a0 8f 27 be 69 a4 8a bd a3 2c 2a be
       -0.07855268 -0.16363382 -0.0676964 -0.1661859
0002c0 43 d3 85 3c d4 e0 1f 3e d4 c7 14 bd 99 67 51 bd
       0.016336089 0.15613109 -0.036323383 -0.05112419
0002d0 75 f0 0f be 14 27 06 be dc b4 39 3d 22 07 bd bd
       -0.14056571 -0.13100845 0.045338497 -0.09229876
0002e0 5e 02 e6 bd 46 eb 1d bc 2e a7 55 be 8b c5 c2 3c
       -0.1123092 -0.009638613 -0.20864555 0.023775836
0002f0 83 73 d5 bc ff 76 13 3c d5 a9 bd bb 44 c4 cc 3d
       -0.026056057 0.009000539 -0.005788068 0.09998372
000300 6a 5a 46 be ca c9 25 3e be 0f b9 3c 4e 4c d3 3d
       -0.19370428 0.16190258 0.022590514 0.10317288
000310 85 53 8d ba e8 01 13 be 2a 85 a8 3d ed 00 5e be
       -0.0010782337 -0.14356196 0.08228524 -0.2168004
000320 2c f0 0d bd 76 94 2a ba f9 84 2e bb bd 1c b1 be
       -0.034652874 -0.0006507108 -0.002662955 -0.34592238
000330 73 52 e9 bc dc ad 80 3d eb c0 a3 bc f1 9e a3 bc
       -0.028481698 0.06283161 -0.019989451 -0.01997325
000340 32 a1 a7 bd 3b 63 fc 3d c6 67 70 bd d6 36 d8 bd
       -0.081850424 0.12323614 -0.058692716 -0.10557334
000350 d4 7d df bc a9 2c 00 3e 51 e8 0d 3e 6b 84 65 3d
       -0.02728168 0.12517036 0.13858153 0.056034487
000360 26 5c 21 bc ff 34 05 be 1e 48 26 3e 2c d9 1f bd
       -0.00984863 -0.13008498 0.16238448 -0.03902547
000370 c4 73 0d be a5 07 2f 3e 93 6f b1 3d 3a 62 0d b8
       -0.13813692 0.1709276 0.08663859 -3.37085e-05
000380 7e fb 33 bd 71 2d 99 be df 68 80 bb 8d ce c1 3d
       -0.043941014 -0.29917482 -0.0039187516 0.094632246
000390 f2 c9 c1 bd 82 9c 3d 3e 2e 1f 74 3d f0 b6 42 be
       -0.09462346 0.18516734 0.059600048 -0.19015098
0003a0 6b a4 1e be 90 95 ca bc b4 db b7 bd 1c ae f2 3d
       -0.15492408 -0.02472952 -0.08977452 0.11849615
0003b0 e7 8e 9f bd d2 11 fe bd 52 f4 22 be 6f 54 a5 bd
       -0.07790928 -0.12405743 -0.15913513 -0.08072745
0003c0 28 6f 31 bc 0a 8e bc bd ef d6 b4 3d e1 fa e4 bd
       -0.010829724 -0.09206779 0.08830058 -0.11180664
0003d0 f7 01 1e bd 27 50 5d 3d 5d dd 81 3d d9 46 f2 bd
       -0.038576093 0.054031517 0.0634105 -0.11829919
0003e0 7f f3 80 bd 87 70 b6 bd d2 98 cc bd 00 3c 66 3e
       -0.06296443 -0.08908182 -0.09990086 0.22483826
0003f0 58 47 80 bc e0 3b 91 bd 67 b8 a4 be de a8 bc 3d
       -0.01565902 -0.070914984 -0.32171938 0.09211896

conv3.bias f4 [32]
000000 17 a3 09 3a 6c dc cc 3c 5c 92 b8 3b 31 cd 32 3d
       0.00052504375 0.02500745 0.005632682 0.043652717
000010 d1 ca c3 3c b6 bf 15 3d a6 56 2e bd 9b c5 f0 bc
       0.023900421 0.036559783 -0.042563103 -0.0293911
000020 b2 99 7f 3c ca b9 03 3b f2 f3 cb 3b a8 01 8a 39
       0.015600609 0.0020099753 0.006224149 0.00026322645
000030 84 1f 9f bc 77 ad 70 bd cc e5 47 3c 44 cf 44 bd
       -0.019424208 -0.05875918 0.012200784 -0.048049226
000040 28 8d a3 bd a1 91 d7 3c 15 97 20 3b f9 e2 34 bd
       -0.07985908 0.026314558 0.0024504114 -0.04416177
000050 74 ed 22 bd ad 12 6e 3a 78 ee 78 3c fc 93 9e 3c
       -0.039777234 0.00090817624 0.015193574 0.019357674
000060 81 3b 15 3c ef 7d 1e bc 8b d5 87 bd 70 f4 4a bc
       0.009108425 -0.00967358 -0.06632527 -0.01238738
000070 b9 04 fa 3b b4 46 f7 3c 12 f8 56 3c af ac 49 3c
       0.0076299575 0.030185081 0.013120668 0.012309237

bn3.weight f4 [32]
000000 ba 05 83 3f 02 c2 77 3f e1 c8 77 3f cc 7c 7b 3f
       1.0236123 0.9678041 0.9679089 0.982373
000010 1e 30 76 3f a8 5e 77 3f 16 4b 83 3f 3e 7f 7d 3f
       0.9616717 0.9662881 1.025729 0.9902228
000020 32 d0 7d 3f ce 2c 82 3f 3d 65 75 3f 2b ed 73 3f
       0.99145806 1.0169923 0.958576 0.95283765
000030 03 aa 79 3f b6 80 82 3f 3b b3 74 3f 09 59 85 3f
       0.9752504 1.019553 0.95585984 1.0417796
000040 ca 05 84 3f 99 6a 7d 3f 93 50 7a 3f 07 96 81 3f
       1.0314267 0.9899078 0.97779197 1.012391
000050 b0 b1 7d 3f 0c b1 78 3f b3 50 77 3f 80 63 7f 3f
       0.99099255 0.9714515 0.9660751 0.997612
000060 25 38 81 3f 08 69 83 3f 94 3f 84 3f e5 17 7c 3f
       1.0095259 1.0266428 1.0331903 0.9847396
000070 df e1 71 3f 1e 8f 7e 3f 69 5a 76 3f b0 59 7c 3f
       0.94485277 0.9943713 0.96231705 0.9857435

bn3.bias f4 [32]
000000 48 ac 00 3e ef 6c 6a 3d 22 bf ca 3d 14 2e 87 3d
       0.1256572 0.057232793 0.09899737 0.066005856
000010 03 f3 bf 3d 4d a6 d7 3d 8f 24 eb bd f9 a5 c6 bd
       0.09372523 0.10529766 -0.114815824 -0.096996255
000020 61 a9 57 bd 16 42 87 bd 40 7e ba 3c d9 c3 b5 3d
       -0.052651767 -0.06604402 0.022765279 0.088752456
000030 7a 56 ae bd f6 2d d3 bd f3 7f c3 3d 4a 8c 03 be
       -0.08512588 -0.10311501 0.09545889 -0.12846485
000040 83 cc 04 be 40 95 cd 3d 7c bb 8a bd 1c b7 a7 bd
       -0.1296864 0.10038233 -0.06774041 -0.08189222
000050 e5 77 7d bd f2 44 33 3d 20 9a a7 3d 18 f2 eb 3d
       -0.06188192 0.043766923 0.08183694 0.11520785
000060 b5 9c d6 3d 4c ff 18 3e 64 02 f1 bd c0 a9 a3 3d
       0.10479108 0.14941138 -0.11768034 0.079913616
000070 c4 be ed 3b f2 da a1 3d 00 c2 68 bd 39 c3 d9 3d
       0.007255407 0.07903089 -0.056825638 0.10632939

bn3.running_mean f4 [32]
000000 d0 22 37 3f c1 ef 35 3f a7 16 0f 3f fc 57 57 3f
       0.71537495 0.7106896 0.5589394 0.8411863
000010 35 81 02 3f 24 67 27 3f 40 3f ae 3e ab 0d ed 3e
       0.50978404 0.65391755 0.3403263 0.4629949
000020 00 8d 88 3f 4a a9 13 3f cf ff 0e 3f 47 42 d3 3e
       1.066803 0.5768019 0.5585908 0.41261503
000030 e7 10 fd 3e 98 ea 43 3f 48 ce 2f 3f ae 79 2f 3f
       0.49426958 0.76529837 0.68674135 0.68545043
000040 59 0b f6 3e 3c 26 e7 3e 92 72 0f 3f c5 e4 15 3f
       0.48055533 0.45146358 0.56034195 0.585522
000050 23 51 e9 3e 5e 2e 21 3f 46 88 11 3f 78 00 22 3f
       0.45569715 0.62961376 0.5684856 0.63281965
000060 e3 1d 03 3f 4e d3 c3 3e 64 45 03 3f ff 8a ec 3e
       0.5121748 0.3824715 0.51277757 0.46199796
000070 0f 6d df 3e 2e 77 42 3f 32 12 5d 3f cc 0c c0 3e
       0.43637893 0.75963104 0.8635589 0.37509763

bn3.running_var f4 [32]
000000 05 76 9d 3f b8 4d 31 3f 10 80 42 3f 54 89 35 3f
       1.2301642 0.69259214 0.7597666 0.7091267
000010 5a 2b 18 3f e0 77 3f 3f 50 6d 02 3f fc b2 51 3f
       0.5944115 0.7479229 0.5094805 0.81913733
000020 ef f8 22 40 26 57 2c 3f f9 08 27 3f 45 58 04 3f
       2.5464437 0.6732048 0.65248066 0.5169719
000030 3c 55 4b 3f 35 9c d3 3f 61 5f e4 3f 1a 84 8a 3f
       0.7942693 1.6532046 1.7841607 1.0821564
000040 9d 26 64 3f 65 92 f2 3e 7c 59 0d 3f ac a1 97 3f
       0.8912142 0.47377315 0.5521467 1.1846213
000050 ab 98 43 3f 02 09 8c 3f 3f e2 16 3f 9e 7c 6a 3f
       0.7640483 1.0940249 0.58938974 0.915964
000060 8a cb 26 3f 9c 93 1d 3f 27 c2 9d 3f 97 f0 15 3f
       0.65154326 0.6155336 1.2324876 0.58570236
000070 bb b4 21 3f 6c 38 32 3f e7 22 95 3f ab c6 b8 3e
       0.631664 0.6961734 1.1651276 0.36089072

conv4.weight f4 [64, 32, 3, 3]
000000 e6 2a 9a 3d 56 ae e0 bc 6a 5a 07 3e 9d 0e 79 3d
       0.075277135 -0.02742688 0.13218084 0.060804952
000010 66 d7 7b bd 6c 27 01 bd f0 6f 70 3d 20 87 4a bd
       -0.061484717 -0.031531736 0.058700502 -0.04944527
000020 97 86 1a 3b ea 35 87 bb 31 2c 8c 3c ca b9 cf bc
       0.0023578757 -0.0041263 0.017110916 -0.025357146
000030 ab ee 3d 3d 97 f2 16 3e 98 78 75 bd 41 fc 06 3e
       0.04637019 0.14740978 -0.05992946 0.13182165
000040 36 b3 ce bd 66 81 a9 bd a5 24 da 3c 0f 0f f2 3a
       -0.100927755 -0.08276634 0.026628802 0.0018467623
000050 e6 de 1f 3c c5 fa 66 be a4 53 91 bd 76 1e 7f 3d
       0.009757733 -0.22556598 -0.07096031 0.06228491
000060 4a bc 97 ba a1 5e 02 3d b0 f4 03 bd c3 5f 39 be
       -0.00115765 0.031828526 -0.032215774 -0.18102936
000070 6d 47 e6 bd 6b a4 8d 3d bb f0 51 be db 99 8d 3c
       -0.11244092 0.06916126 -0.20501988 0.017285278
000080 1b cd 2a 3c 6e 00 10 3e b9 40 61 3d 07 74 f9 3d
       0.0104248775 0.14062664 0.054993365 0.121803336
000090 18 f7 80 3c 6e dd cd bd d6 03 a5 3c 8f 44 d2 3d
       0.015742823 -0.10052 0.02014343 0.10266983
0000a0 f9 1a 35 bd b5 ff 73 3c c1 65 dd 3c f6 56 28 3d
       -0.044215176 0.014892508 0.02702606 0.041098557
0000b0 c6 fe 86 3d 3f 30 83 bd ce 05 af 3d 12 3a 90 bd
       0.06591563 -0.064056866 0.08546029 -0.07042326
0000c0 db 10 cf 3d cc 02 cf bd 17 dc 94 bd 2f 00 9c bd
       0.10110637 -0.10107955 -0.07268541 -0.076172225
0000d0 0d d0 82 bd e4 8e 63 3c 1c eb 91 bd 99 99 30 3c
       -0.06387339 0.013889048 -0.07124922 0.010778808
0000e0 b2 32 c7 bc 2e 8e 67 bd ec 7e 78 3d c4 91 8e 3d
       -0.024316166 -0.056532077 0.060667917 0.06961396
0000f0 6c 74 09 be f8 09 87 3d 94 8e 8c bd fd bf 0e 3c
       -0.13423318 0.06593698 -0.06863132 0.008712766
000100 35 2e 9d bd ed 11 ca 3c 51 83 14 3d e8 30 47 be
       -0.07674829 0.02466675 0.036258046 -0.1945225
000110 7a 5c 8f bc a5 40 2a bd 9f 70 33 bc df 0f 98 bc
       -0.017500151 -0.041565556 -0.010952144 -0.018562255
000120 32 b2 a6 bd 33 5b d1 bd 22 7f 89 3c 85 ea 86 bc
       -0.08139457 -0.10222473 0.016784254 -0.01646925
000130 6e 29 43 3e 55 f5 1f 3c fb 1d 82 bd 54 be 3b 3d
       0.19058773 0.009763082 -0.063533746 0.045835808
000140 74 57 33 3d 5d 97 bd 3d 66 55 f3 bc af d8 57 bd
       0.043784574 0.09257386 -0.029703807 -0.05269688
000150 7a 16 8e bd 4e ae ce bc d9 34 20 bd c1 20 da bb
       -0.06937881 -0.0252296 -0.0391129 -0.0066567366
000160 49 b3 bf bc c2 d2 54 bd 49 72 e5 bd a2 26 02 bc
       -0.02340092 -0.051958807 -0.11203439 -0.007943781
000170 92 ae b3 3d 47 8e f9 bd 2d 1c 87 3c 11 47 2e bd
       0.08773531 -0.121853404 0.016492927 -0.042548243
000180 04 30 84 3d e6 51 60 3d ce d8 90 3d cd f8 ac bd
       0.06454471 0.054765604 0.07072602 -0.084458925
000190 57 7c c7 bd 03 9e 98 3c f5 16 6c 3d 3d ba 8d 3d
       -0.09740513 0.018630033 0.05763908 0.06920288
0001a0 c5 cb 9f bd 58 a3 ec 3c 2c 43 bd 3d 14 20 be 3d
       -0.07802538 0.028886482 0.09241328 0.09283462
0001b0 34 df cd bd c7 ed 18 3d 43 d4 22 bd 4b 01 a1 3d
       -0.10052338 0.037336137 -0.03975321 0.07861575
0001c0 8a 12 25 be 6b 12 99 3d 8e 2c 51 bd 8c df 05 be
       -0.16120353 0.07474216 -0.05106788 -0.13073558
0001d0 2a fe 10 3d 18 86 be bd 97 bf 6b bd 93 8e ac bd
       0.03539864 -0.0930292 -0.05755576 -0.084256314
0001e0 05 37 95 bd 52 33 a3 3d 44 3b c5 3d ef 6f bc bd
       -0.07285885 0.07968773 0.09630445 -0.09201037
0001f0 46 46 e5 3d b1 ec 0c be ba 95 4b 3d 21 23 e7 3c
       0.11195044 -0.13762166 0.049703337 0.028214993
000200 56 f7 42 bb d1 05 41 3c 21 88 a1 3d 52 de d3 bb
       -0.0029749474 0.011781172 0.07887293 -0.0064657116
000210 b1 50 9f bd 0c af 62 3d f9 2d 14 3e e6 97 8f bb
       -0.077790625 0.05534272 0.14470662 -0.0043821214
000220 85 5d 2a 3c 08 a3 0e be 7a c5 ac 3a 45 3e 87 3d
       0.010398273 -0.13929379 0.0013181411 0.06603674
000230 e8 fb 72 3d 49 0c cf bd 44 59 b9 bd 1b 50 48 bd
       0.059322268 -0.10109765 -0.09050229 -0.04890452
000240 83 6b 82 3d 56 1b 50 be ad 09 82 bc 93 81 0e be
       0.063681625 -0.20322928 -0.015873754 -0.13916616
000250 e2 5d c4 3c 37 89 d8 bd 3c e7 48 3d 0a d1 f1 bd
       0.023970548 -0.10573047 0.049048647 -0.11807449
000260 07 ea 98 3d 18 c4 c9 3d a5 ea 2c 3e 15 27 09 bd
       0.07466512 0.09851855 0.16886385 -0.033484537
000270 49 4e e2 bb e4 9c 09 bd b1 b2 b9 3d 74 40 85 bc
       -0.006906305 -0.03359689 0.09067286 -0.016266085
000280 7c b0 16 3d a9 1b bc 3d 3b 75 4f 3d 15 60 40 bd
       0.036789402 0.09184963 0.05064891 -0.04696663
000290 e4 b7 8a bc 58 66 e3 3d 8f 33 1d bd 66 11 db bd
       -0.016933389 0.11103505 -0.03837925 -0.10696678
0002a0 93 23 73 3d 65 ce 4d be 1f 41 df 3b 63 d2 7b 3a
       0.059360098 -0.20098265 0.006813183 0.000960624
0002b0 fb 0a f8 3c 20 8e 15 be 03 81 23 3e 27 e2 09 3c
       0.030278673 -0.14604998 0.15967183 0.008415735
0002c0 98 91 d1 3d 78 d2 4f 3d 72 ef 29 be 63 e6 1b be
       0.10232848 0.050737828 -0.16595247 -0.15224604
0002d0 42 6d 48 3c 6b 2a d1 bd 55 75 11 bd ec c1 54 bd
       0.01223308 -0.10213169 -0.035512287 -0.05194275
0002e0 3b 18 e0 bb 33 f5 19 bd 31 e7 1c bc df 99 00 be
       -0.006838826 -0.037587356 -0.009576605 -0.12558697
0002f0 09 e2 04 bc 7b 1e d2 3c ac a4 79 bd b9 cb fa 3d
       -0.008110532 0.0256493 -0.06094806 0.12245888
000300 06 67 f5 bc 98 2b fe bc ed 69 7c bd d7 f9 43 bc
       -0.029956352 -0.031026646 -0.061624456 -0.011961422
000310 42 dc 3f bd 60 df 5a 3d 94 f8 1a 3c b6 f1 aa 3d
       -0.046840914 0.053435683 0.00945868 0.08346884
000320 95 76 d1 3d a5 8d a2 3d ca d1 43 3d f0 ac 26 3b
       0.10227696 0.07937173 0.047807492 0.0025432669
000330 5c aa 7b 3d 37 a1 e7 3d 42 c9 00 3e f3 dc 16 3d
       0.061441764 0.11310046 0.12576774 0.036831807
000340 8b 12 aa 3d db f6 44 3d f6 27 6c 3d de 7e 3d bd
       0.08304318 0.048086982 0.057655297 -0.046263568
000350 0d dc 9d 3d 6c 66 cc 3c 5e cd 95 bc 85 23 12 bd
       0.07707987 0.024951182 -0.018286403 -0.035678405
000360 75 a9 be 3d 2d 11 3b bc 48 7a 70 3e b8 ab a3 bd
       0.09309665 -0.011417669 0.23484147 -0.07991737
000370 f6 ec e6 3d 75 dc 0e 3e b7 69 a8 3d b1 2f 0b bd
       0.112756655 0.13951285 0.082232885 -0.03398103
000380 f0 0f a9 bd 44 bc b2 bc 38 b2 96 3c 6f 70 ce 3d
       -0.08254993 -0.021818288 0.018395528 0.10080039
000390 ea ae 80 3d 96 97 a4 3d 35 85 20 3d 89 89 0d bd
       0.06283362 0.08036725 0.039189536 -0.034554992
0003a0 a7 90 01 3d 9b 4c d8 3d 0a e2 a6 bd a0 73 09 3d
       0.03163209 0.10561486 -0.08148582 0.033557534
0003b0 ec c4 ef 3c 53 4b ff 3c 4c ac 1c bc 38 fa 4c bd
       0.029268704 0.031163847 -0.009562563 -0.050043315
0003c0 26 9c c0 3d 76 c4 d4 3d b1 d2 7f 3c a6 ef 09 3e
       0.09404783 0.103890345 0.015614198 0.13470325
0003d0 8a cc 13 3e 65 61 9a bb 2d 6f e9 bd 7e ee 89 bd
       0.14433494 -0.0047113174 -0.11398158 -0.06734942
0003e0 13 ff d1 3c 02 e9 78 bd ae 4a 2a be b2 63 0a be
       0.025634324 -0.06076909 -0.1663005 -0.13514593
0003f0 c6 75 17 be 17 8f c8 bc b0 ac a9 bd 8f 0f 93 3d
       -0.14791021 -0.024482293 -0.08284891 0.07180702

conv4.bias f4 [64]
000000 a9 8d 01 3d 1e 06 4a bd da 57 e0 bc b6 76 87 bd
       0.03162924 -0.04932224 -0.02738564 -0.06614439
000010 c7 ef f4 bd 3c de 51 3d c9 d2 f2 3a bf 73 11 3d
       -0.119597964 0.05123733 0.0018525954 0.035510775
000020 a6 c7 38 3d dd c7 63 bd ef 76 15 3d a0 12 26 3b
       0.045112275 -0.055610526 0.036490377 0.0025340691
000030 1c c5 bb 3c de b5 72 3d fb 04 18 3d e3 41 cf bd
       0.022921138 0.059255473 0.037114125 -0.10119989
000040 d7 4e 8b 3d 16 cc a1 bd 3f 26 80 3d ae 90 f3 bd
       0.06802147 -0.079002544 0.06257295 -0.1189283
000050 76 4b 7d 3d 5c 73 3d 3d 9a 4b 6f bd b4 2b 05 be
       0.061839543 0.046252593 -0.05842171 -0.13004953
000060 34 11 63 3d 8e a4 83 bd 5f 9d 6b 3d d6 ca bf bc
       0.055436328 -0.06427871 0.057523128 -0.02341215
000070 58 d2 80 3d 3f 6d b7 bd 83 06 6f 3d 66 44 62 3d
       0.0629012 -0.08956384 0.05835582 0.05524101
000080 fb 97 b8 bd b4 d1 7c 3c bf 7a ca bd 99 de 24 3d
       -0.09013363 0.0154308565 -0.09886693 0.04025135
000090 96 99 2d 3d e8 e0 86 bd 69 6d 7d bd c9 0a 40 3d
       0.0423828 -0.06585866 -0.06187192 0.046885286
0000a0 94 58 cf 3c d7 e8 71 3d c0 ca 77 3d bd 83 bc bd
       0.025310792 0.059059944 0.06049609 -0.092048146
0000b0 6d 6c 6a 3d 39 f8 c8 3c f6 e5 5f 3d 5d 9a 42 3d
       0.05723231 0.024532424 0.054662667 0.047510494
0000c0 45 f1 9d bd b6 17 5c 3d 7d 5a 8a bb 5b 96 28 3d
       -0.07712034 0.05373355 -0.004222213 0.041159015
0000d0 f9 7c 12 bd fb a0 16 bd ad 4f 84 bd b0 5e 2a 3d
       -0.035763714 -0.036774617 -0.064605094 0.041594207
0000e0 74 fa e5 bd ab 3d 76 bd 1b db c4 bd 82 72 9c bd
       -0.11229411 -0.060117405 -0.096121036 -0.07639028
0000f0 d9 e8 30 bc c1 f9 4c 3d e7 5a ec bd 61 bc 08 bd
       -0.010797703 0.05004287 -0.11540776 -0.033382777

bn4.weight f4 [64]
000000 ec 7b 89 3f 96 57 8d 3f 65 0d 8a 3f 25 6f 88 3f
       1.0740943 1.1042354 1.0785338 1.0658919
000010 10 c9 8a 3f c0 b9 86 3f 31 18 8a 3f 46 cd 88 3f
       1.084261 1.0525436 1.0788633 1.0687644
000020 8f f7 84 3f 15 9f 89 3f 31 a3 84 3f 88 9e 7f 3f
       1.0388049 1.0751673 1.0362302 0.99851274
000030 49 de 88 3f 45 0c 89 3f 13 7c 8c 3f 63 57 8a 3f
       1.0692836 1.0706869 1.0975364 1.0807918
000040 24 9b 89 3f b7 d1 89 3f 80 38 8a 3f 99 97 8d 3f
       1.075047 1.0767125 1.0798492 1.1061889
000050 eb 0a 88 3f 85 d7 84 3f 51 3d 8a 3f 89 bd 8a 3f
       1.0628332 1.0378271 1.0799962 1.0839092
000060 4e b9 86 3f 28 fd 89 3f e1 10 8b 3f 9d 14 87 3f
       1.05253 1.0780382 1.0864526 1.0553166
000070 09 10 87 3f 94 19 8c 3f 80 67 86 3f e8 28 86 3f
       1.0551769 1.0945306 1.0500336 1.0481234
000080 bc 03 8d 3f fb 11 83 3f 2a 64 8a 3f 8c 5e 87 3f
       1.1016765 1.0239862 1.0811818 1.0575728
000090 1d a7 86 3f 18 7c 8a 3f ed f8 88 3f f1 c1 8d 3f
       1.0519749 1.081912 1.0700966 1.1074811
0000a0 50 63 89 3f 26 7b 84 3f 0a d7 88 3f 66 b6 8b 3f
       1.0733433 1.0350082 1.0690625 1.0915039
0000b0 ae 51 8d 3f 18 e2 8b 3f ff 0b 87 3f ee 29 82 3f
       1.1040552 1.0928373 1.0550536 1.0169046
0000c0 5a e8 8c 3f ab ba 86 3f eb b3 89 3f 11 59 87 3f
       1.1008408 1.0525717 1.0758032 1.0574056
0000d0 d0 71 89 3f 4b 7d 85 3f 45 b8 89 3f cb 97 88 3f
       1.0737858 1.0428861 1.075936 1.0671324
0000e0 ec 27 8c 3f 1a 6d 8a 3f 9f 76 8a 3f 94 9f 89 3f
       1.0949683 1.0814545 1.081745 1.0751824
0000f0 4c 22 88 3f 78 bf 88 3f 41 c6 8b 3f 7a 0f 8a 3f
       1.0635467 1.0683432 1.0919877 1.0785973

bn4.bias f4 [64]
000000 13 58 e3 bd e8 17 59 be f9 7a 0b be 17 c6 07 be
       -0.11100783 -0.21200526 -0.13621129 -0.13259159
000010 4b a9 0c be 2c 3b 03 3e 77 63 45 bd 00 14 d1 bd
       -0.13736455 0.12815541 -0.04819056 -0.10208893
000020 8d 2b 1a 3e ce ea 22 be 40 ee 31 3e 29 b6 19 3e
       0.15055676 -0.15909883 0.17376041 0.15010895
000030 e4 4d 7b 3d 12 87 b4 3d 76 f5 4b 3d e6 41 45 be
       0.06135358 0.08814825 0.049794637 -0.1926342
000040 02 e2 3a 3e 88 cd 38 be f4 47 17 3e c9 50 53 be
       0.18250278 -0.18047154 0.14773542 -0.20636286
000050 6d 0e 4c 3e d9 a1 04 3e 6f c6 3b be 09 1a 0f be
       0.19927378 0.12952365 -0.18337415 -0.13974775
000060 04 cc 0b 3e 19 ed 18 be 3f ac 10 bd 1c dd 13 be
       0.13652045 -0.14934196 -0.035320517 -0.14439815
000070 6c ef 19 3e 4f 42 1e be 53 e1 09 3e da cd 0b 3e
       0.15032738 -0.15454982 0.1346486 0.13652745
000080 52 be 4a be b1 1a 07 3e 77 2a 0c be cd 80 10 3e
       -0.19799164 0.13193776 -0.13688074 0.14111634
000090 f3 f5 1f 3e 07 b4 10 be 24 a7 12 be eb 63 ed bd
       0.15621166 -0.14131175 -0.14321572 -0.115913235
0000a0 1f 3d 3a 3e d0 8a 0c 3e ed 83 54 3e 24 e0 49 be
       0.18187378 0.13724828 0.2075345 -0.19714409
0000b0 f0 03 de bd d6 8e 61 3d 75 fb 1d 3e 90 b7 00 3e
       -0.10840595 0.05506786 0.15427954 0.12570024
0000c0 33 30 3c be f8 78 16 3e ee a3 31 be ca c4 25 3e
       -0.18377762 0.14694583 -0.1734769 0.1618835
0000d0 85 3f 0b be 26 63 01 be d3 06 43 be e0 d0 44 3e
       -0.1359845 -0.12635478 -0.19045572 0.19220304
0000e0 ea 99 22 be a5 56 30 be 00 39 79 be 0a 65 0c be
       -0.15879026 -0.17220552 -0.2433815 -0.13710418
0000f0 17 57 16 be f7 fd 3c 3e 7e 60 19 be 64 4b 14 be
       -0.1468166 0.18456255 -0.14978215 -0.14481884

bn4.running_mean f4 [64]
000000 36 be bd 3f 03 50 f4 3e c9 4d 47 3f 3a 21 8c 3e
       1.4823673 0.47717294 0.77853066 0.273691
000010 af f8 b4 3e f1 76 bc 3f 24 98 de 3e b6 fd df 3f
       0.3534598 1.4723798 0.4347545 1.7499301
000020 91 16 51 3f 39 20 e6 3e e0 e4 15 3f ad 34 02 3f
       0.8167506 0.4494646 0.5855236 0.50861627
000030 a4 6a d2 3e 6e de 9a 3f 76 7f 29 3f 50 14 b7 3e
       0.41096985 1.209913 0.66210115 0.35757685
000040 e5 72 36 3f ba 46 5a 3e a9 ca 0d 3f d1 da 97 3e
       0.71269065 0.21316043 0.5538736 0.2965913
000050 2a 44 9d 3f 42 29 0f 3f 61 d7 97 3e 79 c6 b5 3e
       1.2286427 0.5592233 0.2965651 0.35502985
000060 1c 83 0e 3f fa ed bd 3e 4b 38 de 3f 89 f8 02 3f
       0.5566881 0.37095624 1.7360929 0.51160485
000070 b7 bd 44 3f ef 6c a1 3e 01 ad a2 3f 76 c8 15 3f
       0.7685198 0.31528422 1.2709047 0.58509004
000080 9c 02 ab 3e bd ea aa 3e bb 7a 98 3e ee b6 2c 3f
       0.33400428 0.33382216 0.29781136 0.6746663
000090 13 d2 7b 3f f3 1b d1 3e de 46 e7 3e 16 b9 e2 3f
       0.9836742 0.40841636 0.45171255 1.7712734
0000a0 55 a7 b4 3e 7c 11 2f 3f f8 22 c8 3f 18 53 d4 3e
       0.35283914 0.68386054 1.5635672 0.41469646
0000b0 a2 7e e8 3f af 44 6a 3f 15 94 03 3f c9 33 4e 3f
       1.8163645 0.9151105 0.5139783 0.8054777
0000c0 af 81 03 3f bb 15 7a 3f 5d 96 49 3f 05 26 c3 3f
       0.51369756 0.9768941 0.7874506 1.5245978
0000d0 07 c9 99 3e 89 0b f7 3e 4d 98 ae 3e ab 5a 98 3f
       0.30036184 0.48250988 0.3410057 1.190267
0000e0 ba 72 b4 3e 9d a1 db 3e fb fa db 3e 00 d6 e6 3e
       0.3524378 0.4289674 0.4296492 0.45085144
0000f0 91 2d 11 3f 90 21 02 3f 76 ac ae 3e 9f 71 0e 3f
       0.56710154 0.5083246 0.34115952 0.5564212

bn4.running_var f4 [64]
000000 39 54 d5 3f e5 c7 6e 3f 39 d8 64 40 ac 49 1c 3f
       1.6666328 0.93273765 3.5756972 0.61049914
000010 8d 9d 50 3f fe 88 c6 3f af ce 9f 3f cc 3c dc 3f
       0.81490403 1.5510557 1.248495 1.7206054
000020 d3 37 ab 3f 5e 7e 9f 3f 8d 9b 78 3f 6b ef 2b 3f
       1.3376411 1.2460439 0.9711235 0.671622
000030 e4 88 31 3f a4 05 95 3f d2 53 ca 3f e6 74 71 3f
       0.69349504 1.1642346 1.580683 0.94319
000040 69 32 83 3f 27 f4 95 3e d2 bd 53 3f 8d 46 3b 3f
       1.0249759 0.29287836 0.8271152 0.73154527
000050 af e1 6b 3f 12 29 13 3f e6 cb 25 3f 44 a7 3a 3f
       0.9214124 0.57484543 0.6476425 0.7291148
000060 50 03 7e 3f 67 65 99 3f 5e 2a 04 40 ec d4 f1 3f
       0.99223804 1.198407 2.065086 1.8893104
000070 4e 80 5d 3f 04 34 44 3f 6c 21 ab 3f ab 1a 3c 3f
       0.865239 0.7664187 1.3369575 0.7347819
000080 9b ce 4d 3f a8 cc c5 3e a6 50 2d 3f 8b 0b 20 3f
       0.8039338 0.38632703 0.67701185 0.62517613
000090 08 cc 63 3f 5e 24 4f 3f 99 26 a1 3f b7 bf ea 3f
       0.889832 0.80914867 1.2589904 1.8339757
0000a0 fd d4 fb 3e 2c e8 a8 3f 72 d9 ae 3f bc be 94 3f
       0.49185935 1.3195853 1.3660109 1.1620708
0000b0 ce b7 04 40 01 a9 41 40 86 6c f1 3e b1 6e 47 3f
       2.0737185 3.0259402 0.4715311 0.77903277
0000c0 62 e3 8f 3f 3d 95 3c 3f a4 62 51 40 a5 54 ad 3f
       1.1241267 0.7366522 3.2716455 1.3541456
0000d0 83 96 20 3f 0d fb a5 3f 17 17 51 3f 69 ea 90 3f
       0.6272966 1.296724 0.8167586 1.1321536
0000e0 e5 ba 2d 3f 38 77 a2 3f 91 a4 a3 3f b5 09 c7 3f
       0.67863303 1.2692633 1.2784597 1.5549837
0000f0 47 db 06 40 43 39 20 3f 28 24 68 3f f2 c3 f3 3f
       2.1071336 0.62587374 0.9068017 1.9044173
