data/models/V8_model_fullV2.pth (torch, 115916 bytes, 26 tensors)

weight f4 [8, 2, 5, 5]
00000000: 96a9 063e 0c50 fabd c82b b3be 0890 8abd
00000010: 5526 e7bd e279 0e3e 221a d6bd 1635 f2be
00000020: ecd4 0e3d 05a0 70be 84be f23c 3eae aebd
00000030: 7d7f 5e3d a3c8 60bd 3ebc 343e 6041 42bd
00000040: 7083 5d3e 3146 8c3d 0af9 063e 957f 213f
00000050: 72ab 86bd 0657 cb3d 67a3 9c3e a05b 903e
00000060: 2418 0a3e f5fc 10be a2f9 6ebe f825 cbbb
00000070: bfb7 44be ffec 37bd ce9d 21bc 2f2b 1abe
00000080: b1fe 273e ad27 f23c 616e 433e 6d06 5c3e
00000090: d398 043e 0260 a2be b820 993e 3ee9 bdbe
000000a0: 159d 0bbe 3efa afbd 3f9b 9cbd 5191 f23d
000000b0: 8f1f 263e a9ff 943e c099 9a3e 9d46 d9bc
000000c0: 547e 923e 826a 083e 7d25 b2be dae4 1cbe
000000d0: 4008 6fbd 5f43 a3be 4f90 0dbe 18f0 92be
000000e0: 3147 f03d 0b83 913e 73b1 fabc 1e41 9bbc
000000f0: 15ae b83e db6f a43d 2b29 7cbc 3cea e63e
00000100: ec82 573e 320b f2bd 06ae a03e 96f7 3e3e
00000110: ebd6 d9bc f483 c7bd 99a3 2b3d ad48 2c3e
00000120: 67bd 143e 9cac 52bd 409b 003d f4d2 28be
00000130: d75f afbd 8bb2 87bb 91db 8cbe 3534 0dbe
00000140: ee7c c6bd 0ef7 19bf 4dc0 90be ca4a e33b
00000150: 4c77 0abe 36df da3e 0568 f23d d719 a53e
00000160: 2d48 863e 0497 7bbd 03b5 be3d 0849 113e
00000170: 2740 e83d 593b 183e d540 88bd 6a1e 98bd
00000180: b607 973e 220b 9b3e 5e2a 02be 8ff3 273e
00000190: 0ce7 cabe 3ebb 8abd abe9 723d f061 6f3e
000001a0: 7e35 023e 5627 01bd a96f 2d3d 8d6c 853e
000001b0: ebe7 313e e19f d93e a7b7 ed3e 30dd dc3e
000001c0: 1935 8b3e d4d0 be3e d3c1 b83e 7a92 98be
000001d0: cef5 b8bd 9c13 bebd 6013 97bd 623c a0bd
000001e0: 4066 b0be baf5 d6be 9382 25be b47a 8fbe
000001f0: 0e98 5dbe 0eef d63d 810d 1c3e eee4 93be
00000200: cef2 993d d343 1a3e 5c1e 8a3e 2919 c33d
00000210: 7132 c4bc d765 be3e bc2d ef3e 3c4f a83e
00000220: 8e1b cd3c 394e 503e 8415 c53c 7739 023f
00000230: a6f4 eebd cca8 9dbd e3fb 8d3d adec 0d3e
00000240: 31e4 a3bd 7ac9 35be ef3e b3bd d2f2 e0bc
00000250: b9b2 2bbe f38e 69bd 17ad 3bbe 9e13 91be
00000260: c6b8 b0be 7b23 483d 94de 37bd af63 283b
00000270: 1ccc 803e fc3a 3ebe eab8 66be 9380 933e
00000280: fb76 5d3e 2611 51bd 515e aebe 6736 8a3d
00000290: 38b3 d03e e2f5 fb3e ce56 1abe 4b03 52be
000002a0: 94e9 ccbd 0e40 ca3e 4789 2dbe 93bf cbbe
000002b0: e4a0 04bf 0d73 3dbe 36ee 0bbd 56a6 7cbe
000002c0: 83c6 e4be ee19 583e b0dc 7d3e 7392 113e
000002d0: c712 293e 3a76 c8be 581b 62be 59bd 85bd
000002e0: 048b 193c dec9 1f3e 5e1e 403d b0a5 433e
000002f0: 6e0a 1dbe b6ac 7b3e 2ad8 ce3d 468c 773d
00000300: 7f28 3e3d 9fc1 67be 2bdc f03e c21c d0be
00000310: 3a75 9abe 05a7 c1be 0cb4 d9be e533 303e
00000320: 8cd3 b23e 1080 45bd f7c1 9e3e 37c7 fabd
00000330: 07e9 773d 8f55 003e 787d 49bd ade4 7c3e
00000340: a61b 5b3e ccfe 4ebd 9652 223e fff1 943e
00000350: 591e 43be 76bc ff3e 68eb a83e 233d dc3b
00000360: 73f6 55be 2437 e5bd c424 d83e 7bf5 5cbd
00000370: 665a dabe 31fa 7ebe c3eb c3bd c331 bbbe
00000380: fd03 55be 282b 5fbe 1e0f 053e 4d40 233c
00000390: fbed 733e e2f8 d23d 8491 e8be c893 cd3d
000003a0: 2a55 5ebe 1f78 76be e0e5 863e 4995 403d
000003b0: 480f cf3d de7d 8c3d e614 c23e f2b4 503c
000003c0: 5b43 783e b0d5 113f 445e a13d 5472 113d
000003d0: 3f23 003f 95b0 f8bd dcb7 a1bd ae6e 293c
000003e0: e05b 4ebd 6d5f 38be 0ffd dc3e f7e6 153f
000003f0: ceca 233e dc25 a93e fac0 9a3e 8fb8 acbe
0.1315063 -0.12222299 -0.3499434 -0.06765753 -0.11286608 0.13913682 -0.10454203 -0.47306126
0.034871027 -0.23498543 0.02963186 -0.08529328 0.0543208 -0.054878842 0.17649934 -0.047425628
0.2163217 0.068493254 0.13180938 0.630853 -0.06575669 0.09928708 0.30593416 0.28194904
0.13485771 -0.14158995 -0.23337415 -0.0061995946 -0.19210719 -0.04490375 -0.009864284 -0.15055536
0.16405751 0.029559935 0.19085075 0.21486826 0.12948923 -0.31713873 0.29907775 -0.37092012
-0.13634141 -0.08592652 -0.07646798 0.11844123 0.16222976 0.29101303 0.30195427 -0.026522929
0.28612006 0.1332188 -0.34794226 -0.15321675 -0.058357477 -0.31887338 -0.1382458 -0.28698802
0.11732329 0.2842029 -0.030602193 -0.018951949 0.36070314 0.08029147 -0.015390675 0.45100582
0.21046036 -0.118185416 0.3138277 0.18649134 -0.026591739 -0.09741965 0.041904066 0.16824599
0.14525376 -0.051434144 0.031398058 -0.16486722 -0.08563202 -0.004141157 -0.27511266 -0.13789447
-0.09691797 -0.601426 -0.28271714 0.006936406 -0.1352207 0.4274842 0.118362464 0.32246277
0.2622694 -0.061423317 0.09311869 0.14188015 0.11340361 0.1486639 -0.06652991 -0.07427676
0.2949807 0.3028193 -0.12711474 0.16401504 -0.396294 -0.06773995 0.059304874 0.23377204
0.12715718 -0.031531654 0.042342816 0.2605938 0.17373626 0.4250479 0.46429178 0.43137503
0.27188948 0.37268698 0.36085376 -0.29799253 -0.090312585 -0.09281084 -0.07376742 -0.07824017
-0.3445301 -0.4198435 -0.16163091 -0.28023303 -0.21640036 0.10494815 0.15239526 -0.28885597
0.075170144 0.15064935 0.26976287 0.09526283 -0.023949834 0.37187073 0.4671458 0.3287295
0.025037553 0.2034234 0.024058111 0.50868934 -0.11667757 -0.07698211 0.06932809 0.13859816
-0.080025084 -0.17752638 -0.08752238 -0.027459536 -0.16767396 -0.057021093 -0.18327747 -0.2833528
-0.3451597 0.04886196 -0.04489 0.0025694182 0.25155723 -0.18577188 -0.22531477 0.28809032
0.21627419 -0.051041745 -0.34056333 0.06748658 0.40761733 0.4921103 -0.15072176 -0.20509069
-0.10005489 0.39501995 -0.16946898 -0.39794597 -0.51808 -0.1850092 -0.034162723 -0.24672827
-0.44682702 0.21103641 0.24791217 0.14216022 0.16511069 -0.391527 -0.22080743 -0.06530256
0.009371523 0.1560435 0.04690396 0.19106174 -0.1533601 0.24577603 0.10099824 0.06043651
0.04642534 -0.22632454 0.47042975 -0.4064694 -0.30167562 -0.37822738 -0.42520177 0.17207296
0.34927022 -0.048217833 0.31007358 -0.122450285 0.060524967 0.12532638 -0.049191922 0.24696608
0.21397266 -0.050535962 0.15851817 0.29090878 -0.19054545 0.49948472 0.329921 0.0067211553
-0.20894794 -0.11192158 0.4221555 -0.053945046 -0.42647094 -0.24900128 -0.09566452 -0.36561403
-0.20802303 -0.21793807 0.12994048 0.009964061 0.23821251 0.10301377 -0.4542352 0.10037953
-0.21712175 -0.2406926 0.26347256 0.04701737 0.101103365 0.06859945 0.3790657 0.012738453
0.24244444 0.56966686 0.07879308 0.035509422 0.5005378 -0.12143055 -0.078963965 0.0103413295
-0.050380588 -0.18005152 0.43161818 0.5855555 0.15995333 0.33036697 0.30225354 -0.33734557

bias f4 [8]
00000000: d221 263e c93e ebbc c057 4ebe 317c 243e
00000010: 5b6a 22be 44a4 62bd 914f e4be a91e 58be
0.16223839 -0.028716462 -0.20150661 0.16063 -0.15860884 -0.055332437 -0.44591954 -0.21105446

weight f4 [8]
00000000: b8d4 813f 4301 af3f 7634 653f 8c2b 5a3f
00000010: f74e 763f c092 1d3f ac68 963f 4b97 643f
1.0143042 1.367226 0.89533174 0.852227 0.9621424 0.6155205 1.1750693 0.89293355

bias f4 [8]
00000000: 4fa9 943d e295 12be 5711 f0bd 5c0d 823e
00000010: 7fb7 13be 7cf5 f9bc ecc9 293b a615 933e
0.072588556 -0.14314988 -0.11722057 0.25400817 -0.14425467 -0.030512564 0.0025907708 0.28727454

running_mean f4 [8]
00000000: ffcd 0e3f c010 f63e 6333 6d3f 7bd0 743f
00000010: 67f0 433f c898 463f 8fc8 dd3e 01c3 a93e
0.55783075 0.48059654 0.92656535 0.95630616 0.765387 0.77576876 0.43317077 0.3315659

running_var f4 [8]
00000000: dd68 623f 6e18 873f a112 1540 d6dc 1040
00000010: ad0a c23f 7e0c c63f 5f80 7b3f 5672 333f
0.8844126 1.055433 2.329262 2.2634788 1.5159508 1.5472562 0.98242754 0.7009634

weight f4 [16, 8, 3, 3]
00000000: 53c2 a83e 9da9 36bc c9cf d6be f129 0cbe
00000010: e10f b8bb b48d 2dbe e671 d33e 30eb f2bd
00000020: 4e97 073d 7061 193f 986c c43e 6630 e8bd
00000030: 07d4 8dbc 03fb be3e 3c4a 14be 4c26 993e
00000040: 4316 0c3e 4f58 42be 2ddd a73d aa4f 81be
00000050: e72b e4bc 5966 dcbd 052b 1dbe 90d5 2abe
00000060: bb95 053e fcca b9be 13c4 23bf 4779 95bd
00000070: 96a2 f4bd c4ec 92bd 78fc 823e 1498 e13e
00000080: cf3b 11be ac0d d73d 4d4a 5dbe 510c 8cbe
00000090: f973 cebd c4ca c3bd 088f 4dbe 43de af3e
000000a0: a481 0f3e 0292 aabe 799b 713d b743 54bd
000000b0: 3253 24bf 7e1b f43c 8867 b53d 3723 04be
000000c0: 5c9d 98bd 5ea3 cd3d 9368 46be 3cb0 c03c
000000d0: 32b1 a63e 135b 173e dabe 213e 54fd d23c
000000e0: 525d 633e 6b9f f83c e1c5 123f a05c 06bd
000000f0: 7d31 f63e f2a5 c53e 825f f7bc 6411 ddbc
00000100: 4b11 38be 0271 27be 7209 cf3e b852 7ebe
00000110: 3796 31be e2c5 983d 103d 2dbe 97b3 80be
00000120: 8693 dabd 26d9 bfbc d6c4 1fbe 5220 a1be
00000130: 2c18 8bbe 9276 4ebe 631f 13bf 27e4 cbbc
00000140: 1a3f 86bd fd85 b93d c547 86bd 401c 64bc
00000150: 6daa 59be 5e97 7a3e a6fa 203d 2bc8 53be
00000160: f1f3 1f3e 662f 583b f294 9c3e fe11 933e
00000170: 8836 db3e 41c0 ebbd 3e7b c53c 27ad a83e
00000180: 5f8c 8ebe 376d 663d e567 e2bd 6bbf 233e
00000190: ca75 2fbd 21ec 89be 3b0a 31be d73d ae3d
000001a0: 8d06 07bd e870 8b3e d2b0 59be 9a37 d8bd
000001b0: 837d d33e 0ccf 183e ee10 193e 9e95 453d
000001c0: 76a0 ff3d 8f01 c7bc 72e4 c43d 8d67 b1bd
000001d0: 863d a73e a9e5 7abb d427 fa3d 9af5 3abe
000001e0: 679d d9bd f34f 213e acb9 ae3d bf9c b6bd
000001f0: 5759 68bd 7158 adbe 1c3d 793d b995 a5bd
00000200: 7723 703d 4c6e bfbe 8d07 b7be 211d cd3d
00000210: a740 b8be dfa4 48bd 499e 50bd b323 5fbd
00000220: 3160 83be 1e4a fa3e a77c 353d 32da f23d
00000230: bd92 e4bd 2922 0a3e 2324 c03e abe4 e63e
00000240: 24b5 393e 6bb6 a53d 0087 6f3d d9d3 a6bd
00000250: 1484 35be f814 0bbf 5adc 6f3d 3ba7 c23c
00000260: f600 d63d 91c2 9d3e d39c 7e3e f4e6 d53d
00000270: 2fe3 29be 2684 d3be 5e24 dabe 0d45 0e3e
00000280: 8e5e 013e dc92 e4bd 3eb5 4d3e b68f 8b3e
00000290: 3d26 593d f37a 94bd f85c 2f3e fc4c 713d
000002a0: a397 6cbc 5b0c efbd d2c7 3c3d 2464 7a3e
000002b0: 40b1 bd3d a76b c6bd 0138 20bd 222b 1d3e
000002c0: ce3f e9be 799e e7bd d49a f4be 5c60 66be
000002d0: 2068 3dbc 2814 323e b5e9 7a3e 1548 85bc
000002e0: 7a3e b7bd 56e2 293d eeb1 74bc a5c5 0bbd
000002f0: c603 81be a087 f83c d6ee d33d 0896 0c3e
00000300: 4f88 20be 6297 82bd afb6 603d d98e 6a3e
00000310: 03bf 273e 8085 0bbe 9b4f 20bd 2491 1d3e
00000320: 1009 703d 48da e3be d1a8 99be 2b81 aabe
00000330: 46f5 ecbe 3510 94be c859 77be 8fda 9c3e
00000340: 3763 073e c019 90be 4ad0 153d e4d6 f5bd
00000350: 4221 e4bd 5cde 9ebe 3d73 52be dec6 8bbe
00000360: 77f4 b0bc 9388 0e3e 17f3 02be 4e44 0c3e
00000370: 41c6 c43e 0320 83be 38d2 f73d 62f5 98bb
00000380: 678d 7fbe 93c7 4d3e 6ce7 4d3e 0677 723e
00000390: f96f cb3d ff35 a83d 7365 583e 3b46 483d
000003a0: c10e 1e3e 1bad 413e 197b bfbe bd9f 3dbe
000003b0: 9bad d23b 7266 963e 1ed2 413e 15e9 14be
000003c0: 3f3c b63d 330d 193e ae93 aebd bf8e 5dbe
000003d0: 5c52 1cbe feaf b7be 5b7e 3fbd ce54 1f3e
000003e0: f6a8 ab3d bbc1 10be 2da6 b1bd e2bb a5bd
000003f0: c795 8ebe b46f 883d f74c 06be 4532 243d
0.32960758 -0.011148837 -0.41955402 -0.13687874 -0.0056171273 -0.16948587 0.41297835 -0.11861265
0.03310328 0.599143 0.383641 -0.11337356 -0.017313017 0.37300882 -0.14481443 0.2991203
0.13680367 -0.18979 0.08196483 -0.2525609 -0.027852966 -0.10761709 -0.15348442 -0.1668303
0.13045399 -0.36287677 -0.6397106 -0.072985224 -0.11945073 -0.07174066 0.25583243 0.4406134
-0.14182971 0.105006546 -0.21610375 -0.27353147 -0.10080714 -0.09560159 -0.20074093 0.3434926
0.14014298 -0.3331452 0.05898616 -0.05182239 -0.64189446 0.029798266 0.08857638 -0.12904058
-0.07451889 0.100409254 -0.1937583 0.023521535 0.32557064 0.14780836 0.1579546 0.025755562
0.22203568 0.030349454 0.5733319 -0.032803178 0.48084632 0.3860317 -0.030196909 -0.026985832
-0.17975347 -0.16351703 0.40436894 -0.24836242 -0.17342459 0.07459618 -0.16917825 -0.25137016
-0.10672669 -0.023418974 -0.1560243 -0.3146997 -0.2716688 -0.20162418 -0.5746977 -0.024889065
-0.065550044 0.09058759 -0.06556658 -0.013922751 -0.21256419 0.24471804 0.039301537 -0.20681827
0.156204 0.0032987236 0.30582386 0.28724664 0.42815042 -0.11511279 0.024106618 0.32944605
-0.2784147 0.0562565 -0.110549726 0.15990989 -0.04283694 -0.26937965 -0.17289059 0.08507889
-0.03296523 0.27234578 -0.21258858 -0.1055748 0.41306695 0.14922732 0.14947864 0.04823839
0.12481777 -0.024292735 0.09613885 -0.08662329 0.32664126 -0.003828386 0.12214628 -0.18257752
-0.10625725 0.15753154 0.08531508 -0.08916616 -0.056725826 -0.33856538 0.060849294 -0.08085198
0.058627572 -0.37388837 -0.35747948 0.100153215 -0.35986826 -0.04898536 -0.050932202 -0.054477405
-0.25659326 0.48884672 0.04430833 0.11858024 -0.111608006 0.13489594 0.3752757 0.45096335
0.18135506 0.08091434 0.058478355 -0.081458755 -0.17726165 -0.5432887 0.058559753 0.023761382
0.10449402 0.30812505 0.24864511 0.104444414 -0.1659057 -0.4131176 -0.4260587 0.13893528
0.12633726 -0.11160824 0.2008867 0.2725808 0.053014982 -0.07250013 0.17125309 0.05891131
-0.01444045 -0.116722785 0.046089 0.24452263 0.092623234 -0.09688502 -0.03911591 0.15348485
-0.45556492 -0.11309523 -0.47774374 -0.22497696 -0.01156047 0.17390501 0.24503215 -0.016269723
-0.08947463 0.041475616 -0.014935 -0.034124035 -0.2519819 0.030338109 0.10348289 0.13729107
-0.15676998 -0.0637653 0.05486172 0.22906055 0.16381459 -0.13625145 -0.039138418 0.15387398
0.058602393 -0.44502473 -0.3001161 -0.33301672 -0.4628088 -0.28918615 -0.24155343 0.30635497
0.13221441 -0.28144646 0.036575593 -0.12003878 -0.11139156 -0.31029022 -0.20551772 -0.2730016
-0.021600945 0.13919286 -0.12788044 0.13697931 0.38432506 -0.2561036 0.12100643 -0.004667924
-0.24956284 0.20095663 0.20107812 0.23678216 0.099334665 0.08213424 0.2113245 0.048895102
0.15435316 0.18913691 -0.37398604 -0.18517967 0.006429387 0.29375035 0.1892781 -0.14542039
0.0889821 0.14946441 -0.085242614 -0.21636485 -0.15265793 -0.3587646 -0.04675136 0.15559694
0.08381836 -0.14136402 -0.08674274 -0.080924764 -0.27848646 0.06661931 -0.13115297 0.040087003

bias f4 [16]
00000000: f08f a3be 4315 4abe 0ff6 9abe d4a5 dabe
00000010: a018 573d 98cb d1bd 8711 b4bd 4012 36bd
00000020: 1742 9cbe ba71 efbe c8e8 f43d 94b1 ae3d
00000030: b3d4 e5bd 1076 3abe 0f98 20be edac 79bd
-0.31945753 -0.19734673 -0.30265853 -0.42704642 0.05251372 -0.102439106 -0.087924056 -0.044451
-0.30519173 -0.46766454 0.11958462 0.08529964 -0.1122221 -0.182091 -0.15683006 -0.06095593

weight f4 [16]
00000000: fbc2 a03f d93d 4b3f c9b3 a63f 0307 8b3f
00000010: 582c 623f 1d8b 433f db3d 683f 8ef3 873f
00000020: d240 4e3f ac83 6f3f a65b 443f 83d5 5c3f
00000030: bbf5 903f f57f 5d3f f994 943f 4e09 1b3f
1.2559503 0.7939125 1.3023616 1.0861515 0.88348913 0.76384145 0.90719384 1.0621202
0.8056766 0.9356029 0.76702344 0.86263293 1.1324991 0.8652337 1.1607963 0.6056107

bias f4 [16]
00000000: 4b38 163e 54bb 923e 8e51 633e f203 fdbb
00000010: d61b cd3e fc6f 89be 48cd 8dbe a7c3 e3bd
00000020: fac0 9c3e afc0 af3e 97bf ab3e 790b 053d
00000030: f705 3a3b e5f0 573d dbee 24bd 32f7 063f
0.14669912 0.28658545 0.2219908 -0.0077214176 0.400603 -0.2684325 -0.2769568 -0.11121302
0.3061598 0.34326693 0.3354461 0.032481644 0.0028384903 0.05271997 -0.040266853 0.5272094

running_mean f4 [16]
00000000: b304 1e3f 4dfd 0b3f b700 eb3e a758 a93f
00000010: 4eab be3f 1275 603f 0f9b 573f cce1 1c3f
00000020: b1b6 573f bcb2 683f 86c2 ab3f 92eb 5a3f
00000030: 9692 563f c8b9 033f db42 8a3e c402 743f
0.6172592 0.5468338 0.45898983 1.323018 1.4896028 0.87678635 0.84220976 0.6128204
0.8426314 0.90897727 1.3418739 0.855157 0.8381742 0.51455355 0.27004132 0.9531672

running_var f4 [16]
00000000: 5287 3f40 f574 b63f c1f9 583f 2d3e 3941
00000010: a9ff e13f 69d1 8640 49b1 2e40 3f73 523f
00000020: dc15 c440 03a1 c940 36bb c03f bc97 8540
00000030: 513e 4340 fbcf 0640 0e28 143f 2865 7540
2.9926343 1.4254442 0.84756094 11.57768 1.7656146 4.213063 2.7295706 0.822071
6.1276684 6.3009048 1.5057132 4.1747723 3.0506785 2.1064441 0.5787362 3.834299

weight f4 [32, 16, 3, 3]
00000000: 905b 07bd 5fe8 4ebe 2867 80be 010c 3139
00000010: 6a86 35bc 7864 393e 7e27 6e3e e2dd 6e3e
00000020: c1dd ae3e c4e1 87be e461 97be f6d4 86be
00000030: 243c 5d3d 3735 2a3d 3268 0bbe d320 4c3e
00000040: c85d bc3c 6feb 40be f603 2abe ea61 94be
00000050: 6ca1 a0bd 8f74 3f3e 2f7b 393c 2b19 923e
00000060: f3af b3bd 872b b6be 8521 e7bd 0fb4 743d
00000070: e4bd 96be ec65 a3bd ebc9 c9be 3ff0 f9bc
00000080: d5b1 05be 00ef 29bc f40b 0c3d d6a8 823e
00000090: f9eb fcbd f2da 1dbe 1cf5 473d 51d9 d23d
000000a0: aaee 663d bf9a b5bc cc5e be3d dcff 8fbe
000000b0: a4c4 5a3d 82cf c23b 6a45 193e 0219 5f3c
000000c0: 04f1 d13d 83eb d0bc c776 1d3d a4cc 223d
000000d0: 7cd0 6a3d 9a6b 783d 5b47 283e b754 803e
000000e0: 91e6 063e f2ca 54be d2bd 1bbe 7c92 4bbe
000000f0: ed1b a2be 021b ccbe 486b 31be a625 5a3e
00000100: 08df 07bd 402a 00be 0125 afbe 768d 8ebe
00000110: 65e1 2bbe f9aa d83c 171a d0be 179e 8bbd
00000120: 083b c93c a6eb d0bd 7fd7 06be 746d 8b3e
00000130: f59d 453e 55bb 5fbe 7f3c 483d e336 133e
00000140: 06cf 443e e1f8 3abe 6b91 7cbd 6923 34be
00000150: 08d3 28be bf4b bebd 0e2d 94be d04c 86bd
00000160: f848 44be 8c4c 8dbe 14aa 15bd 9596 2bbe
00000170: b49b 94be acbf 343d 8dbb c9bd 3cb2 3fbe
00000180: 4701 cd3d 97f9 a8bd be43 1bbe 3362 2e3e
00000190: 1b48 eebd 7234 a43d a807 19be bc98 aabe
000001a0: b0d2 82bd 31b2 fdbe afe7 c4bd 6ae9 2cbe
000001b0: 0616 42be e3b6 47bc 87e6 3bbd ae52 e1be
000001c0: c160 87be 76db 8ebe ca2b 70be bac4 00be
000001d0: a423 c0bd 3ad1 4f3e 922b bd3d 056b c9bd
000001e0: 5b96 d2be 2d99 05bd 752f a6be 004c c1be
000001f0: 666e 9bbe 6973 d3bd 8baa 5cbe a407 903e
00000200: a5d4 fd39 cef8 f43d ce97 703e 7c08 a13e
00000210: f86e 47be f60b d5be 605c d0bd 6bd1 1abe
00000220: 77b2 2abe 02c3 a0bd a778 87bd 79cf 813d
00000230: f626 42bd 1b16 193d cfd6 a13b 6d46 8f3c
00000240: a846 703e 9e9e 943d d78b 39be b759 fa3d
00000250: 76e4 84bc fb4e b8bd af7e bcbd 45b6 d5bd
00000260: 05c6 b83d e2b1 10be 95df ffbb 85db 903d
00000270: 212b 65be 3de2 3cbb 20bf 5ebe c63a 313d
00000280: 0dd1 6a3c 4300 de3d c25d 2ebd 3b30 20be
00000290: 64ca a1bc b635 17be 2924 08be a414 2fbe
000002a0: eabb 4dbe c812 88be 0e6f a53c 0cd8 573c
000002b0: 82c4 4c3e 0e09 e43d b77f 7a3e 96e3 db3d
000002c0: 99dc 313e 2ef8 debb cd37 ee3c b4e8 5d3d
000002d0: 8c07 633e eab9 88ba 74c7 1fbe c3ee 46bd
000002e0: cc98 e8bd a35f 18bd eae9 e73b 10ee c3bb
000002f0: c5f5 f43c d78d 28bd c1ae dfbd 0155 493d
00000300: d95f 9bbd 39f0 0d3e 5a4f bf3d e235 263e
00000310: 54dc 963e d120 8e3e 46d8 053e 4f7b b83d
00000320: df19 c43d fda5 713d b623 9bbe 2449 8abe
00000330: ba8b 1a3d 2c1d 1b3e d81f 033c 3e16 ad3e
00000340: c134 623e 2762 a43e 5a66 333e b56b efbd
00000350: bbbf 09be eed4 ac3d e4b0 3f3e 9833 4e3e
00000360: 2eca 6d3d 0b14 f23d 5db5 4e3e 7b5c d4bd
00000370: eaf8 6bbc 7241 423e 0d13 8e3d e76d cdbd
00000380: 5a5c c9bd 7b2a 053d a0c6 9e3c d68c 783c
00000390: 1929 093e 3856 e53d df6b 07be d40a a83d
000003a0: 5b17 89bd 8184 113e e64f eabc 292b 703d
000003b0: 1fb3 173e ebb3 103e 649f e03d 49f2 06be
000003c0: f0e0 023e 9d3a 923e 9ff7 03bd af85 bc3d
000003d0: ba3b 1b3e c62c 453d 5e0a 723d 4a81 213e
000003e0: 1816 e7bd 160f 1d3e def9 193e edaa bebd
000003f0: 21e3 173e ce38 c33e ccf2 af3e 248b e2be
-0.033046305 -0.2020583 -0.25078702 0.00016884507 -0.01107941 0.18104732 0.23257253 0.23326829
0.3415356 -0.26539433 -0.29566872 -0.2633435 0.054012433 0.041554656 -0.13613966 0.19934396
0.022993937 -0.18839811 -0.16603073 -0.28980953 -0.07843289 0.18696807 0.011320873 0.28534827
-0.08773794 -0.35580084 -0.1128569 0.05974203 -0.2944175 -0.079784244 -0.39411864 -0.030510066
-0.13056119 -0.010371923 0.034191087 0.25519437 -0.12349696 -0.15415552 0.04881774 0.10295356
0.05637995 -0.022168515 0.09295425 -0.28124893 0.053410187 0.005945147 0.14967886 0.013616802
0.10251048 -0.025502926 0.038443353 0.03974594 0.057327732 0.06064949 0.1643347 0.25064632
0.13173892 -0.20780542 -0.1520913 -0.19880098 -0.3166193 -0.39864355 -0.17326081 0.21303424
-0.033171684 -0.12516117 -0.3420792 -0.278423 -0.167852 0.026448714 -0.40644905 -0.068172626
0.024564281 -0.10201196 -0.13168143 0.27231944 0.19298537 -0.21848805 0.04888582 0.14376406
0.19219598 -0.18259002 -0.06166212 -0.17591633 -0.16486752 -0.09291791 -0.28940624 -0.065576196
-0.1916846 -0.27597463 -0.036539152 -0.16756661 -0.29025042 0.044128105 -0.098502256 -0.18720335
0.10010009 -0.082507305 -0.1516256 0.17029648 -0.11634847 0.08017816 -0.14944327 -0.33319652
-0.06387842 -0.49550012 -0.09614503 -0.16885915 -0.18953714 -0.0121896 -0.045874145 -0.44008392
-0.26441005 -0.2790181 -0.23454204 -0.12575045 -0.09381798 0.20294657 0.09236826 -0.098348655
-0.41130337 -0.032616783 -0.32458082 -0.37753296 -0.30357665 -0.10324747 -0.21549432 0.2813083
0.00048414353 0.11961518 0.23495409 0.31451786 -0.19475925 -0.41610688 -0.10173869 -0.15118949
-0.16669641 -0.07849695 -0.066148095 0.063384004 -0.047400437 0.037374597 0.0049389373 0.017489636
0.23464453 0.07256816 -0.18119751 0.12224143 -0.01622222 -0.08999439 -0.092038505 -0.10435156
0.09022144 -0.14130357 -0.0078086355 0.0707312 -0.22379734 -0.0028821372 -0.21752596 0.04326894
0.014332068 0.10839894 -0.042569883 -0.15643398 -0.019749828 -0.14766583 -0.13295044 -0.17097718
-0.20091215 -0.2657683 0.020194557 0.013174068 0.19996837 0.111345395 0.24462782 0.10736768
0.17369308 -0.0068044877 0.029079342 0.054177 0.22170848 -0.0010431383 -0.15603429 -0.048567545
-0.11357269 -0.03720058 0.0070774453 -0.005979307 0.029902348 -0.041150894 -0.109220035 0.04915333
-0.07586641 0.13861169 0.09341307 0.16231492 0.29464972 0.27759412 0.13070783 0.09007894
0.09575247 0.05899619 -0.30300683 -0.27008927 0.03773091 0.15147847 0.008003198 0.33806032
0.22090437 0.32106134 0.17519513 -0.11690465 -0.13452046 0.084390506 0.18719822 0.20136869
0.05805414 0.11820229 0.20186372 -0.10369202 -0.014402607 0.18970278 0.069372274 -0.10030728
-0.09832068 0.032511216 0.019381821 0.015170297 0.13394584 0.111980855 -0.13224743 0.0820519
-0.06693908 0.14210702 -0.028602552 0.05863491 0.14814423 0.14131133 0.10967901 -0.13178362
0.1278112 0.28560343 -0.03221857 0.092051856 0.15159503 0.048138402 0.05909192 0.15771976
-0.11283511 0.15337786 0.15036723 -0.09309945 0.14832737 0.38129276 0.34364927 -0.4424678

bias f4 [32]
00000000: e88e 4cbe 4304 e2be 7b74 973d e265 60be
00000010: 4fb3 893d b0b7 c1be a675 11bf db38 5cbe
00000020: 7d80 433e e4b6 9dbd 2a1a 52be 6391 a0be
00000030: c670 82be 6788 a0bd c2fe 8cbe 7a33 34be
00000040: 112e e33d 149a e7be 56b4 263e 4bec 27be
00000050: ddf9 13be d9b2 9cbe dfc7 78bc d929 abbe
00000060: de42 b9bc 744d 91be 35db 8b3c ef9f b73c
00000070: cf29 07bf 5142 11be dd25 8bbe f13c ee3d
-0.1997639 -0.44143876 0.07395264 -0.21913865 0.067236535 -0.37835455 -0.5682014 -0.21506064
0.19091983 -0.07700899 -0.20517793 -0.3136092 -0.25476664 -0.07838517 -0.27538115 -0.17597762
0.11092771 -0.4523474 0.1627973 -0.16398732 -0.14450784 -0.306052 -0.015184372 -0.33430365
-0.022614893 -0.28379405 0.0170723 0.02241513 -0.5279817 -0.14185454 -0.27177325 0.116327174

weight f4 [32]
00000000: 15c8 7c3f 8f6b 823f c1de 803f 2998 5e3f
00000010: 859b 4e3f 0eaa 873f bd64 7c3f bcf2 8d3f
00000020: 8b4c 5b3f 0211 2d3f e5e5 893f 6e8a 883f
00000030: 0566 703f efdc 9a3f 584c 853f 846c 683f
00000040: f2cd 4e3f e63d 823f 70c5 823f fc03 653f
00000050: fc9e 8c3f b085 ab3f f696 593f 6d96 5c3f
00000060: a246 1f3f 00b6 923f 8bc7 3d3f b92e 4b3f
00000070: 7bd9 973f 1112 803f 343e 843f d8a3 363f
0.987428 1.0189074 1.0067979 0.8695093 0.80706054 1.0598772 0.98591214 1.1089702
0.8566367 0.67604077 1.0773283 1.0667245 0.9390567 1.2098674 1.0413923 0.9079058
0.80783 1.017514 1.0216503 0.89459205 1.0986018 1.3400173 0.84995973 0.8616703
0.6221715 1.1461792 0.74132603 0.7936817 1.1863245 1.0005513 1.0331483 0.71343756

bias f4 [32]
00000000: d517 6fbd c884 d43e a98a d43e e223 033e
00000010: bc8c bd3e b215 a1be cfc0 fd3e 04bb 3abc
00000020: dfb6 af3e df41 1f3e 5e4d 48bd 7e16 083f
00000030: 5016 f6bd d1af f43e edd7 e53e d220 d0be
00000040: f1b0 b93d 1515 323f b441 1c3f 8502 2bbe
00000050: ecf7 2ebe 75ea f83d ead4 de3e df68 023f
00000060: c071 053f 5d09 053e 339d ecbd 3ca9 bb3d
00000070: cd2b af3e beb7 09bc fed7 993d 1ba9 b63e
-0.058372337 0.41507554 0.4151204 0.12806657 0.37021434 -0.31461865 0.49561164 -0.011397127
0.34319207 0.15552472 -0.048901908 0.5315932 -0.120159745 0.47790387 0.448913 -0.4065004
0.09066952 0.6956342 0.61037755 -0.1670018 -0.17086762 0.12154094 0.43521816 0.5094127
0.52126694 0.12991853 -0.11553421 0.09163138 0.34213105 -0.008405624 0.075119 0.35675892

running_mean f4 [32]
00000000: 0f8d 493f a703 0c3f 8ee8 e73f b5d6 643e
00000010: 3ef3 2040 c945 fd3d 5ac2 243f 88f9 d53e
00000020: 0545 0440 8e3d 4f3f f62c 023f 754d 143f
00000030: 7bd6 493f f293 163f 94dc 643f 8fbf db3f
00000040: 3550 733f 1f32 2e3f a5f9 d73f 517a 043f
00000050: cd14 1e3e 3f05 253f b8b4 813f b536 023f
00000060: 6161 0240 f126 533e 8e54 c33f 89bb 963f
00000070: 71d6 153d b1e8 453f aa06 943f 4171 1340
0.78730863 0.54693073 1.8117845 0.22347529 2.5148463 0.12366826 0.64359057 0.4179194
2.0667126 0.809533 0.50849855 0.5793069 0.78842896 0.58819497 0.89399076 1.7167834
0.9504426 0.6804523 1.687306 0.5174914 0.15437622 0.6446113 1.0133276 0.50864726
2.0371935 0.20620324 1.5260179 1.1775981 0.03658146 0.77308184 1.1564534 2.3037875

running_var f4 [32]
00000000: 5a98 9e3f dddb 1740 3935 7840 5e31 613f
00000010: f2a8 f740 e259 b23e 7f3b 8b40 85a0 c83f
00000020: e650 ad40 b9e1 5840 3397 2340 4654 fd3f
00000030: e695 de3f f537 1d40 792a 5e40 2279 a040
00000040: 9079 8f3f 3e63 9340 9d7b 4440 1190 3440
00000050: 967c db3e 5289 bf3f 8c5b e23f 0154 5f40
00000060: 3317 8e40 6e65 1e3f d937 8540 c6e7 ec3f
00000070: 7e91 cf3d 738b 0c40 0128 9940 6376 5441
1.2390244 2.3727944 3.8782485 0.87965953 7.739373 0.348342 4.3510127 1.5673987
5.4161253 3.388777 2.5561035 1.9791343 1.7389495 2.4565403 3.4713423 5.0147867
1.1208973 4.6058645 3.0700448 2.821293 0.4286849 1.4963782 1.7684188 3.4895022
4.440332 0.6187352 4.1630673 1.8508232 0.10135172 2.1960113 4.7861333 13.278903

weight f4 [64, 32, 3, 3]
00000000: 2a95 1ebd a3d6 0b3e 9f79 8bbd cc14 42bd
00000010: bf7b 80be 18e6 a03d 4b01 11be 36e3 fb3c
00000020: 44e1 4cbe 3b09 c9bd 31ce 57be 479b ed3c
00000030: 98cc b13d 3a05 e53c bca9 053e 88b8 22be
00000040: 7ee2 24be f403 d9bd edd1 68bc 7840 2abd
00000050: 006b 033e b33b dab8 2514 6ebd 3b20 483e
00000060: bb42 113e 876a 96bd 7adf 503e afc5 8bbe
00000070: 920a 0cbe b022 debc a1a4 24bd db20 ddbc
00000080: 2241 15bd dc37 03be 68ad 703e dd91 c3bd
00000090: e08f 143e 7d77 b5bd a8c8 64bd 6131 88bd
000000a0: 4b41 9abc d6cc 18bd c5fa 69bd be3a 45bd
000000b0: a37f bebd 33c5 80bd d849 f43d 3e5e 253d
000000c0: 98b8 d33d 3c4a 4fbd e9f4 5e3d 5a8a 153d
000000d0: c5e6 c0bd c5d0 ec3d 2df3 dbbd 42e1 653d
000000e0: 3ee5 8bbd 70ac 27bd de6e 913d b91a 8b3c
000000f0: 34a6 3d3d b086 61be cc81 72bd 1ca1 06be
00000100: 2e5e a9be 9f59 46be df89 50be 55b9 3bbd
00000110: c90e 87be ff5c bebe b8fc f0bd 438b 3ebe
00000120: 8a2b 3cbe 30cc a5bc 6542 98bd d151 83bc
00000130: d7e7 343d 3e7a 27bc e5ee e8bc 0f58 e53d
00000140: b2cc 3a3e 89c8 d2bc 8cf3 043e 61c2 8b3c
00000150: 27cb 0bbd ed12 873c 4072 3fbe 97db 0cbe
00000160: 7cc5 a43a e3de 93be a559 c3be 03bc b5be
00000170: 6960 11be f28a f8bd 1ca6 27be a73e 14bc
00000180: ab98 92be 550e 39be a3a2 b6bd bea0 f13d
00000190: ebaa c93d b470 9f3d 23a9 493d 2ac9 fc3d
000001a0: 481c cc39 0819 bfbd 9f6a 293e 46bc 43bc
000001b0: b41c 513e fcc8 03be 43dd af3d e1bb ca3d
000001c0: 04db 753e 7512 7e3e 258f dcbd 7f4a 54be
000001d0: 1aef 1dbe d0c0 0c3e 0bca 8d3d e163 4f3d
000001e0: 07db c8bd 506b 953d b03c 88bc c600 09bd
000001f0: 9a92 ca3d 73dd 8abd 3e1b 233e 93c3 3e3e
00000200: 30bd e93d e7bc 493c 31fd e63d bcc0 e4bd
00000210: 60a1 15be 921c 09be af0f 66be 5880 4d3c
00000220: 32bb bbbc 3c18 6bbc 933c e73d 3e1c d43c
00000230: 8d1d da3d 12ec c0bd 850a 6dbe b15e 2ebe
00000240: e01d 983d a2b2 1e3d bdbe cf3c 1631 29be
00000250: 7fdc 593b 6b16 353d b356 813d 6f17 853d
00000260: 9149 eb3d 8b59 6a3c e5a9 be3d 365a 493d
00000270: 0be0 b2bd 98bb 0cbc 5d41 943d 5001 f63c
00000280: 2783 ef3c 9e5b 013d 8233 b5bd dd9b 8abe
00000290: ec27 cebd cc73 d93d a575 94bd 7030 16bc
000002a0: 9893 c23d 8829 df3d 6620 243e 17c3 893d
000002b0: b272 0d3e 1b1c 50bc ab18 e6bd bf3c 7b3d
000002c0: 4f9c efbd 4e15 91be a2e0 b7bd 886a f8bd
000002d0: b051 53be cd7f 92be 2cc4 b5be c64b 85bd
000002e0: 5514 503d 42ac 19be 57d7 51bd 91dc c1bd
000002f0: 5eb9 a0bd da5b 373e c771 7b3d 9313 373e
00000300: 00f6 c83d da63 2d3e e889 313e efec 3fbe
00000310: 6c2f 15be bbe7 82be 225d ef3c ff90 7e3d
00000320: b730 1fbe 106f 963a 6bb6 87bc cd9a 103e
00000330: 5594 8f3d b5de 0d3e 7501 483e eec1 44bd
00000340: f0dc 783b 37c3 43bd 4845 06be 9560 8c3c
00000350: 295e a93d 9a4d 4d3c 9163 f53d e989 c83d
00000360: 77d8 373d d5d2 1fbe 5a74 71bd 9dee 353c
00000370: 62ae 323e a74b 253d 7122 473a b54c e8bd
00000380: 46e9 38be 4f34 13bd 7c57 59bb 5979 4cbe
00000390: 1959 713d 0bc1 033e b17a da3d 78cb efbd
000003a0: 1996 49be 2a82 b4bd 1fe1 56bd 52a0 69be
000003b0: f4b1 e1bd 6ff9 6e3d 2fd7 443d 2db0 2d3e
000003c0: 48fc 5ebc 36a1 41bd bb6f 4dbd 3e47 83bd
000003d0: 0f51 b7bd e267 eebd a125 cf3d 7e5b 8f3e
000003e0: a3e7 0f3c 5ec6 163e 1d6a 38bd 725b 103d
000003f0: d3c7 a7bd e6d6 993c 7872 0b3d 8e69 043d
-0.038716473 0.13656096 -0.06810307 -0.047383115 -0.2509441 0.07856387 -0.1416065 0.030747991
-0.20007807 -0.09816214 -0.2107475 0.029004706 0.08681601 0.027956594 0.1305303 -0.15890706
-0.16102025 -0.10596457 -0.014210206 -0.04156539 0.12833786 -0.0001040617 -0.05812468 0.19543545
0.14185612 -0.07344537 0.2039775 -0.27299258 -0.13675907 -0.02711615 -0.040196065 -0.026993206
-0.03643907 -0.12814277 0.23503649 -0.095493056 0.14508009 -0.08860681 -0.055855423 -0.06650043
-0.018829962 -0.03730472 -0.057123918 -0.048151724 -0.093016885 -0.06287613 0.11928147 0.04037308
0.10337943 -0.050607905 0.054432783 0.036508895 -0.09419016 0.11563257 -0.107397415 0.056123026
-0.06830834 -0.040935934 0.07101224 0.016980516 0.04630108 -0.22024035 -0.059205815 -0.13147396
-0.33079666 -0.19370125 -0.20365094 -0.045831043 -0.26378468 -0.37180325 -0.11766952 -0.18607812
-0.18375984 -0.020238966 -0.07434539 -0.016030224 0.044166412 -0.010222016 -0.028434226 0.111984365
0.18242148 -0.025730388 0.12983531 0.01706046 -0.034129288 0.016488517 -0.18695927 -0.13755642
0.0012571062 -0.28880987 -0.3815433 -0.35495004 -0.14196934 -0.12135877 -0.1637196 -0.009048141
-0.286321 -0.18071873 -0.08917739 0.11798237 0.09847053 0.07785168 0.049233567 0.123430565
0.00038930983 -0.09330946 0.16544579 -0.011946743 0.20421106 -0.12869638 0.08587124 0.09899116
0.24009329 0.24811728 -0.1076949 -0.20731543 -0.15423241 0.13745427 0.06923302 0.05063236
-0.09807401 0.07295859 -0.0166305 -0.033448003 0.09891243 -0.06780519 0.15928361 0.18629293
0.11413038 0.012313104 0.11278761 -0.11169574 -0.14612341 -0.13389805 -0.2246692 0.012542807
-0.02291641 -0.01434904 0.112908505 0.025892373 0.106501676 -0.09420027 -0.23148544 -0.1702831
0.07427573 0.038744576 0.025359506 -0.16522631 0.0033242998 0.044210833 0.06315365 0.0649861
0.11488641 0.014303575 0.093097486 0.049158297 -0.08734139 -0.008589648 0.072390296 0.030029923
0.029237343 0.031581514 -0.08847715 -0.2707204 -0.10066208 0.106177896 -0.072490014 -0.009166822
0.095008075 0.10896593 0.16027984 0.067266636 0.13813284 -0.012702013 -0.11235174 0.06133723
-0.116997354 -0.28336567 -0.08978392 -0.12129694 -0.2063663 -0.2861313 -0.3550123 -0.06508593
0.05080064 -0.15007117 -0.051230755 -0.09465898 -0.07847856 0.17906132 0.061387803 0.1787856
0.09812546 0.16932622 0.17337763 -0.18742727 -0.14568871 -0.2556742 0.029219214 0.062149998
-0.15545927 0.0011477191 -0.016566476 0.14121552 0.07010714 0.13854487 0.19531806 -0.04803651
0.0037973486 -0.047793593 -0.13112366 0.017135898 0.08269913 0.012530709 0.119818814 0.09791929
0.04488417 -0.1560777 -0.058948852 0.011104253 0.17449334 0.04035535 0.000759638 -0.11342756
-0.18057737 -0.035938557 -0.0033163717 -0.19968165 0.05892286 0.12866609 0.10667933 -0.117087305
-0.19686164 -0.08813889 -0.052460786 -0.22815064 -0.1102027 0.058343347 0.048056778 0.16961737
-0.013609953 -0.047272883 -0.050155383 -0.06410073 -0.089510076 -0.11640908 0.10114599 0.2799949
0.008783254 0.14724109 -0.045023073 0.03524346 -0.0819241 0.01877923 0.034044713 0.032327227

bias f4 [64]
00000000: 3bcc 8c3e f0f9 a7bd 49f9 3bbe 32a7 10be
00000010: e4fe 45be 87aa 26be 1d10 48be 4e04 c8bd
00000020: 01d7 db3d a527 26be c868 0fbe 8d66 19bd
00000030: d0f2 b53d 0e8e 153d b1e3 46be ce79 a4bc
00000040: b2ac 203e 987b dabe ff41 203e 9e73 e93c
00000050: c765 72be 05a2 683d 8d1c 9f3e 5383 dcbe
00000060: 9c96 99bd 1bb7 8bbe 13cb 123d 7944 af3e
00000070: 4b73 203e 2b18 a3be 6c9d afbe 6529 8dbd
00000080: 3f8a 4fbe d34d 85be ace7 cc3d 8e08 a1be
00000090: ef85 b23e 43e6 fd3d b878 e8be 3169 a4bd
000000a0: 6802 10be cc5c 89bd 3ac4 bd3d 72da a23e
000000b0: b1ad 55be 06c7 9e3e e7c3 98bd ab71 cfbe
000000c0: 9e58 4bbe 5d5e e73d 0719 fcbc eeb9 babe
000000d0: d5b6 913e 022c 54be 12cd a73e a9f9 c33e
000000e0: c04e 6fbe ac0f 47be f75e fcbd 2ff3 9b3e
000000f0: 7c11 b2bd df80 083e d121 d9be 777c 943d
0.27499565 -0.08201969 -0.18356813 -0.1412628 -0.19335514 -0.16275989 -0.19537397 -0.09766446
0.10734368 -0.1622606 -0.14004815 -0.037451316 0.088842034 0.036512427 -0.19422795 -0.020077612
0.15690878 -0.4267242 0.15650176 0.028497513 -0.23671637 0.05679514 0.3107647 -0.43068942
-0.074994296 -0.27288136 0.035838198 0.34231928 0.15668981 -0.31854376 -0.3429979 -0.06892661
-0.2026758 -0.26035938 0.100051254 -0.3145184 0.34867808 0.123974346 -0.454046 -0.08027876
-0.14063418 -0.06707153 0.09265943 0.31807286 -0.2086704 0.31011218 -0.074592404 -0.4051641
-0.19858024 0.11297295 -0.030773653 -0.36469978 0.28459802 -0.20719913 0.32773644 0.38276413
-0.23369884 -0.19439572 -0.123228006 0.30458972 -0.08694741 0.1333041 -0.42408612 0.07250302

weight f4 [64]
00000000: 50aa 733f 6b0e b63f b68e e43f fe41 d63f
00000010: 2977 c53f b6ce bc3f 4f84 d73f 9c50 ca3f
00000020: 1d86 933f 31d6 a13f 4e21 c73f f612 c33f
00000030: cfe8 993f 9c15 903f c6e2 2d40 38c8 a73f
00000040: 1a70 a83f d81c 0940 984a b13f 62fc 6e3f
00000050: ceed 0e40 746c 903f b42c 7d3f 5539 2140
00000060: 0d37 a13f 1dfa 2b40 c9ec ba3f 0bf6 8c3f
00000070: c45d 8e3f fa5d 0540 8dd3 1f40 5b58 ba3f
00000080: 10a8 1e40 3fdb 1a40 e29d b63f 2eb0 0340
00000090: 662b 863f 493a 8e3f 87f1 1240 45db af3f
000000a0: 03d6 dc3f 927a bb3f 6997 a03f 7f98 803f
000000b0: feb8 cb3f 950c 893f 4780 c23f aec5 0e40
000000c0: 5e5b d33f be8f 9a3f b2ff ce3f 8435 1540
000000d0: 0bfb 903f 55ae b73f 7e0b 7a3f 73fc 953f
000000e0: 772a e43f ec21 f13f 5728 1f40 4baf 7c3f
000000f0: 3286 d83f a482 b53f d4ff bf3f d081 a83f
0.9518175 1.422315 1.7856052 1.6738889 1.542699 1.4750583 1.6837252 1.580585
1.1525303 1.2643491 1.5557039 1.5240161 1.2024173 1.1256595 2.7169662 1.3107977
1.3159211 2.1423855 1.3850889 0.93353856 2.2332644 1.1283097 0.98896337 2.5191243
1.2594925 2.6871407 1.4603511 1.1012586 1.1122365 2.0838609 2.497287 1.4558214
2.4790077 2.4196317 1.4266932 2.0576282 1.0481994 1.1111537 2.2959917 1.3738791
1.7252811 1.464678 1.2546207 1.0046538 1.591583 1.0706965 1.5195397 2.2308154
1.6512258 1.2075117 1.6171782 2.3313913 1.1326612 1.4350077 0.97673786 1.1717666
1.7825459 1.8838477 2.4868371 0.98704976 1.6915953 1.4180493 1.4999948 1.3164616

bias f4 [64]
00000000: 1c7f 72be 6cae 263e 86df 683e a3ee 593e
00000010: 6a53 3f3e 0342 293e e5e9 803e 89fc 7a3e
00000020: 70a7 78be 1a5a c4bd 9df8 573e 5a48 103e
00000030: 62b7 58be a24b 843b 3122 ef3d 3851 453d
00000040: 6d99 35be 2836 63bd 4865 0cbe 03db 973c
00000050: 7908 2e3d 21dc 51be 83ed 70be 0091 20bc
00000060: 8766 46be e583 793d 6a59 243e fba2 3cbe
00000070: ff71 dcbd 6568 03bd 0c9a 663d 05cd 0d3e
00000080: 681b 39bd 6979 d3bc 9c9f 7bbe e4cc 57bd
00000090: c289 85be 5d5d 5abe f21b 2fbd bcbb bc3d
000000a0: 04ff 3c3e fd2f 69be 1b18 80be ad43 8ebe
000000b0: c80e 3b3e 7fed 39be b63e 143e 96b4 62bd
000000c0: e1b7 04be 6028 263e 06d0 3b3e ea67 6cbd
000000d0: 19a7 7abe 0648 c23d 62e4 5fbe d5e0 55be
000000e0: b685 89bd 4b79 693e b1ae 80bd f100 86be
000000f0: 72e8 693e 20b2 00be 311b fe3d d00f 28be
-0.23681301 0.16277474 0.22741517 0.21282439 0.18684164 0.16529088 0.25178447 0.24510397
-0.24282622 -0.09587498 0.21090932 0.140901 -0.21163705 0.0040373364 0.11676443 0.04817316
-0.17734309 -0.05547157 -0.1371051 0.01853705 0.04248855 -0.20494129 -0.23528104 -0.009800196
-0.19375049 0.0609168 0.16049734 -0.18421547 -0.107639305 -0.03208198 0.056299254 0.1384774
-0.045192152 -0.025814729 -0.24572605 -0.052685633 -0.26081663 -0.21324678 -0.04275126 0.09215495
0.18456656 -0.22772212 -0.2501839 -0.27786008 0.18267357 -0.18157004 0.14477047 -0.055348
-0.12960769 0.1622634 0.18341073 -0.057716288 -0.24477805 0.09486394 -0.21864465 -0.20886548
-0.067149565 0.22800176 -0.0628332 -0.26172593 0.22842577 -0.1256795 0.1240753 -0.16412282

running_mean f4 [64]
00000000: 325b e53f 0d6e da3f 3682 383f a77c 4b3f
00000010: e4f4 993f 6f27 483f aac3 9c3f 8999 9f3f
00000020: 8438 623e e741 263f 06ae 343f 3061 613f
00000030: b22b ec3f dee4 c53f f862 c93d 7a2e 623f
00000040: eba2 543f 62c2 913d 99a9 b23f 2319 0540
00000050: 2bb4 363e 3cce 8b3f 9474 0f40 09bb a33d
00000060: 1170 4d3f 209d 763d 2fe9 813f e68a 0f40
00000070: 7118 b13f ae13 4f3f 9e70 fc3d 68ea 9a3f
00000080: ee55 853e c51e 4e3e 2b36 5e3f e42d 0b3e
00000090: a54c 0f40 c108 893f fc01 dc3d 78bd 5c3f
000000a0: e77c 813f 06c9 8d3e 76aa a83e e7f2 ed3f
000000b0: 1b83 423f 5dd5 ec3f 2326 963f 9c9d cd3d
000000c0: afff 863e e758 6040 5456 653f 390a 193d
000000d0: 51fd 0240 6f4d 643e d432 0640 0e8d d63f
000000e0: 966b 913e 2071 9e3f f674 693e cf75 0b40
000000f0: da13 8c3f 0c9a c23f 76ef dc3d 983b 4b3f
1.7918456 1.7064835 0.72073686 0.7948708 1.202786 0.7818517 1.2247212 1.246873
0.22091872 0.6494431 0.7057804 0.8803892 1.8450835 1.546047 0.0983333 0.8835217
0.83061093 0.07117154 1.3958007 2.0796592 0.17842166 1.0922313 2.2414904 0.079946585
0.80249125 0.06020844 1.0149287 2.2428527 1.3835584 0.80889404 0.123261675 1.2102785
0.26042122 0.20128925 0.86801404 0.13591725 2.239053 1.0705796 0.10742566 0.86226606
1.0116242 0.2769243 0.3294255 1.8589753 0.759813 1.8502613 1.1730388 0.10039827
0.26366946 3.5054262 0.8958485 0.037363265 2.0467112 0.22295164 2.0968523 1.6761796
0.28402394 1.2378273 0.22798523 2.1790655 1.0943558 1.5203261 0.10787861 0.7938781

running_var f4 [64]
00000000: c4c1 8b40 f4c2 c340 d07d 2040 3a86 3740
00000010: ceb6 9f40 2a8b 3d40 8398 8e40 6b91 9640
00000020: 457a 673f 7f93 9640 7e64 0240 98e4 2040
00000030: 0ce5 4a41 672d 1641 1dab 1d3f 8470 4d40
00000040: 67fe 2940 8cca 033f a420 7c40 dcfc d040
00000050: fcdd 9b3f fcab af40 d838 1141 c716 183f
00000060: 655c 2040 9f0e c13e b59c 4740 9204 9040
00000070: 8fa1 6a40 42eb 2341 73ea 453f e1ec b740
00000080: ead3 0140 21d9 b33f d5d1 6b40 1cc7 6f3f
00000090: f7f4 b340 0c6c b340 484f 833f 0c0e 6940
000000a0: 838e 5b40 feaa 8a3f 2134 473f 0477 a840
000000b0: bc4b 2840 885a 9b40 0c50 9340 4195 513f
000000c0: 4c35 c83f d254 6741 6aec 4d40 abf9 763e
000000d0: 5350 aa40 f484 443f 77c8 b340 41e3 7e40
000000e0: 2f01 f83f 659a a540 2128 c73f 8325 b740
000000f0: 94fa a140 6e2e 8940 bd4b 083f 4dac 9e40
4.367403 6.117548 2.507679 2.8675675 4.991065 2.961619 4.456117 4.705251
0.90420943 4.705505 2.0373836 2.5139523 12.68092 9.386085 0.61589223 3.2099924
2.6561525 0.51480937 3.9394922 6.5308666 1.2177119 5.489744 9.076378 0.59409755
2.5056393 0.37706468 3.1189396 4.500558 3.6661108 10.244936 0.77310866 5.747666
2.0285592 1.4050637 3.6846821 0.9366319 5.623653 5.6069393 1.025857 3.6414824
3.4305732 1.0833433 0.7781392 5.2645283 2.6296225 4.854801 4.6035213 0.8186837
1.5641265 14.458208 3.2175546 0.24118678 5.322305 0.7676537 5.618221 3.9826205
1.9375361 5.175097 1.5559121 5.723329 5.061838 4.2869177 0.5324057 4.958533

weight f4 [3, 64]
00000000: aea3 42bd f7d9 ac3d e404 d33e 9c6f be3e
00000010: f4f5 873e 9bde cb3d 56a5 5e3e c829 4b3e
00000020: 0276 b03d 1b29 d73d b644 a63e 7029 313e
00000030: e0e9 843d f153 db3d 6928 4fbf 54cd 893e
00000040: d9ac 96be 2dfe 19bf 9e4f c5be d6e4 133c
00000050: 6107 36bf c0af d9bc bd47 29bd 27d4 6abf
00000060: c8e3 85be 631c 5bbf 0616 153e e4f0 2abe
00000070: 31a6 3ebe 4058 3abf ee1d 8abf da63 c13e
00000080: bb64 83bf 191b 7abf abf6 3cbe b6cb 40bf
00000090: 1ae3 11bd b9c1 e5bd 748e 6bbf 8136 bb3e
000000a0: 7006 b73e 2ce4 7dbd 6dff 08be 7712 efb8
000000b0: 3b71 b13e 9135 44be 1f1c 6b3d b9e5 2bbf
000000c0: fa97 13bf 0aad fe3d 24d3 be3e bc07 71bf
000000d0: 8f5c ddbd da46 b23e f7ee 40bd e4db 92bd
000000e0: a570 08bf 65af bb3e 30aa 85bf 1099 f9bc
000000f0: 0fd2 833e c7df 8abe fa05 71be ccd0 f3bc
00000100: 7ac1 253e 8503 fabe 569c 85bf 954c 4dbf
00000110: 87cd 56bf ac9a ebbe 2638 70bf 0ac3 3cbf
00000120: 4331 a43e b330 cb3d 07f5 4cbf fd5e 21bf
00000130: d432 3d3e 1bc9 333d 2882 cc3d 4f96 3abe
00000140: b5fb ab3e e08c 893e b745 943e d2e0 223d
00000150: 6aca 673e be70 9e3e 5625 2c3e 8154 093e
00000160: b93c 8f3e 21ca 973d 1c6e 17bf ef6e 913e
00000170: 9049 793e a48a 7f3e a0f0 033e 4268 2dbf
00000180: c9c2 983e 3e87 cd3e 8533 d63e a3f7 883e
00000190: 3160 803e fe68 513e 7473 9d3e b822 0ebf
000001a0: f690 72bf 7c5d eb3e caa2 983e 81ed 893e
000001b0: 53eb 51bf be6e 5f3e c7ec 28bf e2aa 923e
000001c0: e54a f33e 3b9d c4be 3777 35bf 8b51 6c3e
000001d0: d17d a03e d577 2cbf 736a 5a3e 1798 b43e
000001e0: 8471 c23e 71c8 86bf 3dc8 c13e 9143 543e
000001f0: 8127 7cbf 2cf6 f13e 9752 ebbe af89 a03e
00000200: 301b e0bc e580 753e d3e0 3f3e 539d 0b3e
00000210: f744 213e 2629 1e3e 5708 293e 2e03 a03e
00000220: 0424 2fbe c862 c7be fee4 813e 39cb 3f3e
00000230: e1e1 9fbe b952 9ebe 4ced 5a3f d068 73be
00000240: 5fe5 12be 0352 2a3f fbe5 bb3d 4931 72bd
00000250: 10d2 1f3f e606 24be 841a 3bbe d3af 7c3f
00000260: e6ba 28be 0a4c 3d3f c1d9 813e 0bd9 6dbd
00000270: 488e 193d a806 123f 46d7 7e3f 4851 9b3d
00000280: 0646 2d3f ed6a 423f d761 adbe b511 2e3f
00000290: fabc 8fbd dd03 3bbe f4fb 2e3f addb 0fbd
000002a0: 23fe 153e 8dfb 82be b287 91be be06 9ebd
000002b0: 1de6 2d3e 8f99 eabd 3422 af3d 447c 253f
000002c0: ec3d aa3d 4094 153d ba18 933d 9880 3b3f
000002d0: b2a2 e4bd 2833 7c3c cca9 83bd a057 0fbe
000002e0: f71b 863d aca4 5d3e b475 3c3f 4a80 49bd
000002f0: 98c3 443e ac3f c03d c52e 973e a02b 9bbe
-0.04751938 0.08440011 0.4121467 0.37194526 0.26554835 0.09954568 0.21742758 0.19840157
0.08616258 0.10505887 0.32474297 0.17300963 0.064899206 0.1070937 -0.80921036 0.26914465
-0.29428747 -0.60153466 -0.38537306 0.009026727 -0.7110501 -0.026573062 -0.04132818 -0.9172997
-0.26150346 -0.8559019 0.14559183 -0.16693455 -0.18618084 -0.7279091 -1.0790384 0.37771493
-1.0265115 -0.976976 -0.18453471 -0.7531084 -0.03561697 -0.1121859 -0.9201424 0.3656502
0.357471 -0.06198518 -0.13378687 -0.000113998474 0.346567 -0.19161059 0.057399865 -0.67147404
-0.5765377 0.12435348 0.37270463 -0.94152427 -0.1080867 0.3481968 -0.047102895 -0.07170847
-0.5329688 0.36657253 -1.0442562 -0.030468494 0.257462 -0.27123854 -0.23537436 -0.029762648
0.16187087 -0.4883081 -1.0438335 -0.8019498 -0.8390736 -0.46016443 -0.93835676 -0.73735106
0.32068834 0.09921398 -0.8006138 -0.63035566 0.1847642 0.04389296 0.09985763 -0.182214
0.33590475 0.26865292 0.28959438 0.039765187 0.22635809 0.3094539 0.16811118 0.13411142
0.27976015 0.074116 -0.5915239 0.28404948 0.24344468 0.24955231 0.1288476 -0.6773721
0.2983611 0.40142244 0.4183618 0.26751432 0.25073388 0.20450208 0.30752146 -0.55521727
-0.9475244 0.4596976 0.29811698 0.26939014 -0.819997 0.21819589 -0.65986294 0.28645998
0.47518077 -0.38401207 -0.7088503 0.23077981 0.3134599 -0.6737035 0.2132967 0.35272285
0.3797723 -1.052992 0.37848082 0.207289 -0.9849778 0.47258127 -0.4596145 0.31355044
-0.027356714 0.2397495 0.18738107 0.13634233 0.15748964 0.15445384 0.16507088 0.31252426
-0.17103583 -0.38942552 0.2537002 0.18729867 -0.3122702 -0.30922487 0.85518336 -0.23770452
-0.1434531 0.6653139 0.09174725 -0.059129033 0.62429905 -0.16018257 -0.18271834 0.98705786
-0.16477546 0.7394415 0.25361446 -0.058068316 0.037489206 0.57041407 0.9954723 0.075838625
0.6768497 0.75944406 -0.33863708 0.6799577 -0.07018466 -0.18263192 0.683532 -0.03512161
0.14647727 -0.25582543 -0.2842384 -0.0771613 0.16982313 -0.1145507 0.085514456 0.6464274
0.08312592 0.036518335 0.071824506 0.73243093 -0.11163844 0.015393056 -0.064288706 -0.1399827
0.065483026 0.21644849 0.736171 -0.04919461 0.19215238 0.093871444 0.2952787 -0.3030672

bias f4 [3]
00000000: bf37 d23d 8945 e8bd 42c6 923d
0.10264539 -0.11341388 0.07166721
