data/models/V8_model_state_dict.pth (torch, 116372 bytes, 50 tensors)

conv1.weight f4 [8, 2, 5, 5]
000000 02 07 a7 bd a3 34 49 be 7c 7e 85 3e 0e 8f 45 bd
       -0.081556335 -0.19648986 0.26073062 -0.04823213
000010 5d 51 be be 85 2e 04 3e 3a 91 d3 3c b3 d6 8d 3e
       -0.3717145 0.12908371 0.025826085 0.27702865
000020 5a e4 0f bd d3 40 91 3c 95 0a a6 3d 77 61 3e be
       -0.035129882 0.017731106 0.08107487 -0.18591867
000030 da 9a c9 be 1d d5 a3 3d e4 34 73 3e af 9d a8 3a
       -0.39375955 0.079996325 0.23750645 0.0012864376
000040 20 c2 e0 bd 8e 6d af bd dc ed f3 be 45 61 8f be
       -0.109745264 -0.08565818 -0.4764241 -0.28003898
000050 73 01 bf 3e 0a 71 41 bd ed a8 c8 3c 51 bf 91 bd
       0.37305793 -0.047226943 0.024494613 -0.07116569
000060 b9 f4 91 3d ea 59 3d be 40 87 ae bd 07 9b 0a 3e
       0.07126755 -0.1849133 -0.08521891 0.135357
000070 93 7d b1 be aa 36 5f 3e c9 54 ac 3d 5c 2c 3c bd
       -0.34666118 0.21798196 0.08414609 -0.045940742
000080 ac 2d 7b 3e 51 2b 63 bd 0c 13 64 be 2a 56 5d 3a
       0.24529141 -0.05546123 -0.22272891 0.00084433204
000090 4d 3a ce 3e e6 54 74 3e 7b 3c 0c be f6 a9 47 3e
       0.40278855 0.23860511 -0.13694946 0.19498429
0000a0 c1 49 3a be fc 3a 27 be 5c 05 71 be 74 3f 75 be
       -0.18192197 -0.16331095 -0.235372 -0.23949987
0000b0 cb 23 98 3d cf 84 2f 3e 94 72 d5 bd 92 01 25 be
       0.07428702 0.17140506 -0.10422245 -0.1611388
0000c0 d5 e1 5f 3d 35 7a d4 3d 48 46 ef bd 89 51 ac 3d
       0.05465873 0.10374872 -0.11683327 0.08413989
0000d0 18 e0 b1 3c 34 bd 02 be 69 76 4c 3e b4 a9 ca 3e
       0.021713302 -0.12767488 0.19967045 0.39582598
0000e0 0b 95 95 3e 49 ea 2a bd 94 6b 73 bd 03 63 96 3e
       0.29215273 -0.041727338 -0.059428766 0.29372415
0000f0 c3 ba 97 bb 6c 2f 1c 3d e3 3f 5e 3e ac 74 85 bd
       -0.004630418 0.038131163 0.21704058 -0.06516394
000100 21 ce 07 3d 11 49 e1 be 84 b6 36 3e 83 0a 2c be
       0.033155564 -0.44001058 0.17843062 -0.16800885
000110 36 f0 0e 3d 91 15 ba 3e a4 22 2a be 43 98 4c be
       0.03489705 0.3634458 -0.16614777 -0.19979958
000120 46 d2 a0 3d 0b 88 1b 3e fd 13 d2 3d 40 76 68 3e
       0.078526065 0.15188615 0.10257719 0.22701359
000130 be 7d 1a be 4a 76 58 3e 65 1e cb bd a4 5a 2d 3d
       -0.1508703 0.21138874 -0.09917907 0.04232277
000140 04 e6 8e bd 6f 8b 25 bd ed 21 88 3e f1 b1 56 3e
       -0.06977466 -0.040416177 0.26588383 0.20966317
000150 0b 20 12 be fd 00 e1 bd b6 2f 7c 3d c1 bb 82 3e
       -0.14270036 -0.109865166 0.06156894 0.2553387
000160 69 3d 6f be ff 7f 24 3e 9a a9 9b 3e 3b d0 1f be
       -0.2336327 0.16064452 0.30402833 -0.15606777
000170 83 23 e9 bd d5 e7 c6 bc 7a ad be bd ae 58 87 3d
       -0.113837264 -0.024280468 -0.09310432 0.06608711
000180 5a 22 36 3e b2 21 c9 3e bd 54 0e 3d e0 56 f8 bd
       0.17786542 0.3928352 0.03474878 -0.12125945
000190 71 fb 68 3e 1c 9e c7 3e 0b b0 c8 3d 9b 91 76 3e
       0.22752167 0.38987815 0.097992025 0.24078982
0001a0 30 3e 02 bc f5 38 85 be 40 77 a1 3e 00 06 63 3e
       -0.007949397 -0.26020017 0.31536293 0.22170258
0001b0 f0 b2 8a 3d 59 db e5 3a 8f 98 33 be c9 ff a1 be
       0.06772411 0.0017536684 -0.17538665 -0.3164046
0001c0 5c b2 e8 bd 09 61 92 bd cc bf ab be 58 dc 5d be
       -0.11362144 -0.07147414 -0.33544767 -0.21666086
0001d0 5f ae b6 3b e8 eb 0a be 13 39 21 be 67 f9 96 bc
       0.005574986 -0.13566554 -0.15744428 -0.018429471
0001e0 20 9e d9 bd 80 fd 03 bb a3 27 96 3e 99 53 33 bc
       -0.10625863 -0.0020140111 0.29327115 -0.010945224
0001f0 2c 9f 7d 3e 97 a4 cf 3b 56 e0 33 bd 9a 7b 45 3e
       0.2476775 0.0063367593 -0.043915115 0.19285432
000200 ee 5b 07 3f 10 f2 6d 3e 7f 6d 8d be d5 19 0c be
       0.5287465 0.23236871 -0.276226 -0.13681729
000210 65 b5 80 be 94 12 ba bd 03 01 4f be db 61 56 be
       -0.25138393 -0.09085575 -0.2021523 -0.20935766
000220 62 c6 c3 bd ac 5c c1 bd 7a 8f 05 3e 5d 80 00 bf
       -0.09559323 -0.09441504 0.13043013 -0.50195867
000230 46 47 32 3e 40 79 26 3e e3 64 b9 3d 3e 16 86 3d
       0.17410001 0.1625719 0.09052446 0.06547211
000240 d6 6a 65 3e e3 12 99 bc 84 b4 07 3e ba 60 8c bc
       0.22404036 -0.018685764 0.13252455 -0.017135967
000250 45 a7 d9 3d ea 0a dc bc 3c 65 10 3e 2a e6 88 bc
       0.10627607 -0.026860673 0.14101118 -0.016711313
000260 68 64 52 bd dd 4d 02 3d df 73 6d 3e 92 6d 2d 3e
       -0.051365286 0.031812537 0.23188733 0.16936329
000270 aa 8a d2 bd f0 46 e3 3e 42 c2 87 bd 4a 95 66 be
       -0.10280354 0.4439006 -0.066288486 -0.22517887
000280 a0 c4 d1 3d 55 b4 a1 3e a1 3d d3 3e 4a 18 20 3e
       0.10242581 0.31582895 0.41257957 0.15634266
000290 93 d5 f9 3d 80 de 01 be 60 57 0e bc a2 5d bf 3d
       0.12198939 -0.12682533 -0.008687824 0.09344031
0002a0 1c 6b 77 bd c4 78 de bd 4d 5d 2c be f9 8f f0 be
       -0.06040488 -0.10862878 -0.16832466 -0.46984842
0002b0 07 b1 66 3b 00 cf 34 3e f3 30 96 3d 59 ab a9 3e
       0.0035200731 0.17657089 0.07333555 0.3313854
0002c0 e7 af 22 3e d2 1b 43 be fe 85 61 3d 8c ba ec 3d
       0.15887414 -0.19053581 0.055059426 0.115590185
0002d0 5b ef a8 3e 18 04 56 3e 2f 8a 1f 3e c6 06 14 3e
       0.32995114 0.20899999 0.15580057 0.14455709
0002e0 4d 0b a4 3c 48 c4 0d be f8 87 00 3d 0f d5 f8 3d
       0.02002492 -0.13844407 0.03137967 0.12150013
0002f0 34 de 7c 3e 14 22 c6 be 53 27 67 be 26 e2 f6 3e
       0.24694139 -0.38697875 -0.22573595 0.48219413
000300 7a d9 ab be e9 dd ef bc c6 4f e9 bc 99 42 95 3d
       -0.3356436 -0.02928062 -0.028480422 0.07288093
000310 05 98 09 be 42 c7 e6 3d 34 9d 00 3d 59 93 c5 3e
       -0.13436897 0.11268474 0.03139992 0.3858898
000320 61 91 4b be fa 0b 81 3e 19 92 60 3d 74 44 aa bc
       -0.19879676 0.2520445 0.05482683 -0.020784594
000330 f7 3b bb bd 95 9a f5 3e 1e e6 97 3d 6f 5c f4 3e
       -0.09142297 0.479695 0.07416938 0.4772677
000340 51 99 aa 3e 6b 6f aa 3d 8a cb 7c 3d 99 67 cf 3e
       0.33320096 0.083220325 0.061717547 0.40508726
000350 07 45 46 3e 00 67 f2 be b5 28 54 3e 6c 7e a1 be
       0.1936227 -0.47344208 0.20718654 -0.31541765
000360 54 1b 12 3e 0c 6b 82 3e f5 ef b1 3c 3b b4 19 3e
       0.14268237 0.25472295 0.021720866 0.15010159
000370 49 5a ad be 87 43 64 bc bb 29 76 3e dc 1c 35 be
       -0.33857945 -0.013932115 0.24039356 -0.1768679
000380 33 83 b3 b9 7e 7b 00 bc 3a 75 31 bd ea a2 b1 be
       -0.00034239292 -0.007841943 -0.043324687 -0.34694606
000390 6b 92 82 3e 0d 9c 36 3d 77 b8 8b bc bb 6e 5a 3e
       0.25502333 0.044582415 -0.017055733 0.21331303
0003a0 cd 44 9b bd 6e 89 59 be 73 eb 63 bc 12 bc 84 3e
       -0.07581482 -0.21243832 -0.013911116 0.25924736
0003b0 93 c9 6e bd ae e2 ad be 47 3b 0f 3f ce bc 40 be
       -0.058297705 -0.33962005 0.55949825 -0.18822023
0003c0 aa 29 b6 be ae 36 00 3e cb ea 32 3e ce 28 ed 3c
       -0.35578662 0.12520859 0.17472379 0.028950121
0003d0 70 d5 1d 3e 32 fc 13 3e 3a 8b 7b 3e 2d be 86 3e
       0.15413451 0.14451674 0.2456483 0.26316968
0003e0 43 f1 67 3e 50 62 83 3e 5e 67 ac 3e e7 55 b7 bd
       0.22650628 0.25660944 0.33672613 -0.089519314
0003f0 8e 42 8b bd 9b fd 08 be 85 21 bb be 8a 13 0e be
       -0.06799804 -0.13377993 -0.3654901 -0.13874641

conv1.bias f4 [8]
000000 96 2b 11 3c 66 ee e2 3c 8e b0 8e bc dd b8 e7 3c
       0.008860489 0.027701568 -0.017418172 0.028286392
000010 53 8d a8 3b 35 4c dc bc 14 c1 ce bc 9c 96 52 3c
       0.0051438003 -0.026891807 -0.025238551 0.012853291

bn1.weight f4 [8]
000000 46 87 80 3f fd d0 79 3f 06 a0 7f 3f 33 c3 7d 3f
       1.0041282 0.97584516 0.9985355 0.99125975
000010 f0 91 83 3f 07 12 82 3f 19 80 81 3f 56 1d 7d 3f
       1.0278912 1.0161752 1.0117217 0.9887289

bn1.bias f4 [8]
000000 1e 60 18 3d a1 47 32 3d 76 14 a7 bc 64 74 d0 bc
       0.03720104 0.043525342 -0.020395499 -0.025446124
000010 bd 42 03 bd 41 90 57 bc d6 f8 68 3c 2c e0 a9 bc
       -0.03204607 -0.013156951 0.014219483 -0.020736776

bn1.running_mean f4 [8]
000000 ca 33 d2 3e ca 97 42 3f 76 f2 6c 3e 5e b1 72 3f
       0.41055137 0.7601286 0.23139367 0.9480189
000010 e4 1b 89 3f 04 e9 e8 3d 62 e9 47 3f a9 8c c8 3e
       1.0711637 0.11372569 0.7809049 0.39169815

bn1.running_var f4 [8]
000000 d4 f6 07 3f 13 05 7c 3f 84 78 33 3e 0d c0 c4 3f
       0.53111005 0.9844524 0.17526442 1.5371109
000010 47 0c 00 40 dd 4f 3b 3d 0f e3 8d 3f d3 92 ff 3e
       2.0007493 0.04573046 1.1084918 0.49916705

conv2.weight f4 [16, 8, 3, 3]
000000 1e a6 a7 be 2f 5d a5 be 6b a1 6b bd 37 a4 5f bd
       -0.32743925 -0.32297656 -0.057526987 -0.054599967
000010 b6 20 39 3d 69 67 6f bc fb 26 39 bd 96 fe ff 3d
       0.04519721 -0.014612057 -0.04520319 0.1249973
000020 1d 43 bf bd 6f ce 5b be ec 03 5e 3d e1 40 33 be
       -0.09338973 -0.21465467 0.05420296 -0.17505218
000030 50 02 ac be 1d 2d 9a 3d 92 3e c3 bd d9 3b 08 bd
       -0.33595514 0.07528136 -0.09533419 -0.0332602
000040 ea 97 7d 3e 23 dd a7 3d ec 83 b1 3d 22 bb b6 3e
       0.24764982 0.08196475 0.0866774 0.35689646
000050 b6 72 a4 3c b2 89 19 be 16 e3 dd 3d 4d c7 2d 3e
       0.02007423 -0.14993933 0.10834329 0.16970558
000060 d6 ca 24 3c c4 55 16 be c9 1d 59 be 3a b1 56 be
       0.0100581255 -0.14681154 -0.21202768 -0.20966044
000070 6e a2 94 3e f8 55 8d 3e d4 19 70 bd d6 17 e9 3d
       0.29030174 0.2760465 -0.05861838 0.113814995
000080 03 0b 55 be 18 2c 62 be 2d 47 1d be d3 be 9a bd
       -0.20804982 -0.22087133 -0.15359183 -0.07555928
000090 6e 96 3e 3d 76 ce e6 bd 73 de fd 3d c1 2d 6d bd
       0.04653018 -0.11269848 0.123959444 -0.057904962
0000a0 74 5c d8 3d 00 7e 4b 3e 99 01 21 3e 1f ed 3c 3e
       0.10564509 0.19872284 0.15723266 0.1844983
0000b0 4f 46 d1 3d c9 05 01 3e 34 d1 0e 3e 53 e7 db 3c
       0.102184884 0.12599863 0.13946992 0.026843702
0000c0 17 1f 69 bc 21 0b 74 3e 3d 76 20 be df 0e 82 3d
       -0.014228604 0.2383237 -0.15670104 0.06350493
0000d0 d7 a0 31 be e4 f9 44 3d 7d 94 d7 3e fb 21 a9 3d
       -0.17346512 0.048089877 0.42105475 0.082584344
0000e0 2c 28 ad be bb f1 f6 bd 44 b3 68 3e 09 a3 7a 3e
       -0.3381971 -0.12057825 0.22724634 0.24476255
0000f0 89 96 4d bd dd 2f 19 3e 1f b0 23 3e e9 64 2d bd
       -0.05019239 0.14959665 0.15985154 -0.042332564
000100 e2 9b 73 bd 39 86 4e be ff 50 91 bd 5b 24 e5 bc
       -0.059474833 -0.2016839 -0.07095527 -0.027971437
000110 ac 54 1c bc 0a a4 40 bc 39 78 95 3e fa 2e 11 3e
       -0.009541672 -0.01175786 0.29193285 0.14178076
000120 ab 5c 33 be a1 5e ee 3d 5e 51 be bd 26 bd 8a 3d
       -0.17515819 0.11639143 -0.09292863 0.067743585
000130 20 52 22 3d 2f a3 22 bd c2 32 06 be b0 e2 94 be
       0.0396291 -0.039706405 -0.131053 -0.290792
000140 f7 0b d9 bd 35 64 43 be d6 bd 88 be f5 1c 00 3e
       -0.10597985 -0.19081195 -0.26707333 0.12511046
000150 70 63 cb 3d 2f f3 9c 3d be ea b7 3d fc 21 c9 bb
       0.099310756 0.07663571 0.089803204 -0.0061380845
000160 c4 30 ef 38 f5 da 02 be 64 9b cf bd b8 4a 85 bd
       0.000114054914 -0.12778838 -0.1013706 -0.06508392
000170 57 fd 02 bf a3 cf 3c 3d 16 51 8b bd 06 33 c3 3e
       -0.51167816 0.046096455 -0.06802575 0.38124865
000180 82 2e c4 3d 47 4c 88 3e d0 7b 03 be b6 f9 55 bd
       0.09579183 0.26620695 -0.128402 -0.052240096
000190 bd b6 4a 3e 64 73 17 be 01 93 23 3d 17 4a 6e be
       0.19796272 -0.14790112 0.039935116 -0.2327045
0001a0 8b 99 f7 3d 8e 99 14 bd 8f 9b 24 3e b1 4c 82 3e
       0.12089833 -0.036279254 0.16074966 0.25449136
0001b0 9e 66 13 3e da 2e 09 be 99 d7 9c 3c 29 ad 11 3d
       0.14394614 -0.13396779 0.019145774 0.03556553
0001c0 ba 13 54 3d 04 2f f1 3d 91 2f c8 bd 70 24 f9 3a
       0.051776625 0.11776546 -0.097746976 0.0019008052
0001d0 ac e3 ee bd b6 48 c6 3d 86 93 e6 bc b3 14 ba bd
       -0.11664519 0.09681837 -0.028146517 -0.09085979
0001e0 d2 1c b4 bd 7f 76 14 be 1d b9 74 bd c6 2b 99 be
       -0.087945595 -0.14498328 -0.05974685 -0.2991621
0001f0 2a ad f6 3d 56 2b b8 3d 9b 21 e8 bd 1d 8c 47 3e
       0.12044747 0.08992641 -0.11334535 0.19487043
000200 87 18 c1 bc a6 12 f2 bd a4 15 ba bd 11 dd 46 3e
       -0.023571266 -0.11819963 -0.09086159 0.19420268
000210 c9 3d cc 3d 46 9f 75 3e d2 6c 6e be c8 76 bd 3d
       0.09972722 0.23986539 -0.23283699 0.09251171
000220 6a 25 ff 3c a7 29 a8 3d 37 61 f6 3e e3 c9 36 ba
       0.03114577 0.082110696 0.48121044 -0.00069728325
000230 bf 4f 8c bd f5 ce 8d 3d 80 a2 87 bd 7f 4b a0 bd
       -0.06851148 0.069242395 -0.06622791 -0.078269
000240 4e 33 0d 3e 11 cf 59 be 12 8e 30 bd ba f4 b1 3d
       0.13789102 -0.21270396 -0.04310424 0.08689256
000250 7b 28 25 be 1e 60 b1 3e 90 29 a6 be 11 aa 85 bd
       -0.16128723 0.34643644 -0.32453585 -0.06526578
000260 ec 06 be 3d ef 09 3c 3e f2 35 a2 3d 22 63 35 be
       0.09278664 0.18363164 0.079204455 -0.17713597
000270 56 d1 22 3e cb 6e 4f be 50 ee f6 3d 0e cc 5e bb
       0.15900168 -0.20257108 0.12057173 -0.0033996138
000280 2e 50 c3 3c c9 01 af be 58 0b 92 bd 84 e2 91 3d
       0.023841944 -0.3418105 -0.0713107 0.071232826
000290 59 fe e6 bd 2f 05 5b 3c f8 76 b4 bd 76 95 a9 bd
       -0.11278982 0.013367935 -0.08811754 -0.082804605
0002a0 d4 22 53 bc 48 1e 5f bd b9 21 d1 3d be 7b e5 bd
       -0.012886722 -0.054472238 0.1021151 -0.112052426
0002b0 e1 f4 61 3c ac d2 3e 3e c5 90 94 bd 47 0f 8a be
       0.013791294 0.18635052 -0.07254175 -0.2696478
0002c0 38 9b e6 3d 29 b7 1e 3d a6 4c 0a be f8 bc f8 3c
       0.112600744 0.038748894 -0.13505802 0.030363545
0002d0 c0 6f c4 3d ca f2 7f bd 28 ea 86 3c cd 1c 30 bd
       0.09591627 -0.0624874 0.016469076 -0.042996217
0002e0 a4 49 96 bd d7 91 25 3e a3 ba 1b 3e 2b 5e 63 bd
       -0.073382646 0.16168915 0.15207915 -0.055509727
0002f0 69 2b f2 3b 02 3a 87 3e 9a 82 35 3e e3 6f 2f 3e
       0.007390429 0.26411444 0.17725602 0.17132525
000300 ab a5 70 3e bc 8a 93 3d 07 ec a3 3d f2 66 2f bd
       0.23500697 0.07204196 0.08004003 -0.042822786
000310 ce 0e c3 bd 8d 12 5f 3e 85 b5 80 bd b2 d4 23 be
       -0.09524308 0.2178442 -0.06284622 -0.15999106
000320 29 3b 28 bd e1 46 03 3e b7 c8 9e 3d 11 03 62 3e
       -0.041072045 0.12820007 0.07753127 0.22071482
000330 e8 b2 9b bc 13 7d c2 3c c3 38 4c 3e d0 5a 21 3e
       -0.019006208 0.02374128 0.19943528 0.15757298
000340 90 c1 be bd 5e 0e ac 3d 18 63 ee bd 2a e6 89 3e
       -0.09314263 0.08401178 -0.116399944 0.26933414
000350 d4 0a 89 3e 8b fb eb 3d 03 57 9c 3e ef 70 10 3d
       0.26766074 0.115225874 0.30535135 0.035263952
000360 77 3a 58 3d 57 b0 a2 bd 4a 80 df 3d 5d e5 5e bc
       0.05279013 -0.079437904 0.10913141 -0.013604489
000370 50 68 17 3e f3 4c 53 be c5 f2 f0 bd 12 9a 83 be
       0.14785886 -0.20634823 -0.117650546 -0.25703484
000380 e2 2f 0e be 58 2c 10 be 6e c9 85 3e 9a 58 47 3d
       -0.13885453 -0.14079416 0.2613024 0.04866848
000390 9e 2e e2 bc 54 20 1f 3e 28 15 30 be 53 56 4d bb
       -0.02761012 0.15539676 -0.1719557 -0.003133197
0003a0 09 fa 5a be 25 45 a9 bc 47 45 84 bd 31 0f 7e bb
       -0.21384443 -0.020662853 -0.06458526 -0.003876638
0003b0 f3 bb 13 3e 9b 21 da bd 2e 4d c0 3d 20 b1 83 3e
       0.14427166 -0.10650941 0.09389721 0.25721073
0003c0 08 59 49 be d7 22 73 be 0e 52 74 3d 80 89 7f 3d
       -0.19662869 -0.23743759 0.059648566 0.06238699
0003d0 74 9e 63 bd 32 dd a0 bd f3 2b a3 bd 2d 9b 05 3e
       -0.055571035 -0.0785469 -0.07967367 0.13047476
0003e0 e2 e6 13 3e 0e 6e 51 3e 3b f7 dd bc 6c c5 b4 bd
       0.14443544 0.20452139 -0.027095428 -0.08826718
0003f0 9f b0 4e 3e 17 e6 cf 3d 85 b9 8e be f9 b8 69 be
       0.20184563 0.10151308 -0.27875915 -0.22824468

conv2.bias f4 [16]
000000 72 7d 2f bd 6d b4 0e bd 16 c1 e6 ba 68 37 39 bd
       -0.042844243 -0.034840036 -0.0017605152 -0.045218855
000010 7b 61 25 ba 35 af 66 3b 23 b4 ef bc 56 a6 47 bd
       -0.0006308776 0.0035199646 -0.0292607 -0.048742615
000020 30 25 ec 3c b8 ff 56 3c 39 7e d0 bb 8a a3 f2 bc
       0.028826326 0.013122492 -0.006362703 -0.029618997
000030 c6 79 29 bc 10 23 0a bd ec a1 04 bd 97 94 da bc
       -0.010343974 -0.033724844 -0.032380983 -0.026682181

bn2.weight f4 [16]
000000 46 04 80 3f f6 64 7d 3f 75 56 80 3f de 22 7c 3f
       1.0001304 0.9898218 1.0026385 0.98490703
000010 96 78 80 3f 95 43 75 3f f0 d8 78 3f 9c 24 81 3f
       1.00368 0.95806247 0.9720602 1.0089297
000020 d5 bb 7d 3f e1 8d 84 3f b9 d4 77 3f 93 8e 75 3f
       0.99114734 1.0355798 0.96808964 0.95920676
000030 21 7b 7f 3f 7e d3 83 3f 26 8c 83 3f 78 1f 84 3f
       0.99797255 1.0298917 1.0277145 1.0322104

bn2.bias f4 [16]
000000 23 b9 c2 3c 06 70 6a 3d c3 9a 54 bb 63 40 12 bd
       0.02376992 0.05723574 -0.0032440878 -0.035705935
000010 bf ec a3 bc 7c db 0a 3d 71 21 fd 3c 1b 79 f7 3b
       -0.02001035 0.033900723 0.030899735 0.0075522787
000020 5a 01 04 3d df 09 02 3c 91 1d 87 3d ec a7 df 3b
       0.03222785 0.007936924 0.06597436 0.006825438
000030 60 6e 4e bd d7 cb a1 3c d2 cf 09 bd 33 9d 83 bc
       -0.05039823 0.019750519 -0.03364546 -0.01606617

bn2.running_mean f4 [16]
000000 b9 50 07 3f ab b6 5f 3e c6 d8 ea 3e 54 0c 3f 3e
       0.5285755 0.21847026 0.4586851 0.18657047
000010 bc 97 4d 3f ee c7 8b 3e e1 a1 57 3f 18 d0 91 3e
       0.80309653 0.27300972 0.8423138 0.28479075
000020 32 0b ce 3e a5 fc 31 3f 80 4f a4 3e b8 a6 23 3f
       0.40242916 0.6952613 0.32091904 0.6392627
000030 9e f8 8b 3e c9 74 44 3f e9 aa 01 3f 7f 8c d2 3e
       0.27338117 0.767407 0.50651413 0.41122815

bn2.running_var f4 [16]
000000 5c ff 65 3f 2e 98 34 3e a6 f6 7e 3f f2 7a 0d 3e
       0.8984277 0.17636177 0.99595106 0.13816431
000010 6a 4f b0 3f ea 12 2c 3e 86 21 2f 40 a6 1c 71 3e
       1.3774235 0.1680409 2.736421 0.23546085
000020 25 f2 e2 3e 9d df 0e 3f 66 f5 b7 3e 0d 86 c9 3f
       0.44325367 0.55809957 0.35929412 1.5744034
000030 46 2b 6d 3e 5c c6 b7 3f 07 47 20 3f 92 45 14 3f
       0.23161039 1.435741 0.6260838 0.57918656

conv3.weight f4 [32, 16, 3, 3]
000000 84 a5 51 3d b5 a3 34 3e 41 59 39 3c 9d 0c 10 be
       0.05118324 0.17640574 0.011312784 -0.14067312
000010 ee e0 1f 3e b0 7d 8c be 98 2f 78 3d 7b f5 b5 3d
       0.15613148 -0.27439642 0.060592264 0.08884712
000020 25 b7 03 3e ea f0 a5 bd 0f 72 6e be 25 d4 50 3d
       0.12862833 -0.08102591 -0.23285697 0.050983567
000030 6e 23 f6 bd f9 fa 3e 3c c1 07 8f bb 77 de 2e 3c
       -0.120184764 0.011656516 -0.004364938 0.010673157
000040 98 4b 34 3e 4f 88 72 3d 73 c0 b4 3d 68 57 7b 3d
       0.17606962 0.059212025 0.08825769 0.061362654
000050 77 bf 30 3d ea ae 09 3e a2 ef 3e 3b 96 e5 62 bd
       0.043151345 0.1344563 0.0029134532 -0.05539473
000060 8b 9d 23 3e a5 83 f0 3c fd 86 a1 3d 8e 2f 21 3d
       0.15978067 0.029359648 0.07887075 0.039351992
000070 a1 af b5 3d 47 ba a6 bd c5 ad 30 3d 90 55 79 3d
       0.08871389 -0.08140998 0.04313447 0.060872614
000080 f5 f5 85 3c 9f 1e c5 bc 10 05 42 3e a2 d5 08 3e
       0.016352633 -0.024062453 0.18947244 0.13362744
000090 94 e6 1a 3d 8e a7 46 bc e2 3b 5b 3a b6 e6 0d 3d
       0.037817553 -0.012124909 0.000836311 0.03464385
0000a0 a0 b0 62 bd 1d c5 8d 3d 30 88 08 be 66 b8 0b be
       -0.055344224 0.06922362 -0.13333201 -0.13644561
0000b0 98 d5 1e bb 67 89 b0 bd 2a 34 af bc 55 85 fd 3d
       -0.0024236199 -0.086199574 -0.021387178 0.12378947
0000c0 5f 52 01 be 39 91 e7 bd ac 9c 4a 3e d5 7e ca 3c
       -0.12629078 -0.11306996 0.19786328 0.024718681
0000d0 5b 8f 36 bd 09 7b ca bd bd 71 b3 bd 07 de 65 3e
       -0.04457031 -0.09886748 -0.08761928 0.22447978
0000e0 d0 3c 40 bd 79 86 d4 bd ae 37 22 3e 6e 29 ab 3d
       -0.046932995 -0.10377211 0.15841553 0.083575115
0000f0 e8 b0 94 be 34 0c ca bd 4b 25 85 3d b5 68 0e bd
       -0.2904122 -0.09865609 0.06501254 -0.034767825
000100 65 7b f7 3b ed 15 b2 bc 96 93 b5 3d 5f 0c 65 be
       0.0075525516 -0.02173897 0.088660404 -0.22368
000110 ad 93 d4 bc 6b 1d 24 3e bb 31 36 be b5 3d bc 3d
       -0.025949324 0.16026847 -0.17792408 0.09191457
000120 2e c8 bd 3d f9 fe 23 bc 99 52 2c 3e 0e df f1 3d
       0.09266697 -0.010009521 0.16828384 0.118101224
000130 60 cd 91 bd 22 8c 93 bd b6 b1 05 be f2 e3 be bc
       -0.0711925 -0.072044626 -0.13056073 -0.023302052
000140 0d be c0 bd cf a4 6e bd 3c a7 a0 3d 74 e7 73 3d
       -0.09411249 -0.058262642 0.078443974 0.059546903
000150 36 38 2d 3d 3e 83 eb bd bf ea 21 bc 9a b9 2b 3e
       0.042289935 -0.11499642 -0.009882628 0.1677002
000160 1c e2 fc bd 5c ec 04 3e 56 41 fe bd 6e 17 0a bc
       -0.123478144 0.12980789 -0.124148056 -0.008428438
000170 d7 af 18 be a5 cb 6a 3b b9 98 c8 3d 09 0f 5d bd
       -0.14910828 0.0035826948 0.097947545 -0.053969417
000180 78 92 a3 3d 3f f6 40 3d 76 ee a0 3d 56 bf 93 3d
       0.07986921 0.04710984 0.07857983 0.07214229
000190 8c ee e7 bd 41 85 fa ba 24 68 8e 3b 9c 7b 99 3d
       -0.11324796 -0.0019113199 0.0043459106 0.0749428
0001a0 35 b5 12 bc 8a 37 05 bd 2d 84 d0 3b b2 0c ca bd
       -0.008954336 -0.03252367 0.006363413 -0.09865703
0001b0 8b 1f ea bb 9d b8 c9 bc 18 68 88 bd 3b be 9f 3d
       -0.0071448735 -0.024624163 -0.06660479 0.077999555
0001c0 b9 dc 84 3e 01 21 a6 bd da 06 ff bb b6 2c 46 3d
       0.25949648 -0.08111764 -0.007782799 0.048382483
0001d0 3e 9d 09 3e bf 79 14 bd 3d fc 9d bd 56 75 67 be
       0.1343889 -0.03624892 -0.07714126 -0.22603354
0001e0 53 c1 82 3d ca bc 18 be 77 c2 9d 3c 5d 5b c9 3d
       0.0638453 -0.14915767 0.019257767 0.09831879
0001f0 99 68 35 be a7 4c c8 bd 55 39 34 3e 3e 94 46 3e
       -0.17715682 -0.09780245 0.17599995 0.19392487
000200 fd 3a a0 bd d7 b6 58 be 34 3b 0d 3e 74 02 a2 3d
       -0.07823751 -0.21163498 0.13792115 0.07910624
000210 59 7d 25 3c 9b 69 6c 3d 7a 1c 22 be 7a 68 3d be
       0.010100686 0.0577179 -0.15831175 -0.18496886
000220 88 fd 09 be 97 ef 9b bd 07 6b bf bc ad 5d 19 3e
       -0.13475621 -0.076140575 -0.023366464 0.1497714
000230 d1 53 74 3d c9 70 da bd 50 16 cc bc 8b f5 28 be
       0.059650246 -0.10666043 -0.024912983 -0.16499917
000240 40 30 de bb 1b 3c 62 bb b1 6b 93 3c 99 e7 c5 3c
       -0.006780654 -0.003452069 0.017995687 0.024158286
000250 de 08 38 be 61 ac 43 3e fe f8 51 3e ed a2 f6 bd
       -0.17972133 0.19108726 0.20505139 -0.120427944
000260 69 43 d7 bd 4c 56 98 bd 6e cc 9e 3d d5 47 c4 bc
       -0.10510904 -0.07438335 0.077538356 -0.023960033
000270 28 b8 6e be 22 7a e8 3c ea ce 07 bd ca f0 98 bd
       -0.23312438 0.02837855 -0.033156313 -0.07467802
000280 5e b8 7e 3c 14 fb 92 3d b5 71 ad bd a4 73 2c 3e
       0.015546886 0.071767956 -0.084689535 0.16840988
000290 3b 4c f5 bc ce 1f 71 bd 7a 7f 73 3c ed a5 4f 3d
       -0.029943576 -0.058868222 0.014861936 0.05069535
0002a0 70 8a b4 3d 98 53 4a 3e 0c 06 31 3e 67 c6 77 bd
       0.08815467 0.19758451 0.17287463 -0.060491946
0002b0 5b 0a 9a bd 46 e1 62 3d 78 a6 95 3d d6 7e d0 bd
       -0.075215064 0.05539062 0.07307142 -0.10180442
0002c0 24 15 a4 bc f7 38 7b bb 14 c0 8d 3e ae 15 59 3c
       -0.020029612 -0.0038333514 0.27685606 0.013249798
0002d0 77 3f 5b 3e ab 71 9d 3d 49 a3 bd 3d 14 8c ae 3d
       0.21410929 0.07687696 0.0925966 0.085228115
0002e0 65 e4 ca bd f6 9c ee 3d f1 ff e5 ba de 5a 1e be
       -0.09906844 0.11651032 -0.001754759 -0.1546435
0002f0 13 74 8c bc e5 06 39 3e 56 2d 1c bd 2a eb 95 bd
       -0.017145192 0.18069036 -0.038129173 -0.073202446
000300 4b 06 31 3e 32 4d 66 3e 2e fa 1e be db fb 42 bd
       0.17287557 0.22490385 -0.15525123 -0.04760347
000310 c1 44 1d 3c f1 d0 f3 bc cc 2c bd 3c a9 b1 46 3d
       0.009598912 -0.029762717 0.02309265 0.048509274
000320 3d 5d f4 ba b5 b4 4e 3c 5f aa 07 bd 07 2f 65 3d
       -0.001864351 0.012616326 -0.033121463 0.055953052
000330 95 af 03 be c7 ab 98 3d 71 e2 56 be 3b 76 2d bc
       -0.12859948 0.07454639 -0.20984818 -0.01058727
000340 48 a4 a3 bc 40 8a 3c 3e 9a a6 7e be eb 1c 89 3c
       -0.019975796 0.18412113 -0.24868241 0.016737422
000350 01 83 ba 3d a2 47 af bd 9c a8 1a 3e d6 26 30 be
       0.09107018 -0.08558585 0.15103382 -0.17202315
000360 51 15 2e be 08 02 8c bc 56 62 e9 bc 92 05 22 3e
       -0.17000319 -0.017090812 -0.028489273 0.15822437
000370 1b 6d d2 bc 8f 93 1f 3d ae bd d1 bd 95 58 8a 3d
       -0.025686791 0.038959082 -0.10241257 0.06755177
000380 21 a5 52 bc 8d 1a 3e bb 7b 94 9f bd 12 29 28 be
       -0.012856753 -0.0029007525 -0.07791992 -0.16421917
000390 7d f1 41 bd e7 7d 47 3c ed fc 0b 3d 00 ce 21 bc
       -0.04734944 0.012176014 0.034176756 -0.009875774
0003a0 8c 9e 2d be 2e 40 e1 3b 30 f1 8a bd 32 b8 50 bd
       -0.16955012 0.006874106 -0.06784284 -0.050956912
0003b0 da 33 be 3c d3 dc 52 bd 80 41 e7 3d 72 61 9a 3d
       0.023218084 -0.051480126 0.1129179 0.075381175
0003c0 70 8e c0 3c da 46 61 bd 79 94 f0 3d e0 0d d4 bd
       0.02350542 -0.05499921 0.11747069 -0.10354209
0003d0 be d8 32 bd 41 e9 6f 3e 51 3a 21 be f5 01 04 3d
       -0.043663733 0.23428823 -0.15744902 0.03222843
0003e0 fd e3 21 3d 0c 79 25 3d dd 3b 06 be 7a 76 e9 3d
       0.039524067 0.040398642 -0.13108774 0.11399551
0003f0 f1 e2 29 3e 94 58 e4 3c 9e 94 de bc f0 13 4d be
       0.16590478 0.027874269 -0.027170476 -0.20027137

conv3.bias f4 [32]
000000 55 0d 0a bc 0e 4a 72 bb 06 74 05 bd fd 63 9f bd
       -0.00842603 -0.003697041 -0.03258135 -0.07782743
000010 c6 32 30 bd 57 62 68 bb d8 e6 99 3c d8 9c 62 bd
       -0.04301717 -0.0035459006 0.018786833 -0.05532536
000020 be ec 8e bc b8 6a f2 bb 75 07 14 bc ae f8 c4 bb
       -0.017446872 -0.007397976 -0.009034981 -0.0060110902
000030 ad 3e e2 bc 34 39 dc bc d3 ec 18 bc 73 66 71 bc
       -0.027617777 -0.026882745 -0.009333807 -0.014733898
000040 e0 92 a5 bc 0c 0e d6 bc d7 70 48 3d 80 bc 7a 3d
       -0.020211637 -0.026129745 0.048935737 0.061214924
000050 d5 2c 5a bb 0b 11 4d 3d 91 33 70 bc b6 d5 32 bd
       -0.0033290882 0.05006508 -0.014660732 -0.043660842
000060 21 f3 ae bc 2b 0a 09 3c 6c 18 7d bc ec b7 ef 3c
       -0.021356167 0.008364241 -0.015447717 0.029262505
000070 31 a1 b9 3b 16 a3 a8 bb 66 d3 80 bd e5 03 9b bc
       0.0056649675 -0.0051463945 -0.06290321 -0.018922755

bn3.weight f4 [32]
000000 33 7e 79 3f fd 89 7e 3f 3b 0a 82 3f 49 12 84 3f
       0.9745819 0.99429303 1.0159372 1.031808
000010 a3 63 7a 3f 60 69 7e 3f 23 8f 82 3f ab 68 81 3f
       0.97808284 0.9937954 1.0199932 1.0110067
000020 11 ff 7c 3f a0 7a 7d 3f ca c4 74 3f 9b a3 81 3f
       0.988267 0.99015236 0.95612776 1.0128053
000030 94 9b 80 3f ed 5b 7a 3f fd 19 7b 3f 61 a1 82 3f
       1.0047479 0.9779652 0.9808653 1.0205499
000040 46 22 83 3f 3d d6 7f 3f 93 65 7f 3f 9e e4 80 3f
       1.0244834 0.99936277 0.99764365 1.0069768
000050 bb 0c 80 3f 74 10 81 3f e5 f8 81 3f f2 f9 83 3f
       1.0003885 1.0083146 1.0154082 1.0310652
000060 e4 fc 7a 3f a4 b7 83 3f 21 8f 80 3f 7b 2c 79 3f
       0.9804213 1.0290418 1.004368 0.97333497
000070 82 bc 81 3f d6 41 7f 3f 3b 79 84 3f 61 b6 7b 3f
       1.0135653 0.9970983 1.0349497 0.98325163

bn3.bias f4 [32]
000000 3d 62 34 3d 77 77 f8 3c df 87 eb 3b e3 4e 3d bc
       0.044039 0.030330403 0.007187828 -0.011554453
000010 ba c1 76 bc 48 dc e9 ba 59 7c 80 3c 6d 10 a0 bc
       -0.015060836 -0.0017842138 0.015684294 -0.019539082
000020 82 72 0b 39 b1 af d7 bc 17 9b 30 bd bd 80 21 bd
       0.0001329873 -0.026328893 -0.043116655 -0.039429415
000030 df 61 f3 3c 88 9b 27 bd 23 3d a8 3b fb 1d a9 bc
       0.029709755 -0.04091981 0.005134241 -0.020644179
000040 61 75 69 bc 1e dc bf bc 82 89 1f bb 8a 36 e5 bb
       -0.014249177 -0.02342039 -0.0024343436 -0.006995027
000050 05 a8 35 bd 2c 89 f7 bb b5 d3 04 bd e4 a1 48 bb
       -0.04434969 -0.007554194 -0.032428462 -0.0030614072
000060 c0 2e ab 39 85 a2 59 3c 2d f0 a0 3c b9 4b 27 3b
       0.00032650493 0.013283377 0.019645775 0.0025527312
000070 7f 18 b4 3c f8 84 af 3c 9f c4 e5 3b d9 1d 2c 3d
       0.021984337 0.02142571 0.0070119645 0.042020652

bn3.running_mean f4 [32]
000000 d3 67 05 3f bf e4 20 3f 6d 3c f7 3e 3e be 98 3e
       0.5211155 0.6284904 0.4828829 0.29832643
000010 1c d5 cf 3e 9d 58 20 3f 9f 1f f6 3e 64 c6 e6 3e
       0.40592277 0.62635213 0.48071 0.45073235
000020 07 4d ff 3e ee 8c 1d 3f c8 c1 0b 3f 26 27 c4 3e
       0.49863455 0.61543167 0.5459256 0.38311118
000030 45 72 a7 3e 63 43 a9 3e ab d5 0b 3f c8 01 ac 3e
       0.32704368 0.33059224 0.54622906 0.3359511
000040 e7 f2 2c 3f fa 16 ac 3e d9 c9 2f 3f e7 e2 fc 3e
       0.6755814 0.3361128 0.6866737 0.49391863
000050 2c 24 d5 3e 81 3b 57 3f 9a e6 f8 3e c0 59 b7 3e
       0.4162916 0.8407517 0.48613435 0.3581066
000060 8a 66 08 3f d4 98 2d 3f ff 89 09 3f 4e 0b 41 3f
       0.5328146 0.6781132 0.5372619 0.75407875
000070 15 d0 1a 3f 35 94 17 3f 16 df a5 3e b8 1f db 3e
       0.6047376 0.5921052 0.32396764 0.42797637

bn3.running_var f4 [32]
000000 80 ba 3f 3f a2 cc 04 40 96 93 9f 3f 98 ea e0 3e
       0.7489395 2.0749898 1.2466915 0.4392898
000010 f2 e7 36 3f ad 63 80 3f bf fe 04 3f 21 dd 42 3f
       0.7144767 1.0030419 0.5195121 0.76118666
000020 34 d4 b2 3f a3 58 29 3f 6e 43 ea 3e 42 c6 a3 3e
       1.3971009 0.66150874 0.4575457 0.31987196
000030 d8 8c c1 3e 91 e6 27 3f 4f 7d 1d 3f 96 9c a7 3e
       0.37802768 0.6558619 0.6151933 0.32736653
000040 9e 49 32 3f b5 9e c2 3e 20 63 0e 3f 38 d1 2c 3f
       0.6964358 0.3801171 0.5562 0.6750674
000050 7d a1 04 3f 2d 42 82 3f ac 8e 23 3f 89 f2 d4 3e
       0.5180891 1.0176445 0.63889575 0.4159129
000060 61 de fa 3e 3c 33 ec 3f 6e 28 0a 3f 07 00 36 3f
       0.48997787 1.8453135 0.5396794 0.7109379
000070 dd 74 99 3f b5 61 61 3f 1f 37 e1 3e 05 03 f8 3e
       1.1988789 0.88039714 0.43987367 0.48439804

conv4.weight f4 [64, 32, 3, 3]
000000 6f cc 4f 3d 2f f8 12 3e 3d 6a bd bb c4 9b 00 be
       0.050732072 0.14352487 -0.005780487 -0.1255942
000010 c1 04 b3 bd 76 c3 02 3e 7b d2 86 bd 6f 64 d7 3d
       -0.08741141 0.12769875 -0.06583115 0.10517203
000020 09 61 59 3d 97 b0 0d 3c 67 66 32 3d af 61 bc bd
       0.053071056 0.008648059 0.04355469 -0.09198319
000030 78 0b 56 3d 6a e7 14 bd df ad 25 bd 05 45 a9 bd
       0.05225703 -0.036353506 -0.04044902 -0.082651176
000040 02 6e 8b bc 3f 79 31 bd 18 5e 2e 3d cc 22 28 bd
       -0.01702023 -0.04332852 0.042570204 -0.04104881
000050 77 40 32 3d ce 39 84 3d a0 2f e0 bc 21 df ac 3d
       0.04351851 0.06456338 -0.02736646 0.08440996
000060 33 33 8b 3d 67 cc 38 bc 4b 31 a6 bd 57 6e ac 3d
       0.06796875 -0.011279202 -0.08114871 0.08419483
000070 f6 e3 49 3e f3 dd df 3d 9d f9 f8 3d cf 70 d6 bd
       0.19715866 0.10931005 0.12156985 -0.10470735
000080 09 4d fd bc 2e b7 34 bc c1 c9 41 bd 11 63 94 3d
       -0.030920522 -0.011030002 -0.04731155 0.07245458
000090 af a1 bf 3c 49 06 98 bb 7a de 75 bd 41 4a ff 3c
       0.023392526 -0.004639421 -0.060026623 0.031163337
0000a0 35 9e 2a be 53 2c 9e 39 b2 68 96 bd b8 2d 8a 3d
       -0.16661914 0.00030169133 -0.07344188 0.067470014
0000b0 d1 65 8a bd 24 4c 56 3d 6e d3 55 bd fb 12 dc 3d
       -0.06757701 0.052318707 -0.05220359 0.10745808
0000c0 4b 93 00 be 9d 9a 12 3e d3 98 f5 3d c1 f9 ae bd
       -0.12556188 0.14316793 0.119920395 -0.085437305
0000d0 ac 03 cf bc 07 d7 1a 3c b7 32 5d bc b3 0b dd bc
       -0.025270306 0.009450681 -0.013500861 -0.026983118
0000e0 96 44 b9 bd 28 4b bb bd 6c a0 09 bd 52 87 be 3c
       -0.09046285 -0.09145194 -0.033600256 0.023257885
0000f0 55 30 e0 3a 04 17 fb 3c 00 f5 17 3d 4e 0c 54 bd
       0.0017104248 0.030650623 0.037098885 -0.051769547
000100 d7 22 19 3e 25 41 7c be 02 01 8c bd 65 c1 57 be
       0.14954697 -0.24634226 -0.0683613 -0.21069868
000110 21 a6 58 bd 4e af 0d 3e d1 9c 7c bd ff 91 f9 3d
       -0.052892808 0.13836405 -0.06167299 0.1218605
000120 e2 af 17 3e 32 30 db bc 2d a5 ef 3c 8d e3 04 3e
       0.14813188 -0.02675638 0.029253567 0.12977429
000130 6f 60 22 3d 9c 25 90 bc 40 84 9e 3d 59 8c cb 3c
       0.039642747 -0.017596059 0.077400684 0.024847196
000140 10 19 03 3d e5 33 d9 bc 60 9e c5 3c 40 bc b0 bc
       0.032006323 -0.026514003 0.02412337 -0.02157414
000150 28 6a 5d 3d eb 00 1a bc 4c 5c 75 3d d6 af 36 3e
       0.054056317 -0.009399633 0.059902474 0.17840514
000160 d1 4d 4b bd 02 66 59 3e 27 e9 53 bc c2 df ac 3c
       -0.04963476 0.21230319 -0.012934006 0.02110279
000170 1e 9f 04 3e ab 8a 2d bd d7 8a e8 bc c9 37 90 bd
       0.12951323 -0.042368572 -0.028386516 -0.0704189
000180 29 6f 32 3e 34 6d 98 bc 9f 5e 10 3e 00 f2 01 3d
       0.17425217 -0.01860676 0.14098595 0.03172493
000190 14 b8 21 3d 1f 46 ac 39 40 fa a8 bd f5 3c 8e bd
       0.03948219 0.0003285864 -0.082508564 -0.069452204
0001a0 fc 40 1a bd c7 76 b3 3d f1 8c 99 bd a7 1c 8e 3d
       -0.03765963 0.08762889 -0.074975856 0.06939059
0001b0 e7 5a 97 3d 24 0a 8f bd 80 d1 aa 3d b9 70 37 bc
       0.07390385 -0.06984356 0.0834074 -0.011196309
0001c0 d4 8e dc bd 87 b3 3b bd 42 d3 8c bd bb 44 3e 3c
       -0.1076943 -0.045825507 -0.06876232 0.011613066
0001d0 bc 56 43 bd 3f 79 5d 3d 68 22 0a bb 3a 49 c8 3b
       -0.04769014 0.054070707 -0.0021077637 0.006112245
0001e0 cc aa c8 3d ca d0 80 3c a2 79 df 3d 77 bd 93 3d
       0.09798202 0.015724558 0.109118715 0.07213872
0001f0 0a e7 2d bd 4c d9 80 bd 93 f1 85 3e 91 2a ae 3c
       -0.042456664 -0.06291446 0.2616087 0.021260532
000200 85 37 1f be 04 8f 66 3e d4 b4 e8 3d 38 48 66 bc
       -0.15548523 0.22515494 0.11362615 -0.014055304
000210 e1 6c 68 bd 5d cb dd 3c 90 21 67 be 43 14 95 3d
       -0.05674446 0.02707451 -0.22571397 0.07279255
000220 a8 62 3e 3d 7b 7c 47 bd ae f0 25 3d d5 91 cc bd
       0.046480805 -0.0487027 0.040512733 -0.09988753
000230 89 27 9a bd 6e 24 e0 3b 19 d2 2d bd 49 be 15 3d
       -0.07527072 0.0068402803 -0.042436693 0.036558423
000240 dd c0 14 be f1 2b c6 bd ee 3d 1f 3d d2 3f da bd
       -0.14526697 -0.0967635 0.03887742 -0.10656704
000250 2b 76 26 bd 46 f9 0e 3e c0 10 83 bd db b3 19 bd
       -0.040640038 0.13962278 -0.06399679 -0.03752504
000260 9b 27 82 bc 21 1d 12 3d 10 01 d2 bd bf 4e cf 3d
       -0.015888026 0.03567231 -0.10254109 0.101224415
000270 fd 16 0f 3e a4 50 53 39 ba e6 8f 3d fd ff 89 bd
       0.13973613 0.00020152569 0.070264295 -0.06738279
000280 e6 80 f7 bd ea 30 aa bc 76 b6 3c bd 68 73 a8 3d
       -0.12085132 -0.020775277 -0.046072446 0.08225137
000290 be 03 73 3d 49 e3 dc bd ff 54 d6 bd c1 12 b3 3d
       0.05932974 -0.10785539 -0.104654305 0.087438114
0002a0 d0 bc 0c be 69 7a 4d bd 45 f3 3e 3d 07 01 b2 bd
       -0.13743901 -0.050165568 0.04661872 -0.08691602
0002b0 fd 3b 88 3d 92 e3 02 be e1 a5 a6 bd 0e d1 16 be
       0.06652067 -0.12782124 -0.08137108 -0.14728186
0002c0 01 bd c5 3d 72 e0 6f bd a0 52 7f bd b2 54 0a 3d
       0.0965519 -0.058563657 -0.062334657 0.033772178
0002d0 db be 8d 3d dc b0 6f bd 77 4c c9 3d 78 4f 17 bd
       0.069211684 -0.058518276 0.09829038 -0.03694102
0002e0 4a 2d 0d 3d cf 44 8f 3d 5f 84 c0 bd 7b 6c f8 3d
       0.03446702 0.06995546 -0.09400248 0.12130066
0002f0 95 a1 8d bd e9 4b f5 bd ec c0 01 be 87 39 81 3c
       -0.06915585 -0.11977369 -0.1267125 0.015774501
000300 45 dc a8 bd d9 66 b8 bd 92 28 39 3c ee df d7 bd
       -0.08245138 -0.09003992 0.011301177 -0.10540758
000310 28 c9 64 bc 31 55 20 3e 23 54 23 3d 27 0e c9 bd
       -0.013963975 0.15657498 0.03987516 -0.098171525
000320 40 53 68 bd d4 67 95 3c d1 6d b5 bd 2e c0 60 3d
       -0.05672002 0.018237986 -0.088588364 0.054870777
000330 99 e8 df 3d b5 40 c8 3d b3 be a6 3d 0e 14 fc bd
       0.10933036 0.09777967 0.08141842 -0.12308513
000340 46 5a e4 bd 30 50 f0 bc 3a 17 7b 3d 40 2b 1a be
       -0.11150031 -0.029335111 0.061301447 -0.15055561
000350 c9 ed 04 be f0 1f 0e be e5 78 a5 3c c6 84 f5 3c
       -0.12981333 -0.1387937 0.020199249 0.029970538
000360 de 0a 61 bc 08 a7 19 3e c3 23 34 3c 78 d8 07 be
       -0.013735501 0.15005124 0.010994854 -0.1326617
000370 ed d3 9a bc 33 a3 35 3d 3b 7f df ba ca fb 20 3e
       -0.018899882 0.044345092 -0.0017051467 0.1572105
000380 5c 9e 78 3c bf 68 74 bd 68 88 75 3e 4a 70 30 bd
       0.015174475 -0.059670206 0.23977816 -0.043075837
000390 e6 a7 47 3d d3 5e 22 3d d9 1d 8a bd 7c 13 5e 3d
       0.048744105 0.039641213 -0.06743974 0.0542178
0003a0 cb d3 22 bd 59 b7 73 bd 13 a8 15 3c 84 cd 3e 3c
       -0.039752763 -0.059501026 0.00913431 0.011645678
0003b0 dc 85 85 bc 29 b7 ca 3b 2d c4 ff 3c d6 bb 4a 3c
       -0.01629918 0.006186385 0.031221474 0.012373885
0003c0 25 b4 c9 3c 4b 05 00 3d 9f 64 ce bd 3d 2c 37 3d
       0.024622032 0.031255048 -0.10077786 0.044719923
0003d0 2f 78 5a bd 4d 75 8c bc 41 e5 9a bb f3 ec 9c 3c
       -0.053337272 -0.017145777 -0.004727036 0.019155955
0003e0 2d 78 cb 3d 43 4f 63 bd 3e 54 75 3d 05 70 88 3d
       0.09935031 -0.05549551 0.059894793 0.06661991
0003f0 64 bd 64 3d 25 cd 40 bd 0b df 92 3d a7 0c df 3c
       0.05584468 -0.04707064 0.07171448 0.027227713

conv4.bias f4 [64]
000000 6a f3 0b bd 3d 02 f8 bc a9 89 e6 3c bb 47 66 bd
       -0.034167685 -0.030274505 0.028141813 -0.05622075
000010 e8 a1 04 bc 31 22 e6 bb cb 8a f9 bb 9f b4 00 bc
       -0.008095242 -0.007023119 -0.0076154224 -0.007855563
000020 e9 04 5e bc 28 71 bb bc 0e 4f 5a 3c 28 1e a1 3c
       -0.013550975 -0.022881106 0.013324512 0.0196677
000030 82 9b 0f bd b3 25 00 3d a3 ba 41 bc af d5 11 bd
       -0.035060413 0.031285953 -0.011824283 -0.035604175
000040 8b 6c 14 bd d2 81 ef bb 92 53 10 3d bc 4a 67 bd
       -0.036236327 -0.007309177 0.03523595 -0.056467757
000050 1c b6 93 bc ff 62 9f bc 0e 76 8d bc 2f 2c 88 bd
       -0.018031172 -0.019456385 -0.017268207 -0.06649052
000060 8d 9d fe 3b c0 2a c3 ba a8 1b 5b 3d 69 05 08 3d
       0.0077702464 -0.001489006 0.053493172 0.033208285
000070 b9 11 0c bd 3e 9e 7b 3d 07 7a 2e bb 5e b6 7e bc
       -0.03419659 0.06143021 -0.0026623027 -0.015546409
000080 80 78 e3 bb 76 73 27 bc 7c c6 46 3b 3c f5 0d 3c
       -0.006941855 -0.010220399 0.0030330708 0.008664425
000090 26 71 cf bc e3 cc 9f bc 9e 8f 41 bd 6a f0 4d 3c
       -0.025322508 -0.019506877 -0.047256105 0.012569526
0000a0 39 27 83 bb c6 ef 88 bc 56 7f 1b 3d cc 8d 70 bc
       -0.0040024784 -0.016715895 0.037963234 -0.0146822445
0000b0 36 42 5b bc f1 fc e2 bc 19 e2 0a bc 78 ae 8d 3d
       -0.013382485 -0.027708502 -0.008476757 0.06918043
0000c0 52 56 28 3c 9c 5d b6 bc 9a 75 86 bd ab 64 8e bc
       0.010274487 -0.022261433 -0.065653995 -0.017381987
0000d0 bd 37 e3 bc a0 72 2a bc 91 cb 53 3c 41 75 8d 3c
       -0.027736539 -0.010403305 0.012926952 0.017267825
0000e0 4d 57 4a 3c 12 0a 20 bd 76 0f 11 bc 95 38 a5 3b
       0.012349916 -0.039072104 -0.008853784 0.0050421455
0000f0 12 87 a7 3b 2e a3 34 3c c8 b5 8f 3a d6 31 85 3c
       0.005112537 0.011025233 0.0010964209 0.016259115

bn4.weight f4 [64]
000000 e5 c7 81 3f e0 84 80 3f 28 98 81 3f ca 3c 80 3f
       1.0139128 1.004055 1.0124559 1.0018551
000010 8a 57 85 3f 7c 39 82 3f 2d 51 77 3f de 80 7b 3f
       1.041734 1.0173793 0.9660824 0.9824351
000020 90 bb 80 3f 1e 60 7a 3f 05 03 82 3f b8 42 8c 3f
       1.005724 0.97802913 1.0157171 1.0957861
000030 52 81 81 3f 93 d5 7c 3f 35 0f 75 3f 67 00 7e 3f
       1.011759 0.9876339 0.9572633 0.99219364
000040 67 17 81 3f c3 c4 7f 3f 9b b9 81 3f 4e 1e 82 3f
       1.0085267 0.9990961 1.0134767 1.0165498
000050 08 4f 78 3f a4 9d 74 3f 37 37 7d 3f 03 66 81 3f
       0.9699559 0.9555304 0.98912376 1.0109257
000060 ad 00 83 3f 86 a9 8a 3f df cc 85 3f 95 68 81 3f
       1.0234581 1.0832984 1.0453147 1.0110041
000070 be 28 7d 3f 07 44 80 3f ab e2 83 3f aa 43 81 3f
       0.9889029 1.002076 1.0303549 1.0098774
000080 c5 df 75 3f d1 9e 83 3f ec 37 75 3f 8b 0c 84 3f
       0.9604457 1.0282842 0.95788455 1.0316328
000090 99 b8 7e 3f 9b e5 81 3f d1 01 7b 3f 75 b4 7c 3f
       0.99500424 1.0148195 0.98049647 0.98712856
0000a0 94 22 84 3f e6 1e 7f 3f 29 94 83 3f 96 09 84 3f
       1.0323052 0.9965652 1.027959 1.0315425
0000b0 98 e7 78 3f a3 8c 77 3f 03 77 83 3f 60 9d 88 3f
       0.97228384 0.9669897 1.0270694 1.0673027
0000c0 1b 75 77 3f 18 22 7d 3f 9b ab 7e 3f 4e ec 82 3f
       0.96663064 0.9888015 0.994806 1.0228364
0000d0 f2 9f 7e 3f e9 95 78 3f d3 73 82 3f fe 3f 7c 3f
       0.9946281 0.97103745 1.0191597 0.98535144
0000e0 22 ce 7e 3f f0 13 81 3f 38 10 7f 3f f7 c9 79 3f
       0.99533284 1.008421 0.9963412 0.975738
0000f0 b8 c3 7d 3f c3 a9 90 3f 54 a1 82 3f c2 0b 79 3f
       0.9912677 1.1301807 1.0205483 0.97283566

bn4.bias f4 [64]
000000 93 b7 61 3e 46 e9 6b be b6 01 4d 3e 0f 41 8f be
       0.22042684 -0.23038206 0.20020184 -0.27979323
000010 60 49 50 3e fc 17 6f be d2 58 9a 3e 1d 58 8b 3e
       0.2034049 -0.23348993 0.3014589 0.27215663
000020 99 2b 68 3e 87 a1 77 3e 6f ca 5a be 4f 48 7e be
       0.22672881 0.24182712 -0.21366285 -0.24832271
000030 26 d1 8e be 81 71 74 3e 78 7a 71 3e c5 72 5b 3e
       -0.27893943 0.23871423 0.23581874 0.214305
000040 9a a4 4f be 11 c5 5b be dc 97 7a 3e af fe 55 3e
       -0.20277634 -0.21461894 0.24471992 0.20897935
000050 75 84 5d 3e 39 07 64 be 2c a6 67 3e 58 c4 69 3e
       0.2163256 -0.2226838 0.22621983 0.22828805
000060 ba be 78 be 4f 00 89 be 4e c9 83 3e d6 c2 50 3e
       -0.24291506 -0.26758048 0.2573952 0.20386824
000070 87 19 59 be ea 19 86 3e 25 9f 79 be b0 d2 50 3e
       -0.21201144 0.26191646 -0.24377115 0.20392871
000080 69 04 66 3e f2 80 60 3e 5b 29 7b 3e d4 3f 82 3e
       0.2246262 0.21924189 0.24527495 0.25439322
000090 58 0a 63 3e d3 d5 6e be 69 e2 97 be 15 aa 5c 3e
       0.22171915 -0.23323755 -0.29664925 0.21549256
0000a0 66 63 76 be f5 d6 47 be af 05 80 3e ad 66 4a 3e
       -0.24061355 -0.19515593 0.25004336 0.1976573
0000b0 a9 71 85 3e 22 62 72 3e bf b2 8c be 58 c6 83 3e
       0.26063278 0.23670247 -0.27480122 0.25737262
0000c0 d7 16 76 3e bc 4e 7e be f5 e3 6f 3e e9 bd 75 3e
       0.2403215 -0.24834722 0.23426802 0.23998226
0000d0 a5 d4 58 be 39 1e 63 be 4c d9 64 3e 75 c1 8e 3e
       -0.21174867 -0.22179498 0.22348517 0.2788197
0000e0 91 26 6c be e6 dc 68 3e 9c e5 6b be 84 44 94 3e
       -0.23061587 0.22740516 -0.23036808 0.28958523
0000f0 4f c4 8b be d9 c0 90 be 46 b6 54 3e 80 2a 8e be
       -0.2729821 -0.2827213 0.20772657 -0.277668

bn4.running_mean f4 [64]
000000 87 cc 0d 3f e6 d2 49 3f 2c d5 58 3f d4 a3 09 3f
       0.5539021 0.7883743 0.84700274 0.53765607
000010 6f 72 05 3f 01 4b 3f 3f 53 cf 20 3f f1 8f 31 3f
       0.52127737 0.7472382 0.6281635 0.6936026
000020 38 74 51 3f 30 c4 0d 3f 24 8d 26 3f 44 91 65 3f
       0.8181796 0.55377483 0.65059114 0.8967478
000030 f4 6c 1d 3f 7f 5c 46 3f 77 c3 0b 3f 52 4b fe 3e
       0.61494374 0.7748489 0.5459513 0.4966684
000040 42 99 f4 3e 67 a5 22 3f e4 ee 38 3f 5a e5 22 3f
       0.47773176 0.63533634 0.7223952 0.6363121
000050 23 1d 11 3f fc b6 2e 3f d6 e2 14 3f 65 1a 06 3f
       0.56685084 0.6824796 0.58158624 0.52384025
000060 c5 1e 80 3f 08 e1 81 3f ef c8 82 3f 85 e7 73 3f
       1.000939 1.0146799 1.021757 0.95275146
000070 d4 16 0b 3f b4 2a 85 3f 22 fa 41 3f 2e db 32 3f
       0.5433171 1.0403657 0.757723 0.6986569
000080 8f 93 36 3f f5 9f 22 3f a4 d0 55 3f 9f 86 4c 3f
       0.71318907 0.63525325 0.83521485 0.79892915
000090 6f 68 34 3f 94 e2 42 3f 36 11 49 3f da 23 1e 3f
       0.70471853 0.7612698 0.78541887 0.61773455
0000a0 0d 1c 72 3f 17 75 d8 3e e9 cc 63 3f 87 20 30 3f
       0.9457405 0.42276832 0.88984543 0.6879963
0000b0 ca ac 0b 3f 87 12 e2 3e 78 d0 32 3f 17 b0 71 3f
       0.5456053 0.4415476 0.6984935 0.94409317
0000c0 74 ca 6a 3f ac 1f 41 3f 2e 28 f2 3e a7 af 15 3f
       0.9171517 0.7543895 0.4729628 0.5847115
0000d0 db 1e 3f 3f d4 2c 15 3f f8 ad 4b 3f ed bf 64 3f
       0.74656457 0.5827153 0.7956233 0.89355356
0000e0 81 1e 34 3f 71 e2 25 3f f3 3e ef 3e fe 80 3b 3f
       0.70359045 0.6479865 0.46727714 0.732437
0000f0 88 43 38 3f c1 37 73 3f 9f cd 24 3f a8 83 30 3f
       0.71978045 0.9500695 0.6437625 0.6895089

bn4.running_var f4 [64]
000000 f9 c9 7f 3f a3 d2 6f 3f b9 b9 f8 3f 26 cc 64 3f
       0.9991756 0.9368078 1.9431678 0.89374006
000010 00 67 aa 3f ae 85 7b 3f 51 a3 79 3f dd fb 69 3f
       1.3312683 0.98250854 0.97514826 0.9139994
000020 57 3e 2e 40 1f 48 2f 3f f7 7f 45 3f 58 f1 5f 40
       2.722555 0.68469423 0.77148384 3.4991055
000030 cb 6e ce 3f 86 cf 50 3f 67 85 0d 3f 20 24 68 3f
       1.6127561 0.81566656 0.5528168 0.9068012
000040 98 62 71 3f a2 c8 76 3f 8f f0 66 3f 3e 85 af 3f
       0.9429107 0.9639989 0.90210813 1.3712537
000050 95 14 28 3f ba 33 50 3f 34 ba 23 3f a7 09 d8 3f
       0.65656406 0.8132893 0.63956 1.6877946
000060 0d 67 5c 40 2d 5e 82 40 23 9a a4 3f ee dc 44 40
       3.4437897 4.073996 1.2859539 3.0759845
000070 90 85 63 3f 63 46 a3 3f 79 27 8c 3f 3f 3e dd 3f
       0.88875675 1.2755855 1.0949546 1.7284621
000080 ca 6f 99 3f 9d 67 e4 3f d7 cf a2 3f 86 ed 9c 3f
       1.198724 1.784412 1.2719678 1.2259986
000090 70 8d 8a 3f 50 5e 91 3f 5c 7d b0 3f 11 43 4d 3f
       1.0824413 1.1356907 1.3788257 0.8018046
0000a0 97 7d 89 40 bc a7 77 3f d7 d9 2b 40 1e 5c bd 3f
       4.296581 0.9674032 2.685171 1.4793737
0000b0 d0 66 39 3f 46 7c 1e 3f f5 5d 05 40 4f 80 91 3f
       0.72422504 0.61908376 2.0838597 1.1367282
0000c0 05 5c a3 3f 24 2f 93 3f 52 94 57 3f f3 7f 88 3f
       1.2762457 1.1498761 0.84210694 1.0664047
0000d0 4c 74 5b 3f 2a 12 41 3f 03 21 0a 40 93 fc 99 3f
       0.8572433 0.7541834 2.1582649 1.2030205
0000e0 f3 cc 6e 3f 52 8c f6 3f 51 5f 3c 3f b1 bd 9b 3f
       0.9328148 1.9261572 0.7358294 1.2167264
0000f0 ca 1f 78 3f ea 5c 84 40 06 a8 fb 3f 27 c6 a3 3f
       0.96923506 4.136342 1.9660652 1.2794846
