data/models/V8_model_fullV3.pth (torch, 115916 bytes, 26 tensors)

weight f4 [8, 2, 5, 5]
00000000: cfb7 9abe 878d 9e3e 688a e43e d15a 6fbe
00000010: f1aa b13e 2844 5abd 50a6 7b3c 2c35 5abe
00000020: 89a3 d83e ce48 b03e 9347 9f3d 0275 1cbf
00000030: cece 8bbe 82c7 69be 7820 2abe 45ff 65be
00000040: 3704 b4be 6199 96bd b1dc a6bd fa2d 0c3c
00000050: 7aee 6fbd d5f9 77be b322 dfbe 709e 47bd
00000060: e0c5 76be fda3 2ebe 06d8 9abd 06da f1bd
00000070: 7fd7 3c3d e18f 4c3e a3e7 953d b2c9 2cbc
00000080: caa3 f63d e3cc 9c3e b19d a33e b2e2 4fbe
00000090: 5726 04be beb9 393c b510 2e3e 8d1f 29be
000000a0: fe8a 39be 4e3e bebe b80a 5cbc 4b2a 9f3d
000000b0: a258 57be 71cb 00bf 8795 45be 63f6 5cbe
000000c0: d937 83be f0c1 233d bd7c 9c3e d064 713e
000000d0: ac7a db3d 315a 50bc 583a 2fbe ba87 963d
000000e0: b498 363e 53a9 933d 9f82 d9be 5a45 033e
000000f0: 8b2d 9d3d 0bdc 0b3e c22b 8e3d 00bc 2a3e
00000100: 36c2 c9bd 8d95 d3bc d157 ab3e c33f a23d
00000110: 8efb 713d 6611 99be 499e a03e c1a1 c5bd
00000120: f06f 133e c658 093c bf6a 933e c16e f33e
00000130: 5db9 da3e d58a 803d 81f6 153e 0db8 aebe
00000140: 5ac4 ea3e 99c0 113c ee3c a13e 6fad 2f3e
00000150: e155 16bd 5a4f 023c fde0 1e3e 2923 4fbd
00000160: 0a8c 1e3c 99f8 52be a769 d73e c037 b73e
00000170: 9d15 f439 6387 ad3d 1d65 353d d211 c63e
00000180: 9dd4 f23d 7623 78bd d200 2ebb a91f 0abe
00000190: 4427 2abd d55f a83e c0d9 7bbe 86e7 843e
000001a0: 3ec5 88be 975c 6bbe 46f8 3d3e 2a38 123d
000001b0: 1f5a 29be bd55 2abe 3463 28bc ef58 0cbe
000001c0: 2137 003d 054b c0ba d502 0cbe 88bd 0d3e
000001d0: 4c52 663e 3e00 4dbd 34ad 89bd b74c 693d
000001e0: 020a d03c 4fda d33e 4682 fe3e 350a ee3e
000001f0: e0a5 323f 56e3 903d fbd4 cabc d373 b2bd
00000200: a20d 83bd 25b9 2f3e 0cc3 b3be df7a c33c
00000210: 2683 bebd bac0 da3d b725 bdbd ebe5 95be
00000220: d95d 513e 10cd 13be 5e1b 89be 97da b5bd
00000230: 1914 10bd af73 a23d 3256 b23e 11ca 053f
00000240: bb92 9f3e 1368 4b3d 53e8 fabd 7227 a03e
00000250: d46f 923e cee1 e83e e525 b8bd 5a32 aa3e
00000260: ee07 973c b620 f63e 73ec 1f3e 07f0 54be
00000270: b308 29be c622 2dbe a15d 09be ff05 143f
00000280: 94d8 243e 5f8c 973e f5a2 2fbe c29f 653e
00000290: c14f b23d 9148 86be 5d9b 8bbe 0471 863e
000002a0: 4c93 4f3e 82e9 3f3e 0189 9bbe 4b07 f7be
000002b0: db75 65be b1c8 183e e6af a8ba 0d4f ec3d
000002c0: c8c0 1a3e 24fa 463e 2fc7 c33e e79b 173e
000002d0: ec93 9f3d 9b08 0e3e 1bbc 83be 092d 393e
000002e0: 98d2 813e 4be3 45bd 4234 62be f0c1 99bd
000002f0: 9c69 843e 51c2 683e f96b d73e b0f2 cd3d
00000300: c4bb 033e 2ae5 593d 4dbb 08be 9f7c bfbd
00000310: afa6 953d a7ca 67be 6768 49bd b9d4 dc3d
00000320: 2f95 133e 95e6 df3e 8455 10bb cfd3 4fbe
00000330: 0094 193e 8e2e 5dbd 0492 f7bd 7ae2 5bbe
00000340: 201a 9b3e 229e abbd c74d ce3e 9f7e 423c
00000350: 9855 fa3d 40e2 1abe 6417 2c3e 4b86 863e
00000360: 8ce0 323d 7cf7 62be eb70 4abc 87a8 20be
00000370: 44ea aebe 1c4d 9fbd a414 25be 2be7 c1be
00000380: 211c bebd 59ef 18bd c9eb b73c 7ef6 b13d
00000390: 5601 efbd ee86 d03d 6ab5 753e fa1e 6cbe
000003a0: 0511 533e d272 e9bc ceee 183e ee9f 233e
000003b0: 1c72 4e3e 4cbc 2e3d 8e89 5ebb 346b bbbe
000003c0: d9e8 b6be ad27 3abe ade1 debe 8ec2 00bf
000003d0: d63e 5ebe c6ce aa3d 0a78 b2bb 992a 93be
000003e0: baea afbd 4d8e 60bd a6ff ce3e e45a abbd
000003f0: fa41 573b 5c59 5fbe c297 50be fc75 f5be
-0.3021836 0.30967352 0.44636846 -0.23374487 0.3470073 -0.053287655 0.015359476 -0.21309346
0.42312267 0.34430546 0.077773236 -0.6111604 -0.27306217 -0.22830012 -0.16613948 -0.22460659
-0.35159466 -0.073534735 -0.08147562 0.008555884 -0.05857704 -0.24216397 -0.4358116 -0.048735082
-0.24098921 -0.17054744 -0.075607345 -0.11809163 0.04610395 0.1997676 0.07319572 -0.010546135
0.12042959 0.30625066 0.31956246 -0.20301321 -0.1290525 0.011335788 0.1699856 -0.16515942
-0.18119428 -0.3715691 -0.01343029 0.077717386 -0.21029904 -0.50310427 -0.19295321 -0.21578364
-0.25628546 0.039979875 0.30563918 0.23573613 0.10716757 -0.012716816 -0.171121 0.073501065
0.17831689 0.072100304 -0.42482468 0.12819424 0.07674702 0.13658158 0.0694194 0.16673279
-0.09851496 -0.025828147 0.33465436 0.07922318 0.059077792 -0.29896086 0.31370762 -0.09649993
0.1439817 0.008382982 0.28792378 0.47545436 0.42719546 0.0627648 0.14644815 -0.34124795
0.4585293 0.0088960165 0.31491798 0.17156003 -0.036702994 0.007953489 0.15515514 -0.05057064
0.009676943 -0.20602645 0.42072794 0.3578472 0.0004655541 0.084730886 0.044285882 0.3868547
0.11856959 -0.060580693 -0.0026550782 -0.1348864 -0.041541353 0.32885614 -0.24594784 0.25957888
-0.26712984 -0.22984539 0.1855174 0.035698093 -0.16538285 -0.16634269 -0.010277558 -0.137058
0.031302575 -0.0014670795 -0.13672955 0.13841832 0.22492331 -0.05004906 -0.06722489 0.056957927
0.025395397 0.41377494 0.49708766 0.46492162 0.69784355 0.07074611 -0.02475976 -0.08713498
-0.06399085 0.17160471 -0.35109746 0.0238623 -0.09302358 0.10681291 -0.09235709 -0.29276976
0.20445956 -0.14433694 -0.26778692 -0.08879583 -0.035175417 0.07932221 0.34831387 0.52261454
0.31166634 0.0496598 -0.122513436 0.31280094 0.28600943 0.45484775 -0.08991603 0.3324154
0.018436398 0.4807183 0.15617542 -0.20794688 -0.16507225 -0.16907796 -0.13414623 0.5782165
0.16098243 0.29599282 -0.17152007 0.22424224 0.08706618 -0.2622724 -0.2726697 0.262581
0.20271033 0.1874142 -0.30377963 -0.48247752 -0.2240824 0.14920308 -0.0012869805 0.11538515
0.15112603 0.19431359 0.38237903 0.14805566 0.07791886 0.1387047 -0.2572945 0.18083586
0.25355983 -0.048312467 -0.22090247 -0.07507694 0.25861824 0.22730376 0.42074564 0.100560546
0.12864596 0.053197064 -0.133527 -0.093499415 0.07307183 -0.226359 -0.04917183 0.10782761
0.14412378 0.43730608 -0.0022023628 -0.20295642 0.14997864 -0.053999476 -0.12088397 -0.21473113
0.3029337 -0.08379771 0.40293714 0.011871009 0.12223357 -0.1512537 0.16805798 0.26274332
0.043671176 -0.2216472 -0.012356023 -0.15689288 -0.34163105 -0.07778379 -0.16121155 -0.3787168
-0.09282709 -0.037337635 0.022451298 0.08689593 -0.11670177 0.10181986 0.23994985 -0.23058692
0.20611961 -0.028497133 0.14934847 0.15978977 0.20160717 0.042660043 -0.00339565 -0.36605227
-0.35724524 -0.18179198 -0.43531552 -0.50296867 -0.21703658 0.0834022 -0.0054464387 -0.28743437
-0.085896924 -0.05482321 0.4042942 -0.083669454 0.0032845722 -0.21811432 -0.20370391 -0.47941577

bias f4 [8]
00000000: 085d 063d d8e2 cebd d134 42be 8bcd 4fbd
00000010: 6d5f 083c 2e3b aebb 6ae4 37bc c4ce 1d3e
0.032803565 -0.10101861 -0.1896546 -0.05073313 0.0083235325 -0.0053171134 -0.011223892 0.15410906

weight f4 [8]
00000000: af04 413f b036 693f c25f 5b3f a5b2 6f3f
00000010: bfc2 663f ff4c 9f3f c775 623f cbdd 9e3f
0.7539777 0.9109907 0.8569299 0.93631965 0.9014091 1.2445372 0.88460964 1.2411436

bias f4 [8]
00000000: 0ee2 61be d7ee 21be fbd5 1a3e 1a1c 403e
00000010: 8a9b cb3e 4ecf a23d 168c 853e f5bb 4fbe
-0.2205889 -0.15813766 0.1512069 0.1876072 0.39767104 0.079496965 0.2608344 -0.20286544

running_mean f4 [8]
00000000: a3f4 9f3f aa3f c03f 8e6c 773f cc82 743f
00000010: ee03 383f 2e48 1b3f c8ea 5b3f c40d 2a3f
1.2496532 1.5019429 0.96650016 0.9551208 0.71880996 0.6065701 0.8590512 0.66427255

running_var f4 [8]
00000000: 3c25 8740 dbb5 c140 1063 3c40 8351 1840
00000010: 7180 ac3f a3b9 d63f 2249 0540 362e ab3f
4.223295 6.053449 2.9435463 2.379975 1.3476697 1.6775402 2.0825887 1.3373477

weight f4 [16, 8, 3, 3]
00000000: 0525 f43c f825 f43d e7d4 7a3e 8257 6dbd
00000010: 238d 46bd dc09 d2bd 6ad7 37bc 80d1 f3bb
00000020: 5472 04be 3b49 e7bd e212 063e 5192 8f3e
00000030: 1a86 71bd 69f9 1dbe 537d d539 256c 2c3d
00000040: 241a 09be bfb5 4ebe ca4e c4bd 95ca 963d
00000050: a2a9 e4bb b3ee 93bc 56b1 1abe d2c3 79bd
00000060: 9af3 3abe 9778 7abe a2df 85bd 9a63 3c3e
00000070: a4f7 253e 366b de3d 0f52 c8bd a46d 3c3c
00000080: 24eb 2e3e e475 e63d 31c5 09be 69d5 a3be
00000090: 9f2d 843d 6764 0e3c 6181 4ebc c38d 30be
000000a0: 5819 e1be 1828 5abe dcc8 8c3e f2ea fe3d
000000b0: b6d3 a9be e2df 84be 9f0a 1bbf 3b56 dfbe
000000c0: a97b 05bd 6950 ac3d f306 5f3e c439 b13e
000000d0: b851 5d3e 6422 603e 4f91 b73d a0c4 f73c
000000e0: 6f3e 0dbe e3df 16be 81a1 fcbc 29c2 9c3e
000000f0: 8a67 17bc 6104 543d 50ad a6be 0f52 6fbe
00000100: 72ef cfbe 609f 5dbe d569 d0bd 06fb 3c3d
00000110: b3f4 103e a3bf 36be a7b6 dbbc d739 f03e
00000120: eabc 21be f8f9 303e 0e3d 06be 17e9 a0bc
00000130: e60e 313c f3ec 94bd 7cd8 7cbe f1b5 92bd
00000140: ed40 cabd f080 a43e 4835 153d 5eae 503d
00000150: 45bd 7a3e 7c8f c1bd fc01 243e 2a5c 9cbc
00000160: e59c 893e 08e3 7bbd a0a7 44bd 9149 8cbd
00000170: ff0d c0bd 56f4 efbc 7515 b8be cb60 0b3d
00000180: 3941 bbbb af86 8b3b dd17 3cbe d8fd c33e
00000190: 05ea 453e b889 8b3e c3a1 ff3d 4321 6a3e
000001a0: 5372 7cbc b681 ca3b bc3a 2f3e 7c38 8fbc
000001b0: 62e1 c1be 8fb7 edbd e2b0 04be 4b65 8ebc
000001c0: e745 253e 7e32 4a3e f85a 84be 67b9 253e
000001d0: be2f 30be fa46 c73d 1acc c5bd 9b95 503c
000001e0: 4c20 95be 0b37 b3be 79c0 01bf eb63 7b3d
000001f0: bd49 98bc 05f1 293e f2c5 efbd 023d b2bd
00000200: 708f f6bd bf76 9ebe a131 82bd 5ba4 8abe
00000210: f694 cfbd 6a17 5c3e 92a8 19be 4195 86bd
00000220: 43cc 973d 8ddc ac3c 2ed6 5abe 6f59 bbbd
00000230: d8a3 88be 5185 083e 61b0 a0bd f152 683d
00000240: a754 b03d e76a 79be c8fb e83e df2f 5b3e
00000250: d3d8 c6bd 2c85 8ebd 0ae4 563e 6454 bb3e
00000260: e0f2 67bd 25bb 003e a359 4cbe 09e8 e6be
00000270: 42fb 4b3e 29cd 4dbd 6b35 863d df79 b63e
00000280: 803b b73e 0cc7 dcbc b109 5ebe 5d15 6bbd
00000290: 0618 d8be 6683 053e f753 4cbe 074c 98be
000002a0: ccfb 9d3e 6d04 8f3d 719c 0abd c981 ddbd
000002b0: c945 aabe 23cc e0be 45d5 dabc 0548 67be
000002c0: 8250 b23e bb03 2b3e 67c1 7cbd cec2 7dbe
000002d0: a6d3 b33c d3d8 913d 1da0 c9bd 32b0 8ebe
000002e0: a94f 84bd 699f 69be 08be c9be 8884 80bc
000002f0: b22a 9ebe d004 0e3f 650a 943e e1fb 91be
00000300: eb26 cb3d efa2 cfbd ee64 c4bd 3217 663e
00000310: 62a0 2abe 0e79 ffbd 8bda 043c 7d12 96bc
00000320: f8c8 76be 0f76 46be 8410 3e3d 77e8 71be
00000330: 7ee9 3bbe bd6e 133e 98e5 e0be c888 883e
00000340: 048c be3e 908a 923d 71e0 af3c 50cc f23d
00000350: f465 bebd 5fdd 2f3d ba5f 3b3e 721a ba3d
00000360: cb86 093c c5d0 a0bd de33 133d 8f0d 743e
00000370: 7e30 78be fb8e b83e 8f61 d6bc f4f5 843e
00000380: d2a2 923e 5609 953d 7a66 383e abe2 e93d
00000390: a5eb 05be d1c2 2fbe 1987 e43d a16b d8be
000003a0: e266 8dbe 10f4 f3bd ddc2 253d 8a3d 723e
000003b0: ff8a 7c3e 7ac5 acbe fc44 c7bc ae0c 5d3d
000003c0: dba0 5fbe c536 cf3d c83f 843e 8a6d 39bc
000003d0: 918c 803c 5ee4 91bc 15ed d13d 3878 6dbb
000003e0: 1964 973e 1c75 ab3d 95ea 583c b894 9c3e
000003f0: d5dd 08bf 8d84 f0be 1213 12bc 2ab0 813d
0.029802809 0.119213045 0.24495278 -0.057944782 -0.048474442 -0.10255787 -0.011220792 -0.007440746
-0.12934238 -0.112932645 0.1309314 0.28041318 -0.05896578 -0.15427174 0.000407199 0.042095322
-0.13388878 -0.20186518 -0.0958534 0.07362858 -0.0069782296 -0.018058157 -0.15106711 -0.060977764
-0.18256989 -0.24460064 -0.06536795 0.1839737 0.16207749 0.108602926 -0.097812764 0.01150075
0.17081887 0.112529546 -0.13454129 -0.31998757 0.06454014 0.00869093 -0.0126040885 -0.17241578
-0.43964648 -0.21304357 0.27496994 0.12447156 -0.33169335 -0.2595206 -0.6056308 -0.43620476
-0.032588635 0.084137745 0.21779995 0.34614384 0.21613204 0.21888119 0.08963262 0.030245125
-0.13793348 -0.14733844 -0.03083873 0.30616882 -0.009240994 0.05176199 -0.32554102 -0.23371147
-0.4061237 -0.21642828 -0.10176436 0.046137832 0.14155845 -0.17846541 -0.026820494 0.46919128
-0.15794721 0.17282856 -0.13109228 -0.019642396 0.010806775 -0.07271757 -0.24691957 -0.07163609
-0.09875665 0.32129622 0.036427766 0.05094754 0.24486263 -0.094511956 0.16016382 -0.019086916
0.26877514 -0.06149581 -0.048011422 -0.06849969 -0.093776695 -0.029291313 -0.3595387 0.034027856
-0.0057145623 0.004257999 -0.18368478 0.38279605 0.19327553 0.2725351 0.124820255 0.22864251
-0.015408116 0.0061800135 0.17112249 -0.017482989 -0.37867266 -0.11607277 -0.129581 -0.017382285
0.16139947 0.19745824 -0.25850654 0.16184007 -0.17205712 0.097303346 -0.0965807 0.012730981
-0.29126203 -0.35002932 -0.50684315 0.061374586 -0.018589849 0.16595848 -0.11707677 -0.087030426
-0.12039077 -0.3094997 -0.06357122 -0.27078518 -0.10135834 0.21493307 -0.1500571 -0.06571437
0.07412007 0.02110126 -0.21370766 -0.091479175 -0.26687503 0.13332106 -0.078461416 0.056719724
0.08609896 -0.24357186 0.45504594 0.2140498 -0.09709325 -0.06958994 0.20985427 0.36587822
-0.056628108 0.1257139 -0.19956069 -0.45098904 0.19920066 -0.050244484 0.065531574 0.35639855
0.35787582 -0.026950382 -0.21683384 -0.05739342 -0.42205828 0.13038406 -0.19953905 -0.29745504
0.30856168 0.06983266 -0.0338406 -0.1081577 -0.33256367 -0.43905744 -0.026713023 -0.22586067
0.34827048 0.16700642 -0.06170788 -0.24781343 0.021951508 0.07121434 -0.09844992 -0.278688
-0.064605065 -0.22814716 -0.39402795 -0.015688196 -0.3089195 0.55476093 0.2891418 -0.2851248
0.099195324 -0.10138499 -0.09589563 0.22469786 -0.16662744 -0.12474261 0.008108745 -0.018319363
-0.24100101 -0.19380973 0.04640247 -0.23623835 -0.18350789 0.14397712 -0.43925166 0.26666856
0.37216198 0.07155335 0.021469327 0.11855376 -0.0929679 0.042935725 0.18298236 0.09087075
0.008393954 -0.0785232 0.035938136 0.23833297 -0.24237248 0.36046585 -0.026169566 0.25968897
0.28639847 0.07277171 0.18007842 0.114201866 -0.13078173 -0.1716416 0.1115858 -0.42269614
-0.27617556 -0.119117856 0.04046904 0.23656288 0.24662398 -0.33744413 -0.024324887 0.05396717
-0.21838705 0.10117868 0.2582991 -0.01131762 0.015692027 -0.01780909 0.10250298 -0.0036234986
0.29568556 0.08371946 0.013239522 0.30582213 -0.5346349 -0.46976128 -0.0089156795 0.06332429

bias f4 [16]
00000000: 28bc debd f991 c83c c787 cabe 441f b7be
00000010: 9798 0fbe b25e 4bbe 1d02 21be aaa4 c6be
00000020: 5777 2bbe d1ba 143d 9244 8bbe ae19 90be
00000030: 4d19 ae3d 38ba 65be 7643 a8bd 4814 43bd
-0.10875732 0.024483668 -0.39556715 -0.3576604 -0.14023052 -0.19860342 -0.15723462 -0.38797504
-0.16744743 0.036310975 -0.27200752 -0.28144592 0.085009195 -0.22434318 -0.08215992 -0.047626764

weight f4 [16]
00000000: cd52 8b3f 8acb 673f 6b6d 923f 6e82 9d3f
00000010: b854 683f 7a47 8b3f 6c0b 553f 2ac7 833f
00000020: acb4 823f 908e 593f 0455 7a3f 9a45 683f
00000030: 946e 803f e0c6 643f fe72 453f 526c 213f
1.0884644 0.9054495 1.1439642 1.2305429 0.9075427 1.0881188 0.83220553 1.0295155
1.0211387 0.8498316 0.97785974 0.90731204 1.0033746 0.8936596 0.7712859 0.6305591

bias f4 [16]
00000000: a12c 76bd f98e 5b3d 5802 2dbd e470 ac3d
00000010: 810f 943e b7d3 943e 776d 133e 29d8 a2bd
00000020: 2b7d bd3d 418c 443f f907 b93e 21da 6e3c
00000030: e402 9b3e b217 283e 99fc 833e b980 873e
-0.060101155 0.053603146 -0.042238563 0.0841997 0.2891808 0.29067776 0.14397226 -0.079513855
0.092523895 0.7677651 0.36138895 0.014578373 0.30275643 0.16415289 0.25778654 0.26465395

running_mean f4 [16]
00000000: cab2 093f 64a3 453f 0a66 273e 9acb cd3e
00000010: bd15 953f a866 273f a05c 243f 1eb9 bd3d
00000020: 6bfa b53e 5b9d 293f 91fa b73e fadb 4d3f
00000030: 4334 223f 6b17 813f ace0 7b3f 7fd1 bb3f
0.53788435 0.7720244 0.16347519 0.40194398 1.1647259 0.65391016 0.64203835 0.09263824
0.35542616 0.6625573 0.35933354 0.8041378 0.63360995 1.0085272 0.983897 1.4673308

running_var f4 [16]
00000000: fbc3 103f 13c4 c93f a414 013f 356e aa3f
00000010: b32a 0b41 f952 4240 df39 203f 04f0 3d3e
00000020: af61 7a3f 935f d03f 959b 293f 3445 8d40
00000030: 89c9 0640 087b 993f 6083 8e40 5ef5 6140
0.5654904 1.5762962 0.5042212 1.3314883 8.697925 3.0363142 0.62588304 0.1854859
0.97805303 1.6279167 0.66253024 4.4146976 2.1060507 1.1990671 4.453537 3.530601

weight f4 [32, 16, 3, 3]
00000000: 3969 6c3e 2e18 e13e 3e1f 653e 8e3d 963e
00000010: 1099 fb3d 441b bb3e d940 823e 5acc 8d3e
00000020: 827a b33e 471d 0b3e 8c03 413e c228 a13d
00000030: 850d d7bd c8ab d4bd 3baa 0b3e e941 063e
00000040: e790 75bd 69cf 5f3d d5f9 5ebe a7f9 40bd
00000050: 7cb4 a5bd c3bc 24bc e42e 37bd a94a 913d
00000060: 1b38 423e 6d60 3f3e e7bf 0abc 5104 b73d
00000070: 44c3 103e 2ed0 a43e a276 353d 3f99 363d
00000080: 8d70 0a3e 4bea 9ebd b62c a0bb da8f 9a3e
00000090: 8f21 613d dd24 a23e 0edf 643e e416 ecbd
000000a0: 9714 edbd 2cec 17bb 8941 913d 7075 a13d
000000b0: c80a a23d e752 09be b9d0 dcbd 1a07 82be
000000c0: c9d0 04bc 6fe9 8fbd 1417 d8bd b9a8 df3d
000000d0: 9fa6 563d 50a4 133e 8577 89bd 6da6 ebbd
000000e0: f158 96be bc50 e3bb 8a7a a73d 75bc 93bd
000000f0: ccb3 dc3d ba5c f6bd 9ea0 2a3e fded c43d
00000100: 2166 a5bd 7988 3e3c 3c4c 993e a07b 21bd
00000110: 9c27 cabd 1694 b43e 2836 463d 77cb 1c3e
00000120: 297d 663c eee6 013e 4966 003e 3a39 063e
00000130: 9688 a63c d185 603e 7ad4 393b a627 a53d
00000140: 027f 963d b306 bebd 67bd 93be 1ee1 febd
00000150: 1d99 80be 8bd7 58be 2242 723e a3a0 bfbd
00000160: 846b f8ba 4867 13be a9f4 073e cb8a d63e
00000170: 2d64 063e 0622 0bbe 1b9d f5bd ff55 29be
00000180: 1314 50bb 90a9 63be f4b7 0dbd 675b 59be
00000190: dc38 00be 45fb 593d 9caf 26b9 701b 663d
000001a0: 7a33 c33b 31d1 153e 0d80 473d fcd2 363e
000001b0: 7fd9 ddbd 27ef 68bd 9563 24bd 331d f33c
000001c0: 2b1e 863d 6f47 05be 95a8 9d3c f571 fd3c
000001d0: df72 68bd a93c f1bd 8b18 053e b10c 49be
000001e0: 4e4e 1b3c bae4 74bb b6c4 e6bd 6495 c9bc
000001f0: 5a01 783e f606 91bd 7490 84bd b694 fc3d
00000200: 414e 5cbe 6b4a 853d ea7a 59bd 41a8 7e3d
00000210: 9361 ec3d 2f09 2a3e 0e54 e33d 0a9b 4cbd
00000220: e7d1 04be a3c6 dc3d f257 ebbd 043b 9bbd
00000230: 4af6 b03c 2c7d 4b3e 08d8 17be 74a6 92bc
00000240: 6c72 2bbe 7022 43be 8520 a4be 387f f7bc
00000250: 1abb 1abe fa66 5b3c 7dfb 7a3b fe95 e1bd
00000260: 924d 06be 774f 733e 88b2 0e3d bcdd 1bbd
00000270: d363 2c3d 217d dfbc d84a d3bd ad59 64be
00000280: f67e 06be eebf 25bf a632 a1be 4d9f b3bc
00000290: cf39 43be 62ed 113e d1f9 5f3d 7630 513d
000002a0: b960 983e a33a 603e 444a 7c3e b7b4 d3be
000002b0: 2c71 86be 978f b6be d6f9 66be d068 433e
000002c0: 151b 003e d3a5 003b a7ae cd3d 998c 563e
000002d0: 52d8 e63b 8533 03be 190c 34be 2e4b 8c3e
000002e0: 9920 f3bd 6f5a dcbb 2e63 2cbe c607 17be
000002f0: 5c8f 7cbe b0df b33c 3c3f 20be 36db 79be
00000300: 0378 9bbd 4fa5 60bd 6ca9 abbc 42bf a53e
00000310: 2cad 4b3e 7b53 9f3e 78c2 ddbd 34fc 0bbd
00000320: 247c 43bd 54d3 88bd 9299 8d3e 7137 073e
00000330: 9841 063d f9af 26be 2528 51ba 004c debc
00000340: 6bac cabd 6c38 8e3d f209 073e cac0 b63e
00000350: faca a93e e601 373d aff4 31bd 3234 8e3c
00000360: f60d 153e efdf 5a3d 3f65 913d 4bf0 ba3d
00000370: 9289 0c3e df63 8c3e 5c3e 873e 6f2f 993e
00000380: e28a edbc 14fc 1e3e 1517 1ebe f01c 4fbe
00000390: 6f34 d73c 4299 bb3d 2663 edbc b545 40be
000003a0: 1a16 35be 1919 b3be 2d1d 97be ed19 733d
000003b0: bd8f 163e bcf4 88bd 24f9 f2bd 16fd 843e
000003c0: 8ad2 cb3d 3878 48be 8ec2 f6bd 6152 26bd
000003d0: f660 283e 9228 e1be 7ff7 9cbd 8d35 82bd
000003e0: b6a0 ac3e 72db ea3d c3d7 6a3e d26b 313e
000003f0: 3f66 1bbb 6476 7f3c 2e71 cebd c406 77be
0.23087014 0.4396376 0.22375199 0.29343837 0.12285054 0.3654424 0.254401 0.2769497
0.35054404 0.13585387 0.1884901 0.07869102 -0.105006255 -0.10384327 0.13639157 0.1311108
-0.059952643 0.05464116 -0.21774991 -0.047113087 -0.08091065 -0.01005477 -0.044722453 0.070943184
0.18966715 0.18689127 -0.008468605 0.0893637 0.14136988 0.32190078 0.04430259 0.04457974
0.13519497 -0.077595316 -0.0048881425 0.30187875 0.054963645 0.3166875 0.22350714 -0.115278035
-0.11576193 -0.002318154 0.07092578 0.078837276 0.079122126 -0.13410531 -0.10781998 -0.25396043
-0.008106419 -0.07026946 -0.10551277 0.10920853 0.052404996 0.14418149 -0.0671225 -0.115063526
-0.29364732 -0.0069371145 0.08177669 -0.0721368 0.10776481 -0.12029405 0.16662833 0.09615705
-0.0807612 0.011629217 0.29940975 -0.03942454 -0.09870836 0.3526923 0.04839149 0.1531199
0.014067926 0.12685749 0.12539019 0.13107768 0.020328801 0.21926047 0.0028355406 0.08064203
0.073484436 -0.092786215 -0.2885544 -0.124452814 -0.25116816 -0.21175973 0.2365804 -0.09356811
-0.0018952941 -0.14394867 0.13276924 0.41902766 0.13124152 -0.13587198 -0.11992856 -0.16536711
-0.0031750246 -0.22232652 -0.03459926 -0.21226273 -0.1252169 0.053218145 -0.00015896413 0.05617851
0.005957064 0.14630581 0.048706103 0.17853922 -0.108325 -0.0568687 -0.04013403 0.02967701
0.06548723 -0.13015531 0.019245425 0.030938128 -0.056750175 -0.11779148 0.12997644 -0.19633748
0.0094791185 -0.0037367777 -0.112679884 -0.024607368 0.24219266 -0.07081406 -0.06472865 0.12333052
-0.21514226 0.06508335 -0.053095736 0.06217218 0.11542048 0.16605066 0.111000165 -0.049952544
-0.12970696 0.107800744 -0.114913836 -0.07579616 0.021601815 0.19871968 -0.14828503 -0.017901637
-0.16742867 -0.19056106 -0.3205606 -0.03021203 -0.15110436 0.013391251 0.0038296871 -0.11014937
-0.13115528 0.23760782 0.03483823 -0.03805326 0.042087387 -0.027281346 -0.1031701 -0.22299834
-0.13134369 -0.64745986 -0.31483954 -0.021926546 -0.19065021 0.1425071 0.054681603 0.051071607
0.29761294 0.21897368 0.24637705 -0.41348812 -0.26258218 -0.35656425 -0.22556242 0.19082952
0.12510331 0.001963009 0.10043078 0.20952071 0.0070448304 -0.12812622 -0.1758274 0.27401108
-0.11871452 -0.0067246477 -0.16834709 -0.14749059 -0.24664062 0.021957248 -0.15649122 -0.24400029
-0.0759125 -0.05484515 -0.02095481 0.3237248 0.19890279 0.31118378 -0.108281076 -0.034176067
-0.04772581 -0.06680933 0.27656227 0.13204743 0.0327774 -0.16278066 -0.0007978699 -0.027135849
-0.09896167 0.06944355 0.13187388 0.3569396 0.3316267 0.044679545 -0.04344624 0.017358873
0.14556107 0.053436216 0.07099389 0.091278635 0.13724354 0.27419946 0.26414764 0.29919
-0.028996889 0.15525848 -0.15438493 -0.20225883 0.02627012 0.09160091 -0.028977942 -0.18776591
-0.17684212 -0.34980085 -0.29514447 0.059350897 0.1470327 -0.066873044 -0.11863926 0.2597434
0.099522665 -0.1957711 -0.12048827 -0.040605906 0.16443238 -0.43976265 -0.07664394 -0.0635787
0.33716363 0.11467637 0.22933869 0.17326286 -0.0023712066 0.015592191 -0.10080181 -0.24123675

bias f4 [32]
00000000: 5272 45be 937a b9bd 468d 0fbe c0f3 07be
00000010: b55f 77be 5ef5 093c e64f d9be 2268 1cbe
00000020: d0d4 7cbe 52f9 d4be fe76 59be 0f3e 193e
00000030: c7f5 debe 8b8f 03be ade6 963d 88a4 a1be
00000040: ee27 54be 677f babd 448e a5be eadc ddbc
00000050: d72a 80bd 1741 b33c 7f97 65be b6cb b0be
00000060: 33db 79bd fb63 4abe 2a21 f5be d44e 67be
00000070: 6740 cabe e6a7 383d 04f6 45be 6cee 07be
-0.19281891 -0.09056582 -0.14018735 -0.13276577 -0.24157603 0.0084203165 -0.4244377 -0.15274099
-0.24690557 -0.41596466 -0.21236798 0.1496508 -0.43546888 -0.12847726 0.07368217 -0.3157084
-0.20718357 -0.09106331 -0.32335103 -0.02708288 -0.06258171 0.021881623 -0.22421072 -0.3453042
-0.06100006 -0.19764702 -0.47876865 -0.22588664 -0.3950226 0.045081995 -0.19332129 -0.13274544

weight f4 [32]
00000000: baf6 683f ec6b 693f 9ea2 893f 0cc7 773f
00000010: 6971 9e3f 7fc0 593f 5399 673f e930 563f
00000020: ea1a 683f 5920 783f 0a43 943f 52a0 683f
00000030: ab2b 263f bfa2 3b3f b079 433f 4b92 853f
00000040: 2ba5 773f 638f 743f 96b0 a03f 36be 973f
00000050: 2816 773f c684 883f 606c 2a3f 6364 873f
00000060: 45dc 223f 1f33 493f 1352 823f 9de3 833f
00000070: 29cd a63f ccd0 383f 86c0 213f e0bd 9b3f
0.91001475 0.911803 1.0752752 0.96788096 1.237836 0.8505935 0.9046833 0.8366838
0.9066607 0.9692436 1.1582959 0.9086963 0.6491038 0.73295206 0.76357555 1.043527
0.967364 0.9553129 1.255389 1.1854923 0.9651818 1.0665519 0.6657162 1.057751
0.63617355 0.7859363 1.0181297 1.0303837 1.303136 0.721936 0.6318439 1.216732

bias f4 [32]
00000000: c8ef 933e 49dc c03e 0ff2 393e 4418 4f3d
00000010: 8692 5abc 121d d93e 69ac 6a3e 07a6 09bf
00000020: c744 123c 71f8 e13e 75ec c43d c601 b13e
00000030: d698 003f e16c 8f3e be26 8f3e 60d7 473d
00000040: 030a 35be da7b eb3d 3169 9cbe bb91 a03e
00000050: 625c dbbc 003c b33e 372f b43e 9734 adbb
00000060: f1dc 953e 73f9 e53e e93c 9f3e 040e f63d
00000070: b068 96be 8567 763e cd3a a03d 075b 833e
0.28893876 0.37668064 0.18158744 0.05056025 -0.013340598 0.4240499 0.22917332 -0.5376896
0.008927531 0.44134858 0.09615413 0.34571666 0.5023321 0.28012756 0.27959245 0.048789382
-0.176796 0.11498232 -0.30549005 0.31361184 -0.02677745 0.35006714 0.35192272 -0.00528581
0.29270127 0.44916877 0.31101158 0.12014392 -0.29376745 0.24062927 0.07823715 0.25655386

running_mean f4 [32]
00000000: 7912 203f d7b3 103f 44c8 d83e 901a 8b3e
00000010: aec7 cf3e 0f9f 933e c9eb 3c3e 750e 013f
00000020: 0eb1 413e 6188 683f 76dc 1b3f 805b 843f
00000030: 6435 0b3f 4cd0 033f cc5d 773f 77da 863e
00000040: 58b6 153f 04f1 573f ab40 f63d 50a4 153f
00000050: 074e e13e 69d1 763f 1fc5 653f 5664 ad3e
00000060: 0bb9 bf3f 0b53 dc3f a879 5a3e 4694 2e3e
00000070: 239e f53d 8990 563f 48bc da3f d9bc 1c3f
0.6252819 0.56524414 0.4234029 0.27168703 0.4058203 0.2883229 0.1844932 0.50412685
0.18915197 0.908331 0.6088327 1.0340424 0.5437834 0.5148971 0.966275 0.2633855
0.5848136 0.84352136 0.12024053 0.58453846 0.44004843 0.96413285 0.8975391 0.33865613
1.4978346 1.7212843 0.2133547 0.1704875 0.11993053 0.83814293 1.7088709 0.6122566

running_var f4 [32]
00000000: 8c16 1540 87b1 5b40 c798 963f abda 013f
00000010: 693a a43f 6cf0 b53e 2afa 063f d7ee a63f
00000020: 840e 1b3f 0c59 9d40 1d69 4140 201e c93f
00000030: cfc3 983f 0af3 0840 4235 ea3f f19a 8f3f
00000040: 6ec7 9d3f e5b7 5d40 46de e13e 7ef2 d23f
00000050: 2bc2 4c3f d939 3540 9566 c73f c935 b63f
00000060: fe49 3940 8154 8140 a6d6 4c3f ae0f ac3e
00000070: 7914 e43e f58c ae3f aa22 9f40 ed8e 1640
2.3295012 3.4327104 1.1765374 0.50724286 1.2830325 0.3553499 0.5272547 1.3041638
0.60569024 4.91712 3.0220406 1.5712318 1.1934756 2.139834 1.8297503 1.1219159
1.2326486 3.464349 0.44114894 1.6480253 0.79983777 2.8316557 1.557818 1.4235164
2.8951411 4.0415654 0.8001503 0.33605713 0.4454687 1.3636767 4.9729815 2.3524735

weight f4 [64, 32, 3, 3]
00000000: e334 a23d 25ba 053e 9876 8f3d eab0 d7bd
00000010: 5164 59be 73cf 42be d8b9 19be a587 a8be
00000020: 714f 063d d258 c03e 8fc8 703e 8ee7 b33d
00000030: fe07 44be 61d0 f8bd fbfd 25be be53 633e
00000040: baac ff3d ecaa 2fbe 3ca0 9f3d 0ad7 173e
00000050: fc75 d53c 7e63 de3d 5524 833e 215f d03c
00000060: 01ba c9bd 9461 8dbd 8e64 b3bd 8cf1 b43c
00000070: a286 b43d 81d0 83bd e97a cdbc d432 0b3c
00000080: 9a6b 3ebd d635 a4be d2b8 7bbe 4878 99be
00000090: 3aa2 8d3b bded 01bd 81b4 13bd ddb7 b8bd
000000a0: ea2b a4be 5a14 76be 7b14 8abe e516 8fbe
000000b0: 1f5a 96be 2484 173e 8b8b e53d 8771 57bd
000000c0: f646 aa3d 4dd8 243e 8b27 db3d b8d4 c13d
000000d0: 4350 d03d 4250 a1bd a080 99bc fb13 cd3d
000000e0: 583a 963d 1fc4 943d 7a9e 173e 793b 1d3d
000000f0: 0786 fcbd 29c8 b13d 5f45 89bd 3fbf 2bbe
00000100: 0db3 98be 0c8e a2be 62ec 55be 7b0c 72be
00000110: 076f 33be dc77 7ebe 46d9 f4be 2a53 85be
00000120: ed37 e3bd c984 a3bd c760 453d f384 e7bc
00000130: 94fc a3bd 3839 f6bc d575 443e 2d03 5d3d
00000140: 7c71 e1ba fd5c b83d 55df 663e 68b8 3f3e
00000150: 374b b23d 06e6 143e 3205 5a3a 8bc8 90be
00000160: dc2d 43be 3e0d 3bbe 34af 513d 3370 093e
00000170: 077f 3d3e 645f 81be a33c 96be 159a 5bbe
00000180: a1c9 4fbe 3680 85be e2a9 08be f2f8 82bd
00000190: 702e c3bc 22db 26be 6c7c 38be f489 7dbe
000001a0: 3092 85be 2d63 183d 9678 333d dc4c bf3d
000001b0: 6016 c53d 5702 eb3d 112d c8bc f605 2a3d
000001c0: f6df 693e 01e1 663c d313 8dbe 0376 323b
000001d0: 57ac e4bd 851d 05bd 557b aabc ce13 9dbd
000001e0: f375 26bd 7339 4f3c 106b 83bc ffd5 0b3e
000001f0: 907d 1fbd 14ec d03d 7055 29be cd85 6dbd
00000200: f3af e0bd 25f5 123d a5fb 43bd 1fc7 cbbc
00000210: 07ec f63b 2eee 293d b524 da3d d197 37bd
00000220: 5630 73bd 46bb 243d c83f ac3d 6581 5abd
00000230: cd02 193c e42e afbe f6e2 57be 0a94 98be
00000240: dfc0 513e 5faa 773d 2d8f 093d b6cb 733e
00000250: 095b 933e 31ce 703e 6470 36be 6f83 2bbd
00000260: 7c77 38bd df17 a3bc 1c73 423e 1103 223e
00000270: e51a ee3d 076e fdbd fd17 043d e69f e63c
00000280: d58e 533d c8cb 5b3d 3cab f83c 8a19 c4bd
00000290: 4d25 f7bd a498 0bbd 51fe 923d 9093 f43c
000002a0: adc5 1b3e 56f8 183e 6bbe f73d 9a96 053e
000002b0: cbde 283e 612d 373e 1faf 0c3d 9c4c d03c
000002c0: c6d1 6dbd b2a1 9fbd 5aac c2bd 1e7d 47be
000002d0: 7695 fbbc b329 6d3c 6374 99bd 61db 00bd
000002e0: 2695 553e 9d5b d739 8ab6 81be 8e1f 1abe
000002f0: d733 4bbe e06a ce3d aaad 863e 9ef1 803e
00000300: fd6a ba3d 14c5 943d 883d 463e 8f27 29be
00000310: 0772 dcbd 37ad 8fbe a222 b0bd 3bf2 863c
00000320: 58a8 0a3e 04fa 193e 3d22 923a b6f6 f83d
00000330: 3936 363e 07bd 333e a397 18bd d048 c2bd
00000340: 1776 3cbd bbad 1bbe 3dea a9bd ad6b 9dbe
00000350: 3bd7 45be 8c23 d2be 6cf7 4ebe c383 a6be
00000360: fbc2 ad3c d1e5 febd d962 1d3d d637 7f3d
00000370: 1c2d 6d3d 2b07 bd3d 931f 883e ff6b d63d
00000380: 6984 1f3e d4b7 e53d 7987 44bd 3536 e93d
00000390: 2434 363e 697e f1bc e389 3e3e dc86 873c
000003a0: ad23 82bd 03c2 6d3d b79b 123e 0bce 2c3e
000003b0: 9d3c 6c3e 72c6 013e eb29 123e 32f0 f63d
000003c0: 5269 69be 66ad 2dbe 3999 68be 3213 5abd
000003d0: 6d31 7dbd fad5 8cbd 50ca 1c3b 4015 8f3c
000003e0: 1dfb 9a3c 4b26 d3be cd36 9cbe b5c6 3bbe
000003f0: a309 c73c 52e2 7dbe 49f6 51bd 4c89 013d
0.079202436 0.1305929 0.07005042 -0.105317906 -0.21229674 -0.19024448 -0.150123 -0.3291599
0.032790605 0.37567765 0.23514007 0.087844 -0.19143674 -0.1214912 -0.16210167 0.22199914
0.12484117 -0.17155045 0.07794234 0.14828125 0.026057236 0.108588204 0.25613657 0.025435986
-0.098499306 -0.06903377 -0.08759414 0.022087835 0.08814742 -0.06436253 -0.025083022 0.008496005
-0.046489336 -0.32072324 -0.24582222 -0.2997458 0.0043223174 -0.031720866 -0.036060814 -0.09019444
-0.32064754 -0.24031201 -0.2696875 -0.27947155 -0.29365632 0.14796501 0.11208256 -0.052598502
0.08314316 0.16098137 0.107009016 0.09464401 0.10171559 -0.07876636 -0.018738091 0.100135766
0.07335347 0.0726397 0.14806548 0.038386796 -0.12330251 0.08680756 -0.067026846 -0.16772173
-0.29824105 -0.31748998 -0.20890954 -0.23637573 -0.17522822 -0.2485041 -0.47822016 -0.26040012
-0.11094651 -0.07984311 0.048187997 -0.028261637 -0.0800716 -0.03005658 0.19185574 0.053958107
-0.0017199959 0.09002111 0.22546132 0.18722689 0.08705752 0.14540872 0.0008316814 -0.28278002
-0.19060463 -0.1826677 0.051192477 0.13421707 0.18505488 -0.2526809 -0.29343137 -0.21445496
-0.20291759 -0.2607438 -0.13346055 -0.06395139 -0.023825854 -0.1629453 -0.18016213 -0.24759656
-0.26088095 0.037203956 0.04381617 0.09340832 0.09623408 0.11475056 -0.024435552 0.04150959
0.2283934 0.014091731 -0.27554187 0.0027230985 -0.11165684 -0.032498855 -0.020810762 -0.07669793
-0.04063983 0.012647974 -0.016042262 0.13655852 -0.038938105 0.10201278 -0.16536498 -0.05798893
-0.1097106 0.03587832 -0.04784741 -0.024875222 0.007535461 0.04148691 0.106515326 -0.044822518
-0.05937227 0.04021766 0.08410603 -0.053346056 0.009339047 -0.34215462 -0.21082672 -0.29800445
0.2048373 0.060465213 0.03358381 0.23808178 0.28780392 0.23516156 -0.17816311 -0.04187339
-0.045035824 -0.019908844 0.18989223 0.15821482 0.116262235 -0.12374502 0.03224944 0.028152417
0.051649887 0.053661138 0.030355088 -0.09575184 -0.120676614 -0.034081116 0.07177413 0.02985552
0.15212126 0.14938483 0.12096866 0.13045731 0.16491239 0.17888404 0.034346696 0.025427155
-0.058061384 -0.07794513 -0.0950553 -0.19481322 -0.030710917 0.014475274 -0.07492902 -0.031459216
0.20857677 0.00041076253 -0.2533458 -0.150511 -0.19843994 0.100789785 0.2630437 0.2518434
0.09102438 0.07264152 0.1935941 -0.16518997 -0.107639365 -0.2806184 -0.08600356 0.016472926
0.1354078 0.1503678 0.001114912 0.121564314 0.17794122 0.17552577 -0.037253987 -0.09486544
-0.046011057 -0.15202992 -0.082966305 -0.30746213 -0.19320385 -0.41042745 -0.20211571 -0.325224
0.021211138 -0.12446178 0.038424347 0.06230911 0.057904348 0.09229883 0.2658659 0.10469817
0.15577854 0.11216703 -0.04798076 0.11387292 0.17793328 -0.029479222 0.18607287 0.016543798
-0.06354461 0.058046352 0.14317213 0.16875474 0.23069997 0.12673357 0.14273803 0.12057532
-0.22794083 -0.16960678 -0.227147 -0.053240962 -0.061814714 -0.0687675 0.0023924299 0.017466187
0.018918568 -0.41240153 -0.3051056 -0.1833752 0.024296587 -0.24793366 -0.051260266 0.031625077

bias f4 [64]
00000000: 883b 573e 391d 86be 4e6c fe3d 316b cabe
00000010: dff2 43bd 83b9 ad3e b07f 473e f46f bfbe
00000020: 8381 053e 034f 5cbe 6624 52b9 bf67 78be
00000030: c4e5 f4bd 1fff d53e 00ac c7bd afec ce3d
00000040: 1680 af3e d483 68bb 21f3 223a 9dd5 d83d
00000050: 4429 1cbe 094b 0f3d a020 91bd afcb b83e
00000060: f17e 90b9 6854 a23d 6835 55bb 018b 2f3d
00000070: 2eba 273e c24c 5e3d 92ad 71bd ad29 9d3d
00000080: 7abb d7bd b7a1 39bd a137 783c 95a1 a3bc
00000090: 8134 afbe 5bb7 af3d eb1a 683e 6d54 073e
000000a0: d706 33bd 31b3 043d 4f1b 8dbe a5e6 c2bc
000000b0: fc79 a1be 7aa4 a1be 8ddf d6bc 2423 6c3d
000000c0: befc 6bbe 3787 523c eb41 6abe 68f8 c5bd
000000d0: 451b c33d 3f36 07be e0e2 473d a742 cf3e
000000e0: 19ee 55be 29c7 f73d c48c 51bd 969b 3e3d
000000f0: b413 06be 672e 1cbe 24d9 883e c8a2 763c
0.21018803 -0.2619417 0.12423001 -0.39534906 -0.04783904 0.33930597 0.19482303 -0.373901
0.13037686 -0.21514516 -0.0002004072 -0.24258326 -0.11957887 0.41796204 -0.09749603 0.101037376
0.3427741 -0.0035478966 0.00062160386 0.105876185 -0.15250117 0.03498367 -0.07086301 0.36092898
-0.000275604 0.079262555 -0.0032533053 0.042857174 0.16379616 0.05427242 -0.05900342 0.07673965
-0.10533805 -0.04532024 0.015149982 -0.01997451 -0.34219745 0.08579894 0.22666518 0.132158
-0.043707695 0.032397453 -0.27559897 -0.02379162 -0.3153838 -0.31570798 -0.026229644 0.0576507
-0.23045632 0.012849621 -0.22876708 -0.0966652 0.095266856 -0.13204287 0.04880035 0.4048054
-0.20891608 0.12098534 -0.051159635 0.046535097 -0.13093454 -0.15252076 0.26728165 0.0150534585

weight f4 [64]
00000000: 6ec7 973f 01a5 3140 5050 a83f 891e 2240
00000010: 5148 e63f bd33 af3f 910a a53f 4ee5 2840
00000020: 6408 913f 9ef2 1b40 e768 dc3f d884 b03f
00000030: 3056 b03f 8a29 c53f f4ab e83f a0f4 b73f
00000040: 416a 993f 0d30 c83f 356d b23f 5f04 e73f
00000050: df67 e73f 53e7 bc3f 304a a13f 4402 ae3f
00000060: ab99 a33f 81b9 cf3f 997f c73f 395b 963f
00000070: 48b1 af3f a778 963f 01fe ab3f af22 c23f
00000080: 4e48 f13f d313 b63f 3e73 e93f 9139 a23f
00000090: b973 1240 c666 c33f ec14 a83f 3721 873f
000000a0: 24fc b63f 717a b83f c4d8 1340 448c b23f
000000b0: d156 0340 5ec9 1140 752a ee3f aa4b c23f
000000c0: 88f6 0140 25a7 aa3f 7694 1c40 295a e13f
000000d0: 1560 b23f 8cce be3f 4e02 bc3f 2c45 a13f
000000e0: 7c23 0b40 8a90 bc3f b946 c03f 27ce d23f
000000f0: 7f05 dd3f 734e 983f af33 9c3f ce7f a33f
1.1857736 2.775696 1.314951 2.5331137 1.7990819 1.3687664 1.289385 2.6389956
1.1330686 2.4366832 1.7219514 1.3790541 1.3776302 1.5403302 1.8177476 1.4371529
1.1985551 1.5639664 1.3939577 1.8048209 1.8078574 1.4758095 1.2600765 1.3594441
1.2781271 1.6228486 1.5585815 1.1746589 1.3725977 1.175557 1.3436891 1.5166835
1.8850191 1.42248 1.8238294 1.2673818 2.2883132 1.5265739 1.3131385 1.0557011
1.4295697 1.4412366 2.3101053 1.3949056 2.0521739 2.2779155 1.8606707 1.5179341
2.030672 1.3332258 2.4465613 1.760564 1.3935572 1.4906783 1.4688203 1.2599235
2.1740408 1.473161 1.5021583 1.6469163 1.7267302 1.1898941 1.2203273 1.2773378

bias f4 [64]
00000000: 89ba 6ebe f7b9 c6bd 337b 9d3b 8b48 82bd
00000010: 2f9e 493e 8aac 50be 6070 89bd 4900 52bd
00000020: d249 74be c9f2 72bd f11e 3a3e 3420 a0bc
00000030: ced6 e1bd 99ad d0bd e52c 343e c8f9 0d3e
00000040: 01f7 98bd 7687 5f3d 5544 c73d ea00 393e
00000050: 6927 a33d 9a09 063e ba73 8ebe 41eb 6bbe
00000060: d308 423c 504e 163e e4f8 19be 0f22 00be
00000070: df8c d03d 740f 66be b097 61bd d85b ffbd
00000080: a577 1dbd 470d 613d 1165 3c3e c742 62be
00000090: 3a4c 83bd 1370 103e 1e83 0fbe dede 8ebe
000000a0: 6102 b83d b251 d3bd 476b 70bd 28bf d73c
000000b0: d23c 30bc 34d3 a6bd c6fb 753e ee64 fa3d
000000c0: 98cc c9bd e857 14be 7361 abbd 34cb debd
000000d0: c003 893d 1c3d df3d f990 c13d 3427 88be
000000e0: 163a a8bd b55d 37be b8c5 113e e991 233e
000000f0: 27d1 00be 312c 84bd 906c 6cbe fc8a 62be
-0.23313345 -0.09703439 0.0048059463 -0.06361493 0.19689249 -0.20378318 -0.06710887 -0.051269803
-0.23856285 -0.05931357 0.18175866 -0.019546606 -0.11027299 -0.10189361 0.17595251 0.13864815
-0.07468987 0.054572545 0.0972983 0.18066755 0.07966501 0.130896 -0.27822667 -0.23038961
0.011842924 0.14678311 -0.1503635 -0.12512992 0.10183119 -0.22466832 -0.0550763 -0.1246869
-0.03844418 0.054944303 0.18397929 -0.22095786 -0.064110234 0.14105253 -0.14014861 -0.2790441
0.08984829 -0.103183165 -0.058696058 0.026336268 -0.010756688 -0.081457525 0.24021825 0.12226282
-0.09853476 -0.14486659 -0.08368196 -0.10878602 0.066901684 0.109003276 0.094514795 -0.2659241
-0.08214204 -0.1790684 0.1423558 0.15973629 -0.12579785 -0.06453741 -0.23088288 -0.22123331

running_mean f4 [64]
00000000: 2235 3440 78e4 143e 5784 c93f 5b62 233e
00000010: 0492 f83f 017e 2640 f21d 0840 2b29 0a3d
00000020: 93eb e13f c7de e43d e3ee 973f 12b9 a93f
00000030: f626 243e 404c 3540 5932 cf3e 8c2c d43f
00000040: 6c9b 2340 5f0d 713f 52e3 683f 4a66 1840
00000050: 53a0 bb3d be26 853f 9a99 8e3f f6d5 4640
00000060: 94d0 543f 4c13 6a3f 754e b43e 144d 683f
00000070: 3dc6 0440 420f 2140 aecf 9a3f 4e0e bc3e
00000080: da9d 953e 1c68 883f 202d 2040 6bcb d93f
00000090: 8f39 d63d be22 bf3f b82a de3f eb08 1b40
000000a0: 3ad1 743e 8aa9 043e 8037 aa3d ca8b 233e
000000b0: e8d9 e43d 46a6 213e 936e 0440 ff6e e73f
000000c0: 42ce 953d b9eb d73e 6bde 0c3e bfe5 123f
000000d0: 81c3 343f 55c0 8c3f e7b8 763f 1523 8040
000000e0: 7f9d 173e 46c7 3b3f 5367 b53f 2fcf ab3f
000000f0: be2b e23e 7072 8c3f 9a50 4d40 fd6e 3c3f
2.815743 0.14540279 1.5743512 0.15955488 1.941956 2.6014407 2.1268277 0.033730667
1.7650017 0.11175304 1.1869777 1.3259604 0.16030487 2.832779 0.404681 1.6576095
2.5563612 0.9416103 0.90971863 2.3812432 0.09161439 1.0402448 1.1140625 3.1068091
0.83130765 0.91435695 0.35216108 0.9074261 2.0745995 2.5165563 1.2094629 0.36729664
0.29221994 1.0656772 2.5027542 1.7015203 0.10460197 1.4932477 1.7356787 2.4224193
0.23907939 0.12955299 0.08311367 0.15971294 0.11174375 0.15786085 2.069249 1.8080748
0.07314731 0.4217203 0.1375672 0.57381815 0.70610815 1.0996195 0.9637589 4.0042825
0.14806174 0.7335094 1.4172157 1.3422602 0.44173998 1.0972424 3.2080445 0.73606855

running_var f4 [64]
00000000: d0f4 0641 2f0d 6c3f c243 d240 812b 903f
00000010: c21f 2541 ae6a d140 74ff b140 9ba8 023e
00000020: f4a5 c340 1f2d 213f 5938 a140 c311 da40
00000030: 26a1 653f 1266 e340 efa9 8d3f 6824 0d41
00000040: 2293 ed40 d0f9 8d40 3402 9640 d8f6 8141
00000050: bf4a f53e 1202 8440 15c1 6440 31e9 0441
00000060: b58a 5240 e5c4 6540 ccb0 ef3f e79f 3240
00000070: 5191 1041 f60f 0841 c8a7 ac40 abe9 e43f
00000080: c2ad f23f d19d 8e40 9b45 7b41 5ccd a840
00000090: e833 353f d703 d040 9782 7040 4beb 0641
000000a0: 2a52 5a3f 66d1 1b3f 1944 d73e ebc5 033f
000000b0: 4c42 1b3f e834 763f 86da 4841 928b 0341
000000c0: abb9 b03e 61f2 fa3f 4e57 4c3f 14a8 1440
000000d0: 5150 0f40 3034 8440 6026 7440 1751 2841
000000e0: fec2 743f 7f74 0a40 2b5f be40 c993 c540
000000f0: a34d 2040 2d7f be40 af1a 2641 6993 2a40
8.434769 0.92207617 6.570771 1.1263276 10.320253 6.5442724 5.5624332 0.1275963
6.114008 0.62959474 5.0381284 6.814668 0.8969902 7.1062098 1.1067485 8.821388
7.4242105 4.4367447 4.687769 16.24553 0.4790859 4.1252527 3.5742848 8.3069315
3.289716 3.5901425 1.8725829 2.7910097 9.035478 8.503897 5.395481 1.788381
1.8959277 4.4567647 15.7044935 5.2750683 0.7078233 6.5004687 3.7579706 8.432445
0.8528162 0.6086639 0.42044142 0.51473874 0.60648036 0.9617448 12.55335 8.221575
0.34516653 1.9605218 0.79820716 2.3227587 2.2392771 4.1313705 3.8148422 10.519797
0.95610034 2.1633604 5.949117 6.17429 2.5047386 5.9530244 10.381515 2.6652472

weight f4 [3, 64]
00000000: b47a 91bd 516a 34bf 0fa1 a83e 5010 73bf
00000010: 0b31 2c3e 514f b0bd 3898 d23b 9a52 84bf
00000020: 6102 2e3d c31c 31bf af1c 6d3e f912 393e
00000030: ad08 a1be 6c9d e3bd 7457 543e 5df2 823e
00000040: 3fb2 823d e987 003f 1cf7 bf3e 79bc 313e
00000050: 94bc 01bf 0dbb ce3e d8ec 483c 8cd6 c8bd
00000060: 0cd6 93bd eca7 8dba e878 b2be 24ac 82be
00000070: 4cdf c23e edd3 f8bb 3fa0 103e 65ca c9be
00000080: 8e51 06bf 42e8 8a3e 8426 b53d dc54 a5bd
00000090: c1bb 35bf 97b7 a53e 7071 9d3b 58ec 5c3d
000000a0: f463 d83e 9982 a5be 5a14 42bf 8452 43be
000000b0: 1ad0 5dbf 4c5d 68bf bd69 5c3e 7ec9 a43e
000000c0: 2584 02bf 629f 81be 05bb 34bf 2137 afbe
000000d0: c1ff 05be 0008 873e d3e0 e93e f12c 90bd
000000e0: 17e1 08bf f59e 5dbe 47be b73e c623 b83e
000000f0: 233e abbe 32fe f13c 3e14 0bbe 2294 883c
00000100: c62a 8f3e 1b8d ab3e e52e 773d 7e04 d33d
00000110: f67a 3bbf c56c 0a3f 19e4 e03e 6ce8 223e
00000120: 7d2b a53e 95c3 583e 7359 5fbf b10e 1b3d
00000130: 3d4d a33e 8534 0e3f a6dc 42bf 8008 19bf
00000140: dec5 853e 9d35 10be 4029 e8be 0544 59bf
00000150: 9cc9 04be 7a42 70be 37ff 8d3e e417 023f
00000160: 3fe7 5dbe ff4e 03bf 6131 fa3e 32e8 333e
00000170: 6cd2 d2be 1af9 633e 609f 2a3e c09f be3e
00000180: 6500 cf3e 3607 f2be ddea 54bf e6b2 823e
00000190: 1213 ad3e 3d02 2ebf 8dab aa3e 80b0 6c3e
000001a0: 77a2 c0be 7eba 873e 56d3 603e ef85 89be
000001b0: 13aa 553d c236 a63e cd1c 5abf a7bf 1abf
000001c0: 8a64 1d3e 35a9 b13e c6d1 983e f699 153f
000001d0: dbfa e7be 40fc 11bf a750 d7be 74c1 aa3e
000001e0: 5fe5 4a3e 54f9 f63e 29a7 efbe c945 42bf
000001f0: 3577 023f dd70 1d3e f959 3b3e 42db a63e
00000200: a3fa 05be 7d31 3e3f 5ffd a7be ac62 2e3f
00000210: 235d 5c3e 1262 5abd 236d 8dbe e558 853f
00000220: 2178 7cbd 03f8 403f 40aa 423e 61bb d8be
00000230: a36f 273e f974 d4bc 2a69 d43e ce0c 783c
00000240: b2bc 36be e378 99be 76d2 45bd 32ad 263e
00000250: 662d 2a3f 2ea2 2dbb 2f2f 63be 5a51 0dbe
00000260: d094 ab3e 4888 ad3e de4e 903d 7d7b f53b
00000270: 5274 3fbd 8a95 73be 33d9 cbbe b126 193d
00000280: 71ab 333e 0886 753d 3950 443e 5eb3 46be
00000290: 2da9 1f3f c6c4 da3d 18fe 9ebe 69a3 d5bd
000002a0: 5f05 3bbe 856b 233e b792 1d3f 6753 dc3e
000002b0: 1726 3e3f f719 413f afd6 6b3e d7fe 083d
000002c0: 3afd cc3e bcc0 fb3b f379 1d3f 5709 33bd
000002d0: e966 d03e b5b1 9c3d 0845 44be 9083 4ebe
000002e0: c1d1 e43e 76a8 9bbe 222d 083e ad44 663e
000002f0: 2788 443e 774e 84be 24ba 51be c63f 42be
-0.07103482 -0.70474726 0.32935378 -0.94946766 0.16815583 -0.086088784 0.0064268373 -1.0337708
0.042482737 -0.6918451 0.23155473 0.18073644 -0.31451932 -0.1111401 0.20736486 0.25575534
0.06381654 0.5020738 0.37493217 0.17357053 -0.5067837 0.40377083 0.012263499 -0.098065466
-0.072185606 -0.0010807491 -0.3485787 -0.25521958 0.38060987 -0.007593623 0.14123629 -0.39412227
-0.5246819 0.27130324 0.08845237 -0.08072826 -0.70989615 0.3236663 0.0048047826 0.053936332
0.42263758 -0.323262 -0.75812304 -0.19074446 -0.8664566 -0.9076736 0.21524711 0.32184976
-0.50982887 -0.25316912 -0.7059787 -0.34221748 -0.13085844 0.2637329 0.4567934 -0.07039822
-0.5346846 -0.21642669 0.35887358 0.35964793 -0.33445844 0.029540155 -0.1358194 0.016672198
0.2796232 0.33506092 0.060347456 0.10303591 -0.732345 0.5407222 0.43924025 0.15908974
0.3225974 0.21168359 -0.87245864 0.037855808 0.31894866 0.5554889 -0.7611793 -0.59778595
0.26127523 -0.14082952 -0.4534397 -0.84869415 -0.12967533 -0.23462859 0.27733776 0.50817704
-0.21670245 -0.51292413 0.48865798 0.17569044 -0.41176164 0.22262993 0.16662359 0.37231255
0.40429989 -0.47271127 -0.8317087 0.25527114 0.33803612 -0.67972165 0.33334008 0.23114204
-0.3762395 0.2650947 0.21955618 -0.26859996 0.05216415 0.32463652 -0.85200197 -0.6044869
0.15370384 0.34699407 0.29847544 0.5843805 -0.45308575 -0.5702553 -0.4205372 0.33350718
0.1981406 0.48237097 -0.4680722 -0.75887734 0.50963145 0.15375085 0.1829604 0.32589155
-0.13083892 0.74294263 -0.32810494 0.6811931 0.21519904 -0.053316183 -0.27622327 1.0417753
-0.061638 0.75378436 0.19010258 -0.4233046 0.1635118 -0.025934683 0.41486484 0.015139772
-0.17845419 -0.29975042 -0.048296414 0.16277006 0.6647552 -0.0026494372 -0.22185968 -0.13800564
0.33511972 0.33893037 0.07046293 0.0074915276 -0.04674179 -0.23787513 -0.39814147 0.037390415
0.17545868 0.059942275 0.19171228 -0.1940436 0.62367517 0.10682063 -0.31053233 -0.10431559
-0.18263768 0.15958984 0.61551994 0.4303238 0.7427687 0.75430244 0.23031114 0.03344616
0.40036947 0.007682888 0.61514205 -0.04371008 0.40703514 0.076510824 -0.19166958 -0.20167375
0.4469128 -0.30401963 0.13298467 0.22487135 0.19192563 -0.25841114 -0.20481163 -0.1896964

bias f4 [3]
00000000: 43bc 1e3e 73f4 bbbd cba8 de3d
0.15501504 -0.09177484 0.108720385
