data/models/V8_model_state_dictV1.pth (torch, 114324 bytes, 50 tensors)

conv1.weight f4 [8, 2, 5, 5]
000000 7b 45 10 bf cb 42 20 be bc 7f e5 3e 0b d3 33 3e
       -0.5635602 -0.1565048 0.44824016 0.17560975
000010 c6 f6 33 3e 5a 78 8c 3d 2d c9 6f bb 72 47 bc bc
       0.17574605 0.06858893 -0.0036588416 -0.022983287
000020 b4 ce 00 be 05 71 51 3e 09 d7 90 be 2e 07 03 bc
       -0.12578851 0.2045327 -0.2828906 -0.007997317
000030 58 d3 1b be 04 e1 14 be eb d3 ca 3e 59 e3 86 be
       -0.1521734 -0.14538962 0.39614806 -0.26345327
000040 fa 83 e2 bd a3 c5 73 bd a3 17 a8 3e db 26 c0 3e
       -0.11060329 -0.059514653 0.32830533 0.37529644
000050 9d 4c 65 3e d7 28 3d 3e ed 1b 17 be 13 6d 49 3d
       0.22392507 0.1847261 -0.14756747 0.049176287
000060 8f 30 d7 3e 7e 4e 3a bd cb 1a 83 3e a5 f1 6e be
       0.42029235 -0.045485012 0.2560638 -0.23334368
000070 9c 4f 83 3e 2c 34 53 be 45 cc b0 be f2 d0 68 be
       0.25646675 -0.2062537 -0.34530845 -0.22735956
000080 54 f1 2c 3e 1b 2f 1d 3e 84 2f 9d 3c 97 d8 cb 3d
       0.16888934 0.1535 0.019187696 0.099534206
000090 f6 a2 9f bd f7 2b ef 3e a2 36 1e be a3 85 a0 3e
       -0.07794754 0.4671323 -0.15450528 0.31351957
0000a0 cd 8e 33 bf 40 15 02 bd 27 d1 a9 bd 36 33 a0 3e
       -0.7013977 -0.031758547 -0.08291846 0.3128907
0000b0 c0 93 09 3f 39 76 9b be 1b 60 ae bb 83 17 9f 3d
       0.53741074 -0.30363634 -0.0053215153 0.077681564
0000c0 e4 cc d9 3e 23 e1 22 3f 2b f6 13 bd fb 6c 0d bf
       0.42539132 0.6362478 -0.036123436 -0.55244416
0000d0 90 48 01 3e a4 3e 07 be e5 48 6a 3e f4 b4 85 be
       0.12625337 -0.13207489 0.2287937 -0.2611462
0000e0 26 4d 95 bd 03 25 6a bd 99 da a1 3d eb 34 a8 3e
       -0.072901055 -0.057164203 0.07903022 0.32852873
0000f0 b1 eb 99 3d 35 7f c2 3d 5a 92 28 3e fb 50 9c 3d
       0.07515658 0.09496919 0.16462079 0.07632633
000100 9b 68 76 be 8b ef 52 be fb cf 99 be 41 14 e6 bd
       -0.24063341 -0.20599191 -0.3004149 -0.11234332
000110 10 5b 6c 3e 17 f6 9f 3e bb 6a ce be d2 3c da 3a
       0.23081613 0.3124244 -0.40315804 0.0016650206
000120 b8 05 a3 bc 61 59 34 bd 9a d1 5b 3e 23 73 bd be
       -0.019900188 -0.04403055 0.21466675 -0.37001905
000130 a5 be 94 be ae bf 52 3e 7b 94 a1 3e b1 8a 53 3d
       -0.290517 0.20580932 0.31558594 0.05164594
000140 f4 e9 45 be c0 60 44 be 87 b0 08 be 6f 3c aa bd
       -0.19327527 -0.19177532 -0.1334859 -0.08312308
000150 dc 48 24 be 42 37 de 3c 24 bb 9a bd ea 54 b1 3e
       -0.16043419 0.027125958 -0.075552255 0.34635097
000160 68 7a 0a 3c 80 b4 28 be c8 b9 3d be d5 39 76 39
       0.0084520355 -0.16475105 -0.18527901 0.00023481932
000170 62 45 84 be eb dd c3 bc 36 52 ad 3e 4f 8e 2e bf
       -0.25834185 -0.02390953 0.33851784 -0.68185896
000180 7c 71 00 bf 47 7d 72 be 52 6b ed bc 68 d4 94 bd
       -0.50173163 -0.23680602 -0.028981838 -0.07267076
000190 6c 44 06 bd 9d d2 5d 3e 89 05 93 be f3 51 11 3e
       -0.032780096 0.21662374 -0.2871516 0.14191417
0001a0 37 f2 08 be a4 40 81 3d cb 2e 0b 3f e2 cc 18 3f
       -0.13373648 0.06311157 0.54368275 0.59687626
0001b0 89 d6 67 bd ab 2a 08 3e cf e1 fd bc 4a 9a 9c 3e
       -0.05660108 0.13297527 -0.030991463 0.30586463
0001c0 3e 03 83 3e 21 91 e6 3d 49 a7 6e 3d 20 eb de be
       0.2558841 0.1125815 0.058265004 -0.4353876
0001d0 d0 d0 48 be 18 b2 19 be 0f 6a 12 bc 70 1b 61 3d
       -0.19610906 -0.15009344 -0.008936419 0.054957807
0001e0 29 81 45 3d bc e2 6f 3d 92 64 2c 3e 8b 2f cb bd
       0.04821888 0.05856584 0.1683524 -0.099211775
0001f0 3a 09 04 3f 42 45 0a bb fc 38 ca 3e 45 b0 80 3d
       0.5157658 -0.002109841 0.394966 0.06283621
000200 53 fb 50 bd 76 3a cb 3d 6e 1a 53 3e 0d 5c b0 3d
       -0.05102093 0.0992326 0.20615551 0.08611307
000210 b6 4d 31 bd 71 11 8c 3d 8c 54 90 3e 7f b7 14 be
       -0.043287 0.06839264 0.28189504 -0.14523123
000220 cc f8 da 3e 7f fd 16 be 0b a9 70 3d d2 72 8a be
       0.42767942 -0.14745139 0.058754962 -0.27040726
000230 de c8 ad be 27 55 08 be ce de bf 3d e7 31 24 be
       -0.33942312 -0.13313733 0.093686685 -0.16034661
000240 7c b2 06 3d 49 6c c2 3d 7f e3 fd 3e 67 cb d4 3e
       0.03288506 0.0949331 0.49587628 0.41561434
000250 f0 c5 50 bd 98 5a 10 3e 44 95 9e 3e 2d b3 51 3e
       -0.050970018 0.14097059 0.30973256 0.20478506
000260 19 2a 9f 3d 59 4e 17 3f 1d 58 ea 3e 88 c1 9a bd
       0.07771701 0.59103924 0.4577035 -0.075564444
000270 20 39 1e bf 2c 94 08 be 5c 94 0a be 54 60 81 3e
       -0.61805916 -0.13337773 -0.13533157 0.25268805
000280 e4 23 8a be ce fe 9f bd f5 ca 25 bd 82 ea 5f 3d
       -0.26980507 -0.07812272 -0.040476758 0.054667003
000290 f9 f2 ea 3d 38 6e 0e be d4 9f 00 bd a7 d0 76 3e
       0.114721246 -0.13909233 -0.031402424 0.24103032
0002a0 60 66 96 3e d4 f9 3f 3e f2 c7 04 3b d4 1b 5c be
       0.2937498 0.18747646 0.0020260778 -0.2149499
0002b0 99 27 be be 07 a8 91 bc 05 33 49 be 0d 2c 86 be
       -0.37139586 -0.017780317 -0.19648369 -0.26205483
0002c0 76 7b 12 3e 70 d1 83 3d 98 f5 a7 3e 22 45 63 3e
       0.14304909 0.064364314 0.3280456 0.22194341
0002d0 42 5c 81 be 23 22 5c be 79 70 bf 3d d4 15 83 3d
       -0.252657 -0.21497397 0.09347624 0.06400648
0002e0 34 ea 00 3f b4 7f 97 bd 60 7f 47 be ee ab 27 3e
       0.50357366 -0.07397404 -0.19482183 0.1637418
0002f0 ff 7d 82 3e 43 df 92 3c c5 6d 14 bd c2 8b 8e be
       0.25486752 0.017928725 -0.036237497 -0.27841002
000300 b9 7c 5c be 24 f1 4b 3d 38 b6 82 3b fe ad cf bd
       -0.21531953 0.049790516 0.0039890073 -0.10140608
000310 e0 dc b5 3e 45 fb fd 3c 20 8d a6 3d f2 88 c8 be
       0.35520077 0.031003604 0.08132386 -0.3916698
000320 93 68 a7 be e0 a8 82 3e ed 7b 90 bd f2 f6 b5 3e
       -0.3269697 0.25519466 -0.07054887 0.35539967
000330 4e be a2 3e b4 15 c0 bd b5 26 28 3c da af be bd
       0.31785816 -0.093791395 0.010263135 -0.09310885
000340 9b 8c 33 bb 68 6c 3f be c2 86 a0 be 26 0b 3f 3e
       -0.002739704 -0.18693697 -0.31352812 0.18656597
000350 37 80 c3 be b8 3a ce bd 8d cd 73 be 50 db a2 be
       -0.38183758 -0.100697935 -0.2380888 -0.31807947
000360 61 af 9e 3d fd b6 08 bd 9e f3 b0 bd 05 fe f4 bd
       0.077482946 -0.033377636 -0.08640216 -0.11962513
000370 7a d0 ef be 5b b8 a0 be 8c ec 4f be 4b 94 12 be
       -0.46838742 -0.31390652 -0.20305079 -0.14314382
000380 3e 86 24 3d 28 b2 c0 3e 62 ef cd bd f7 24 d0 3d
       0.040167086 0.37635922 -0.10055424 0.101633005
000390 c4 28 66 3e 5d 53 2f be 59 4c 79 be af f8 e5 bd
       0.22476488 -0.17121644 -0.2434553 -0.11229073
0003a0 fd 7f 07 3e 6b 4e 9d bb 62 eb 0b 3e 08 42 00 be
       0.13232417 -0.004800608 0.1366401 -0.12525189
0003b0 97 dc a9 bc 39 1a d3 be ab ad 9a be fb 8d 95 be
       -0.020735068 -0.41230944 -0.30210623 -0.29209885
0003c0 ea 56 37 3b 85 c4 b6 be 09 f3 79 3e 29 4b 99 be
       0.0027975389 -0.35696808 0.24409117 -0.29940155
0003d0 e6 17 1e be a2 df 31 be e3 c1 45 3e 75 97 43 be
       -0.15438804 -0.17370465 0.19312243 -0.19100745
0003e0 b3 7d 5b be b7 70 08 bd b2 b5 ab be 63 47 6d be
       -0.21434669 -0.03331062 -0.3353706 -0.23171763
0003f0 dc 46 1a be 04 a1 9f bd 16 d3 af 3e 0f d0 ea 3d
       -0.15066093 -0.07794383 0.34340733 0.11465465

conv1.bias f4 [8]
000000 14 4f 9b be 5f b5 bc be b0 69 f3 be 61 ab 20 bf
       -0.3033377 -0.36857125 -0.4754157 -0.62761503
000010 b3 04 a4 bd 3e 0b 1a bf 2d a7 b2 3e 62 44 0b bf
       -0.08008709 -0.60173404 0.3489317 -0.5440122

bn1.weight f4 [8]
000000 da b0 87 3f 3a f1 1f 3f c0 0d 45 3f 29 d7 4a 3f
       1.0600846 0.6247746 0.76974106 0.7923456
000010 fb 38 5d 3f b7 83 ac 3f 0e f1 58 3f 0b 81 81 3f
       0.8641507 1.3477696 0.8474282 1.0117506

bn1.bias f4 [8]
000000 8a b9 c7 3e ae 05 aa be 68 c3 e3 be c6 8e 75 3e
       0.39008743 -0.33207458 -0.4448502 0.23980245
000010 d6 e9 19 3e a7 2f d2 bd e7 ca 90 be 67 03 e8 be
       0.15030608 -0.10262995 -0.28279802 -0.45315096

bn1.running_mean f4 [8]
000000 9d 3d 45 3f 1f e3 5b 3f c1 54 62 3f 82 c8 93 3e
       0.7704714 0.85893434 0.88410574 0.28863913
000010 0d 48 a9 3f b0 dc ef 3e 22 cc 6e 3f 00 f0 01 3f
       1.3225113 0.4684806 0.9328023 0.50756836

bn1.running_var f4 [8]
000000 e2 1d 11 40 3f 45 46 40 c8 60 2b 40 5d fb 13 3f
       2.267449 3.0979764 2.677782 0.57805425
000010 76 7c c6 40 bd 68 98 3f da db ee 3f 06 06 8c 3f
       6.202693 1.1906964 1.8660843 1.0939338

conv2.weight f4 [16, 8, 3, 3]
000000 d0 fe 52 3d e2 fd f8 3c 83 f0 9d bc c9 80 0a be
       0.05151254 0.030394498 -0.019279724 -0.1352569
000010 6b 2e 24 bd 9c 77 ae 3d c9 be db be fb 8a 04 be
       -0.04008333 0.085189074 -0.42918995 -0.12943642
000020 d6 56 25 3c 25 74 98 3d 19 9c 69 3d 47 bf e3 3d
       0.010091504 0.07444028 0.057033632 0.11120468
000030 77 99 f9 bd e7 14 ed 3c b2 2c 9c 3e 71 1d db 3d
       -0.12187474 0.028940631 0.3050285 0.10698975
000040 71 49 74 3e 07 9c fc 3c 29 41 b6 3e 6f b9 ad 3d
       0.2385614 0.030836118 0.35596588 0.08482634
000050 30 3d a2 3d 14 be 38 bd de 06 53 3d ae c1 0b 3f
       0.07921827 -0.045103148 0.05152022 0.54592407
000060 d6 fa 24 3e 51 e8 8a 3e 4c 69 a5 3e 08 10 8b be
       0.16111311 0.27130368 0.32306898 -0.27160668
000070 7d fc 9f be ec 59 92 be e1 a9 ab 3d b0 9f 98 be
       -0.3124732 -0.2858423 0.08382011 -0.29809332
000080 4d d6 94 bd d8 3b 2d 3e 8f 55 9f 3d 75 95 93 bd
       -0.07267437 0.1691736 0.07779991 -0.07206241
000090 69 e3 f9 bc 03 d7 3f 3e a5 66 cf 3e e0 f7 9e 3d
       -0.030503945 0.18734364 0.40508 0.07762122
0000a0 ca 40 bf 3d 31 5d b1 3e 04 f9 c1 3d 6c 16 9f 3d
       0.093385294 0.34641412 0.09471324 0.077679485
0000b0 b1 1d 1a 3e 4d 5c a6 3e 79 d9 5c 3e b6 c2 90 3c
       0.15050389 0.32492295 0.21567334 0.01767097
0000c0 3c f0 2b 3e d5 f6 ce 3d 58 72 ea bd 2e b3 79 be
       0.16790861 0.10105673 -0.114475906 -0.24384758
0000d0 c7 f1 4e be d9 2c 1d 3e 1b 77 cc 3e 62 8d 86 3e
       -0.20209418 0.1534914 0.3993462 0.26279742
0000e0 d6 0a 0a be ec 3f d1 3e 45 a1 bc 3e e2 3a 38 3e
       -0.13480696 0.4086908 0.3684179 0.17991212
0000f0 45 0c 1f bd fc 44 ed bd a0 53 84 3e 3e 10 e7 be
       -0.03883006 -0.11585423 0.2584505 -0.4512958
000100 89 09 c1 bd 33 79 a7 be 41 4d 24 3e 12 48 90 3e
       -0.09425647 -0.32709655 0.16045095 0.28179985
000110 6f 1a bd 3e 51 ed a8 bd 6b d6 57 bc 58 87 cc 3d
       0.3693423 -0.082483895 -0.01317368 0.09986752
000120 0c 0e 46 3e 7e 2a 2c 3e 56 fa a2 bd 20 83 bd 3c
       0.19341296 0.16813084 -0.07957904 0.023133814
000130 9c e9 4e be 83 eb 0a 3d 6d 90 c8 3b 25 f1 21 be
       -0.20206302 0.033916008 0.0061207325 -0.15814646
000140 ed 4c 13 bf 4b dd 4c bd c5 8b 8f 3e 02 b8 87 3d
       -0.57539254 -0.05001573 0.28036323 0.066268936
000150 9e 30 d5 bd aa f0 00 be 81 fb 99 3e da 5a f4 3d
       -0.104096636 -0.12591806 0.30074695 0.11931391
000160 b5 ac 81 3d 57 71 44 3e 75 a3 1f 3d b6 83 72 3d
       0.063317694 0.1918386 0.038974244 0.05920764
000170 5c de bb bd 43 09 79 3e d4 27 b1 3e 70 96 74 3e
       -0.09173271 0.2431994 0.346007 0.23885512
000180 e4 62 db bd ad 26 50 bc a4 fe 4e bd 9f b9 85 3c
       -0.10712221 -0.0127045335 -0.050535813 0.016323863
000190 2b d6 c6 3d 22 2a a3 be bf d4 71 bc 49 7f 02 be
       0.09708818 -0.31868082 -0.014760195 -0.12743868
0001a0 1b 9d 41 bd ca 3e 00 be 85 1b 9d 3e f5 66 59 be
       -0.047268968 -0.12523952 0.30685058 -0.21230681
0001b0 6b 74 00 be 07 67 db 3d bc 64 f5 3d 47 10 19 3e
       -0.1254441 0.1071301 0.11982104 0.14947616
0001c0 ea 2a 28 3d 88 d2 18 3e 77 2f 1d bd 0d 93 6a 3e
       0.04105655 0.14924061 -0.038375344 0.22907658
0001d0 6e 26 3d 3e 62 ed 86 bd d8 b2 95 3e 5f 25 b4 3e
       0.18471691 -0.06588246 0.2923801 0.35184762
0001e0 c5 60 38 3e 10 c3 f6 3d 95 1e d5 ba 66 96 93 be
       0.18005665 0.12048924 -0.0016259725 -0.28825682
0001f0 93 9f e6 3e 4d 31 b6 3d a5 b0 bc 3a 10 f8 3e 3d
       0.4504362 0.08896122 0.0014395906 0.04662329
000200 db 6e 4c 3e b9 36 a5 3e 22 6e e2 3e 05 99 71 3d
       0.19964163 0.32268313 0.4422465 0.05898382
000210 eb 6f 31 3e 42 cf 1d 3e 49 08 37 3d 84 c0 fa bd
       0.1732785 0.15411094 0.044685636 -0.12243751
000220 25 3b 28 bd a4 9d c9 be 59 13 77 3c ea 42 3a bd
       -0.04107203 -0.39378083 0.015080296 -0.04547397
000230 e7 58 0d bf a9 a4 16 3f f6 e3 d7 3d 81 d4 ba 3d
       -0.5521378 0.58845 0.10541527 0.09122563
000240 14 2c fe bc 3c 6f 73 3e a2 71 fd be 17 d7 4e be
       -0.031026877 0.23772901 -0.49500757 -0.20199238
000250 98 06 e1 3d fd a3 52 bd 99 4c e4 be 61 d6 7c bc
       0.10987586 -0.051425923 -0.4458969 -0.015431971
000260 e1 9d db 3d 95 a5 9b 3d 0c 1a 93 bd ef a2 f4 3e
       0.107234724 0.07599942 -0.071827024 0.47780558
000270 16 04 9c be bf 35 e4 3e b6 8d 2b be 29 36 a9 bd
       -0.30471867 0.44572255 -0.16753277 -0.08262283
000280 43 0a 0f bd 0b 2d bd 3d 8e ae a1 be c1 85 13 3e
       -0.034921896 0.09237107 -0.31578487 0.14406492
000290 fa aa 35 bc ab 5b 64 be 72 5c cf 3d b9 7a 94 3d
       -0.011088127 -0.22300594 0.101250544 0.0724997
0002a0 df b1 47 be 91 8a 37 be 10 54 8e 3e ea 4a fd 3b
       -0.19501446 -0.17923953 0.2779851 0.0077298777
0002b0 5e 71 cf be 2a f0 1a bf 85 b4 cc 3e 2f 01 07 be
       -0.4051618 -0.6052271 0.39981475 -0.13184045
0002c0 f0 5b 9b 3e 22 ab 6c 3b 2a 9b 09 3e 09 2e 85 3e
       0.3034358 0.0036112745 0.13438097 0.26011685
0002d0 5c c6 c9 bd 2a 07 f0 bd cd 8d 91 bd a2 5c 0a bd
       -0.09852287 -0.117201164 -0.071071245 -0.033779748
0002e0 f5 3e 8f bd d0 c1 b9 bd 5c 62 7a be 97 22 bc 3d
       -0.0699443 -0.0907017 -0.24451584 0.09186285
0002f0 24 69 42 be dd dd 89 be 44 d3 e8 be 6e 4b 88 bd
       -0.1898542 -0.2692708 -0.45473683 -0.06655012
000300 88 f4 a1 be 0f a8 20 be a4 2b 2b 3e 9e 64 58 3e
       -0.31631875 -0.1568911 0.16715866 0.21132132
000310 34 64 4a 3e 5d da d3 3e 58 30 15 3e ad fe 23 3e
       0.19764787 0.41377535 0.14569223 0.1601512
000320 4d 7f 8d 3e c1 c0 75 be 44 66 74 3e d2 68 0a 3d
       0.27636185 -0.23999311 0.23867136 0.03379137
000330 1b 2b eb 3d ab 88 ef 3d 40 31 35 3e 79 45 c4 3c
       0.11482831 0.11695989 0.17694569 0.023958908
000340 67 73 5f be 74 82 8a be 3b 07 c9 3e 2f 4f 8c 3e
       -0.21821366 -0.27052653 0.3926333 0.27404162
000350 44 b7 0d 3e cb 29 76 3c da 64 da bd 7b 1c b6 3e
       0.13839442 0.015024613 -0.10663767 0.35568604
000360 25 49 14 3d 02 0d e2 bc df eb 4e be 2f 0a 60 bc
       0.03620257 -0.027594093 -0.20207165 -0.013674303
000370 ff ca 81 be 1f c1 b7 be 0a 16 c1 be 2a 85 ba be
       -0.25350186 -0.35889527 -0.37712127 -0.3642972
000380 b1 ba 32 be 9a cf 80 3d a2 d5 c8 3d df e4 2e be
       -0.1745403 0.06289597 0.09806372 -0.17079495
000390 20 58 a0 bd e9 ff 22 3d 1a 37 28 be d7 16 42 3e
       -0.078293085 0.039794836 -0.1642727 0.18954025
0003a0 db b1 93 3e 11 5d 07 be 08 40 5d 3d 21 07 58 be
       0.2884663 -0.13219096 0.054016143 -0.2109647
0003b0 59 c6 3d be 5c 0c 9e 3e bd 5f aa bd 49 c5 0c bd
       -0.18532695 0.30868804 -0.08319042 -0.034367833
0003c0 ca 7d 95 3e f4 c0 3c be c4 bd 85 bd f8 04 2e be
       0.29197532 -0.18432981 -0.065303355 -0.16994083
0003d0 e5 d9 a7 3d 53 3a b0 bb 7d f8 36 be 28 a3 34 be
       0.08195857 -0.0053780465 -0.17868228 -0.17640364
0003e0 7d 3c 03 3e a1 f4 8b 3e 40 4b ae 3d 8a e1 fe be
       0.12816043 0.27335075 0.085104465 -0.49781448
0003f0 48 e5 fb bc 9c 31 28 3c 2d 4a 28 bb 9a c5 26 be
       -0.030748978 0.010265734 -0.0025678978 -0.16286317

conv2.bias f4 [16]
000000 ab b7 bc be 61 7f 38 be 93 34 f6 be 50 df df be
       -0.36858878 -0.18017341 -0.48086986 -0.4372506
000010 35 bb fa be a2 28 a6 be 17 a6 28 bf 8f fe 28 be
       -0.48970953 -0.32452875 -0.65878433 -0.16503356
000020 bb d8 2a bc 56 f6 b8 be b8 f7 20 3d 04 6d 92 3c
       -0.010427649 -0.3612544 0.039298743 0.017874248
000030 bd 4c 96 be 75 35 ba bd 87 5a 46 be ed 86 9c be
       -0.29355422 -0.09092227 -0.19370471 -0.3057169

bn2.weight f4 [16]
000000 ec 8c 37 3f 24 a9 5b 3f ec 45 50 3f 39 e8 a6 3f
       0.71699405 0.85804963 0.8135669 1.3039619
000010 bf ef 59 3f b9 c0 a5 3f 96 b9 80 3f f8 4e 4a 3f
       0.8513145 1.2949439 1.0056636 0.79026747
000020 9b b3 5e 3f c1 5a 7d 3f 47 38 8f 3f 06 2a 73 3f
       0.86992806 0.98966604 1.118905 0.94986
000030 06 60 45 3f 9e 00 4e 3f 42 7f 83 3f be 46 49 3f
       0.77099645 0.8046969 1.0273211 0.7862357

bn2.bias f4 [16]
000000 9a a8 b3 3e 7b 85 00 bf 7f cf 4c 3e 22 c5 36 be
       0.3508957 -0.50203675 0.20001028 -0.17848638
000010 25 f0 c1 3b 89 17 e1 be e7 91 89 bd 39 96 ab 3d
       0.00591852 -0.43963268 -0.06717282 0.08378262
000020 59 11 d0 3d ad e3 8b bc 57 69 d2 3e 7b f6 26 be
       0.10159559 -0.017076338 0.41095993 -0.16304962
000030 2c 1e c7 bd 70 96 88 bd 9e 61 e6 be 7e 36 f3 3e
       -0.09722552 -0.06669319 -0.4499635 0.47502512

bn2.running_mean f4 [16]
000000 00 37 09 3f 93 5b 1b 3f 31 03 d9 3d 25 8c 1c 3e
       0.5359955 0.60686606 0.10596312 0.15287836
000010 e4 b8 36 3f 2b 4d 15 3f 69 36 b0 3e c0 13 c5 3f
       0.7137587 0.58320874 0.34416512 1.5396652
000020 be 5a ea 3f 5b 82 2c 3f 63 2c cd 3f b0 0e b8 3f
       1.8308942 0.67386407 1.6029171 1.4379482
000030 c3 ef 57 3f f2 20 3f 3f 1d 3e b1 3f f1 35 8f 3e
       0.8435022 0.74659646 1.384708 0.27970842

bn2.running_var f4 [16]
000000 93 b9 17 40 0a af 11 40 50 ee 8e 3e 1b a5 05 3f
       2.3707016 2.2763085 0.27916193 0.52205056
000010 f0 15 60 40 d3 ff d3 3f e0 d1 b2 3f 89 08 74 40
       3.501339 1.6562446 1.3970299 3.813021
000020 05 e6 14 40 89 c1 25 40 25 47 e8 3f 1b d2 31 40
       2.3265393 2.5899374 1.8146712 2.7784488
000030 0e bf 4f 40 6b 9a 14 40 dc 37 44 41 6a 5e 8f 3f
       3.246036 2.321925 12.263638 1.1200688

conv3.weight f4 [32, 16, 3, 3]
000000 f7 3a cf 3d aa 92 a0 3d ea cb c2 3d 12 58 c3 bd
       0.101186685 0.07840474 0.0951155 -0.095382825
000010 9b 58 15 bd f2 2d ac 3d 1c 5f b5 bd a8 6c 39 be
       -0.036461454 0.08407201 -0.08856031 -0.18107855
000020 ff e3 42 3c 33 96 23 bc ca 8a e1 3c 7c c8 1f bd
       0.011895179 -0.009984541 0.027532 -0.039009556
000030 d1 50 e0 3c a0 82 17 3b 9f ed ef 3e 75 f9 60 bb
       0.027382286 0.002311863 0.46860978 -0.0034328375
000040 f6 ab b0 3d 74 f9 a3 3d fa e7 ae 3c 1e 4a d4 3d
       0.08626549 0.08006564 0.02135085 0.10365699
000050 a5 c1 3a be cb 96 7a be c0 60 b7 be af 6a 5b 3e
       -0.18237932 -0.24471585 -0.35816002 0.21427415
000060 aa 60 d1 bd 03 4e 46 be 9d 4f 4e 3e 28 7d 6d 3e
       -0.10223515 -0.19365697 0.20147558 0.23192275
000070 96 d5 9e 3e 85 d6 08 3f 44 80 a4 3b 36 3b 3c 3d
       0.31022328 0.5345233 0.0050201733 0.045954905
000080 08 1a 37 3e 86 9d c7 3d 6e 96 63 be a5 61 78 3e
       0.17881024 0.09746842 -0.22225353 0.24255998
000090 f2 35 95 3d dc 13 a4 3e bc ae a2 bd db 0d 9b be
       0.0728568 0.32046402 -0.07943484 -0.30284008
0000a0 8d ba 75 3d cc 5e 00 be da 06 63 be 97 1f 49 3d
       0.05999236 -0.12536162 -0.22170582 0.049102392
0000b0 c0 0d 32 bd 2e 8a 3f 3e 38 fa ab 3d 2b 1d d9 bb
       -0.043470144 0.18705055 0.08397335 -0.0066257915
0000c0 59 22 b4 3d 1a 73 63 3e 2b 43 ca 3d cd 4a 87 3e
       0.08795614 0.22211877 0.098760925 0.26424256
0000d0 17 8f 2c 3e 68 77 09 3f 73 a9 74 3e 08 73 65 3e
       0.1685146 0.53697824 0.23892765 0.22407162
0000e0 9e 6c 54 3e 24 b2 2e be d1 2f 52 bd 29 e9 79 3e
       0.20744559 -0.17060143 -0.051315133 0.2440535
0000f0 33 08 93 be aa 66 99 be c9 58 17 be 82 85 8c 3d
       -0.28717193 -0.2996114 -0.14779963 0.06861402
000100 ae 89 fe bc a6 c7 30 3e 75 ab 9d be d3 b6 4e bd
       -0.03107151 0.1726366 -0.30794874 -0.050467324
000110 b6 67 13 be e8 1c 96 3d dd 4e 67 bd b0 11 ea 3d
       -0.14395031 0.07329732 -0.056471694 0.11429155
000120 fe cd ab b9 d2 c4 f5 3d b6 8f ab 3d 11 13 82 3e
       -0.00032769138 0.12000431 0.0837702 0.25405172
000130 a7 56 80 3e 36 33 fd 3d 28 05 88 bd 37 50 00 be
       0.2506611 0.12363283 -0.066416085 -0.125306
000140 fe 3d 70 be a5 11 d2 bd ec f2 08 3e bc 07 d5 be
       -0.23461148 -0.10257272 0.13373917 -0.41607463
000150 e6 c9 db bd 26 07 46 3d c4 e6 f2 bc a1 ac c2 3c
       -0.107318684 0.04834666 -0.029651053 0.023763957
000160 a1 23 14 bf 95 62 a9 bd 86 f2 92 3e 4e b8 d3 3e
       -0.57866865 -0.08270756 0.28700656 0.4135155
000170 5f 9f ca 3e 7e ed 21 bd ea 04 c2 3d 80 b6 5b 3c
       0.39574715 -0.03953313 0.094735935 0.013410211
000180 e2 63 34 be b2 f1 f9 3d a0 9f b1 3b 99 f1 65 3e
       -0.17616227 0.12204303 0.00542064 0.22455443
000190 40 0f 01 be 97 c1 27 3e 05 41 d4 bd 60 dd d4 be
       -0.12603474 0.16382442 -0.10363964 -0.41575146
0001a0 23 18 ab be c3 71 88 be d6 1c 63 be 5a d9 4a be
       -0.33416852 -0.26649293 -0.22178969 -0.19809476
0001b0 0f d0 1a 3d ae 0c 9d 3e 6d 67 9d bc f1 55 3c be
       0.037796076 0.30673736 -0.019214356 -0.18392159
0001c0 4e 1a 70 3c cc 4a da bd 42 e2 db bd 49 87 0d 3d
       0.014654709 -0.106587976 -0.10736515 0.034552846
0001d0 92 0b 33 be aa 7d 0c 3e f8 01 6a bc 5f 2e dc 3d
       -0.17484882 0.13719812 -0.014282696 0.10751032
0001e0 d1 52 88 3d ef eb 08 3e 81 0b 05 be 4e c6 35 3d
       0.06656421 0.13371252 -0.1299267 0.04437857
0001f0 34 7d b3 bc f0 4b 90 3c d8 32 16 3e 88 4f 4e bd
       -0.021910287 0.017614335 0.14667833 -0.050368816
000200 32 58 de bc c4 15 03 3e 23 8d ea 3d 66 96 d8 3d
       -0.027141664 0.12801272 0.11452701 0.10575561
000210 c1 06 90 ba b9 eb 56 3e a7 67 75 3e 31 39 db bd
       -0.0010988341 0.20988359 0.23965321 -0.10704268
000220 7c e9 4f be eb 7a 8a bd df 5b 7a be f8 b2 a4 3d
       -0.20303911 -0.06761726 -0.24449109 0.08041948
000230 c8 e4 85 3b 2d bb c5 bd 0f d3 3f be 25 bd 25 3e
       0.0040861107 -0.096548416 -0.18732856 0.16185434
000240 1c df 87 3e d5 dc 14 3e 38 1c ba 3d fe b7 16 be
       0.26537406 0.14537366 0.090874135 -0.14718625
000250 aa a6 0d be 0a 2c 0a 3e 25 20 8d 3e c4 c8 31 3e
       -0.13833109 0.13493362 0.27563587 0.17361742
000260 8a 9a 84 3d cb 81 73 3d 76 c9 1b 3e ef af 7d bd
       0.064747885 0.059449952 0.1521357 -0.06193536
000270 04 54 a2 3e 5c 97 0f 3e ff 20 9b bd 14 31 fb 3d
       0.31704724 0.14022583 -0.07574653 0.1226522
000280 54 40 68 3e 41 f3 72 3e 3f 7c 68 be ca ab 81 3d
       0.22680789 0.23725607 -0.22703646 0.06331594
000290 3e e2 1b 3e 43 01 7c 3e 97 52 33 be 81 8f ec bd
       0.15223023 0.24609856 -0.17511974 -0.11550809
0002a0 23 d8 11 3e ac 05 07 3d d0 9e 1b bd 55 73 8f 3e
       0.14242606 0.032964393 -0.037993252 0.2801768
0002b0 d1 da 6c 3d 2a a5 ff bd 0a bc 3b 3e 80 df 17 3e
       0.057825867 -0.124826744 0.1833345 0.14831352
0002c0 c2 67 d5 bd 12 9b 66 3e 83 ed 9e bd c4 5e 94 be
       -0.10420181 0.22520092 -0.077601455 -0.2897855
0002d0 b9 6f 4e 3e 85 6f 90 3e 2a fc 47 3d 43 29 70 3e
       0.20159806 0.28210083 0.048824467 0.2345324
0002e0 7f 2d 4f bd 26 d9 62 3e 06 3e bd 3c 9e dc c0 3e
       -0.050580498 0.22153148 0.023100864 0.37668318
0002f0 5b 09 78 3e 95 2b b8 bd ae 84 da 3c 33 ea e2 3c
       0.24222319 -0.089926876 0.026674595 0.027699566
000300 30 10 b9 3b 80 49 d1 bd ba 23 98 3e 51 5e b6 3d
       0.0056476817 -0.10219097 0.29714757 0.08904708
000310 12 07 82 be f3 0e 0a 3e b0 b8 9e 3d 70 e8 85 3d
       -0.2539602 0.13482265 0.0775007 0.065384746
000320 22 b8 8b be e2 47 52 be 57 37 9b be b8 f0 12 be
       -0.2728892 -0.20535234 -0.30315658 -0.1434964
000330 0c 3c ea 3e 07 74 13 3f 65 7a b8 3d 5e 76 83 bb
       0.45748937 0.5759892 0.0900772 -0.004011913
000340 80 cc 6e bd de f8 e1 3d a7 40 77 3e 11 3c 96 3e
       -0.058300495 0.11033796 0.24145757 0.29342702
000350 31 07 f8 3d 54 d9 ad bd 69 c1 1c 3d 59 b5 f3 3d
       0.12110747 -0.08488718 0.038270388 0.11899824
000360 bc 85 62 3d ef 42 ac bd 32 73 b2 bd b0 0b e9 3d
       0.05530332 -0.08411204 -0.08713378 0.11379182
000370 e4 6d 42 be 53 38 c8 3d 27 3d 18 be ec 7b 72 bd
       -0.18987232 0.09776368 -0.14867078 -0.059200212
000380 80 fc 6f bd 35 d2 cb bd ce c4 b7 bc 1c 6c 25 3d
       -0.058590412 -0.09952203 -0.022432711 0.040386304
000390 47 51 c9 bd 3e 73 0d 3e 4a 9d 7b 3e 55 14 87 bd
       -0.098299555 0.13813493 0.2457172 -0.06595675
0003a0 68 6f ce bd bc 72 52 3d b4 df 66 3e 82 cf ab 3e
       -0.10079843 0.05137895 0.22546273 0.33556753
0003b0 a1 f1 51 3e c4 a2 6f 3d 4a d1 a3 3e cf d3 b5 bd
       0.2050233 0.058504835 0.31995612 -0.0887829
0003c0 bb 41 3d 3e 9b a1 90 3e 98 e7 1a bd a3 00 9a 3c
       0.18482105 0.28248295 -0.03781852 0.018799132
0003d0 3b a1 d7 3d 85 74 dc bc da e1 38 3e e4 43 4c 3d
       0.10528799 -0.02691103 0.18054906 0.049869433
0003e0 77 68 95 3d 24 b9 74 bd 55 93 70 be d3 3c bf 3d
       0.07295316 -0.059746876 -0.23493703 0.09337773
0003f0 3d 92 10 bc d8 3e 2f 3e e2 b5 8b 3d 4b 63 3a 3d
       -0.008823928 0.17113817 0.06821801 0.04550485

conv3.bias f4 [32]
000000 4f f8 d0 be d5 e3 bf be a2 a2 e9 bd 2e 23 be be
       -0.40814444 -0.3747851 -0.11407973 -0.37136215
000010 97 0f e2 3d e9 c0 2d be 18 c3 80 3d 34 35 ac bc
       0.1103813 -0.1696812 0.06287211 -0.021021463
000020 6a c9 cd be cd 46 fd 3c 94 88 a6 3d b4 c1 7b be
       -0.4019273 0.03091755 0.08131519 -0.2458561
000030 2d 0b 22 3d 1c 44 91 be 8d a9 b5 bd 4b 8d da be
       0.03956144 -0.28372276 -0.0887023 -0.42685923
000040 67 e9 59 be bf 91 32 be f5 a0 95 be 82 c2 4c be
       -0.21280442 -0.1743841 -0.29224363 -0.19996074
000050 8e 5b 13 bf df df 15 be c0 3c ad be bf c9 70 be
       -0.57561576 -0.14636181 -0.3383541 -0.2351446
000060 6d d3 26 bf d3 c8 a0 be 34 d8 81 be de d9 2a be
       -0.6516636 -0.31403217 -0.25360262 -0.16684672
000070 1c 2f 50 be 7c 51 f2 bd 3e 07 04 bf 16 7e 16 bf
       -0.20330471 -0.11831948 -0.5157355 -0.5878614

bn3.weight f4 [32]
000000 e5 30 87 3f e1 77 2d 3f 63 d6 5b 3f 91 ca 92 3f
       1.0561796 0.67761046 0.85874003 1.1468068
000010 84 e2 7b 3f a9 96 9d 3f 64 65 29 3f 4e 4c 08 3f
       0.9839251 1.2311603 0.66170335 0.5324143
000020 0c 47 8e 3f 0c e8 96 3f 99 50 76 3f ef fd 3b 3f
       1.1115432 1.1789565 0.9621673 0.73434347
000030 c8 40 24 3f 6e 83 76 3f 82 af 22 3f bb 76 68 3f
       0.6416135 0.96294296 0.63549054 0.9080617
000040 90 6d 16 3f ad f0 12 3f 8c a2 12 3f 04 68 56 3f
       0.5876093 0.5739849 0.57279277 0.83752465
000050 aa 56 51 3f f8 4b 3b 3f a6 bc 85 3f 42 e7 12 3f
       0.81772864 0.73162794 1.0448196 0.5738412
000060 ed 32 45 3f 8c 5f 92 3f d3 82 5a 3f db b2 84 3f
       0.7703083 1.1435409 0.8535587 1.0367082
000070 a8 bc a1 3f 3d b7 68 3f f5 71 84 3f 4a 17 84 3f
       1.2635698 0.909046 1.0347277 1.0319607

bn3.bias f4 [32]
000000 00 09 13 3f db a3 0e 3f ec 3b 83 3e ce 7a 85 be
       0.5743561 0.55718774 0.25631654 -0.26070255
000010 ac ce 1c 3d c4 a5 25 3f 9f 93 0f 3f 88 2f 50 be
       0.038283035 0.64706063 0.56084627 -0.20330632
000020 18 6d 6e be ff 63 f6 3d 11 fe 2d 3d 53 02 19 3f
       -0.23283803 0.120307915 0.042478625 0.5976917
000030 31 c8 ba 3d be a6 11 3f 01 62 b3 3d 6d a8 11 3e
       0.09120215 0.56895053 0.08758927 0.14224406
000040 2e b7 54 3e 20 6e be 3e 1c d9 24 3f 46 ee 84 3b
       0.20773003 0.37193394 0.6439378 0.0040567247
000050 9d 9e a4 3e df e8 13 3f a1 14 64 3e 2c 2e a5 3e
       0.32152262 0.5777721 0.22273494 0.3226179
000060 33 02 2d 3f df ae bb be 67 4f 36 be 17 90 0c bd
       0.6758148 -0.36656854 -0.17803727 -0.034317102
000070 f3 86 d2 3e 47 9a c6 3e 09 9e 9b 3e 1b f1 a6 3d
       0.41118583 0.3878958 0.3039401 0.08151456

bn3.running_mean f4 [32]
000000 ff 14 c9 3e 69 71 a4 3f f4 d6 b8 3f 5c a0 af 3e
       0.3927383 1.284711 1.4440598 0.34302032
000010 f3 36 05 40 8d d4 64 3f 3f 14 14 40 51 5f c7 3f
       2.0814788 0.89386827 2.3137357 1.5575963
000020 f2 36 d8 3e e9 1b 05 40 b3 78 4a 40 2f 08 c8 3f
       0.4222942 2.0798285 3.163617 1.5627497
000030 79 fe 76 3f 38 8b 36 3f 9a af 47 3f da 0f 8c 3f
       0.96482044 0.7130618 0.7800232 1.0942338
000040 95 41 ab 3f 55 46 16 3f aa f6 cc 3f c1 9c dc 3f
       1.3379389 0.5870107 1.6012776 1.7235337
000050 2a 87 e7 3e b3 09 4e 3f 01 be eb 3f 3f 79 e5 3f
       0.4522031 0.8048355 1.841736 1.7927626
000060 37 ca 10 3f 52 76 02 3f 08 fb c5 3e c0 2e 3b 3f
       0.56558555 0.5096179 0.38668084 0.7311821
000070 14 d6 31 3f c7 b1 e0 3f f5 7c 69 3e 05 94 ef 3d
       0.6946728 1.7554253 0.22801574 0.11698154

bn3.running_var f4 [32]
000000 ee cc 21 40 8a 53 1a 41 9a 66 f7 40 d2 0c 0b 40
       2.528133 9.645395 7.7312746 2.1726575
000010 33 77 42 40 ce 03 87 40 1c 77 16 41 2b 44 2c 40
       3.0385253 4.2192144 9.404079 2.6916606
000020 a1 b1 32 40 d2 81 64 40 e5 c8 d9 40 87 ea 76 40
       2.7920916 3.5704236 6.8057733 3.8580644
000030 1c b1 e0 40 c6 3d 89 40 8d 5b 6e 40 cc 22 28 41
       7.02162 4.2887907 3.7243378 10.508495
000040 db af 16 41 25 17 49 40 2b f4 89 41 b4 89 36 41
       9.417933 3.1420376 17.244223 11.408619
000050 74 a0 41 40 3e 56 5b 40 f8 9c 63 40 f1 a0 98 41
       3.0254183 3.4271388 3.5564556 19.078585
000060 b2 08 84 40 69 70 64 40 e2 95 91 3f 48 ad ef 3f
       4.1260614 3.569361 1.1373866 1.8724756
000070 ab 67 1d 40 a3 0c 32 40 12 ab 71 3f b5 44 da 3e
       2.4594524 2.7820213 0.9440166 0.42630544

conv4.weight f4 [64, 32, 3, 3]
000000 65 59 4f be 80 b0 1e be 78 83 7c be f3 55 6a 3e
       -0.20248945 -0.15497017 -0.24659526 0.2288435
000010 f7 68 48 3e 52 a7 43 bd 85 59 3b be 8f 0a b0 be
       0.19571291 -0.04776699 -0.18295868 -0.34383056
000020 69 da 66 bd 3a 3d 4e 3e 3a 24 f2 3c 1d b7 57 3d
       -0.056360636 0.20140544 0.02955829 0.052664865
000030 89 a0 ad bd 04 d8 39 3d 5b 08 15 be ca ef 57 be
       -0.08477885 0.045372024 -0.14553969 -0.21087566
000040 2c 8e c5 3b 47 d4 1e bd f4 02 dd bd 20 c9 25 be
       0.006028911 -0.038776662 -0.10791579 -0.16190004
000050 ee cd 8e bb 24 c7 aa bd 6e 1d e7 3d c7 1e 21 bc
       -0.004358045 -0.08338764 0.1128491 -0.009833998
000060 2c c3 81 3d 0a b5 51 bd bd 41 00 be ae 1e 09 3e
       0.06336054 -0.051198043 -0.12525077 0.1339061
000070 61 75 93 3d 38 19 1e bd 71 b8 3e bd e4 ac ad 3c
       0.072001226 -0.03859827 -0.046562616 0.021200605
000080 59 16 e9 3c f1 d5 1c be 73 e9 91 3e c4 58 91 3d
       0.028453039 -0.15315987 0.2849842 0.07097009
000090 da 34 37 bc 52 87 48 3d df 7b 16 3e 9e ac 12 bd
       -0.011182034 0.048957177 0.1469569 -0.03580915
0000a0 13 5e 28 bd fe ec 59 3d b5 d1 21 bc 68 4d 58 3d
       -0.04110534 0.05320453 -0.009876658 0.052808195
0000b0 bb f1 a1 bd 3a d1 07 be 35 e3 d7 bd c1 46 20 be
       -0.079074346 -0.13263407 -0.10541383 -0.1565199
0000c0 23 0b 4a 3e 87 76 d9 3d 01 20 42 be 3f dd a4 bd
       0.19730811 0.106183104 -0.18957521 -0.08050012
0000d0 75 1d 89 be 2b 55 e0 bd 7b d1 a8 bd 54 ec a6 3e
       -0.26780286 -0.109537445 -0.0824308 0.3260218
0000e0 b5 ac a3 3c 3d 25 9f 3c f0 26 e5 3c 55 d1 aa bd
       0.019979814 0.019426936 0.027972668 -0.08340708
0000f0 89 26 a5 bd b0 4d 94 3d 3d d2 9c bc 6e 21 b7 3d
       -0.080639906 0.0724138 -0.019143218 0.08941923
000100 41 ca c3 3c e2 09 85 3d db 6c eb 3c 65 06 e3 bc
       0.023900153 0.064960256 0.02873843 -0.02771301
000110 97 21 13 be 11 34 26 3b b8 df 12 3e 78 9e 7c bd
       -0.14368282 0.0025360624 0.14343154 -0.061674565
000120 2c df 9b 3b 34 76 93 3e b3 87 cf bd 14 53 44 be
       0.004756829 0.2880112 -0.101333044 -0.19172317
000130 22 d4 09 3c db b7 de bd e9 75 85 bd d9 54 5d 3e
       0.008412393 -0.108749114 -0.0651663 0.21614398
000140 14 14 d6 bc ba 90 b6 bd 57 0b 56 bd 05 ff 06 3e
       -0.02613262 -0.08914323 -0.05225691 0.1318322
000150 67 a5 32 3d c3 4f 4f 3e 7d 9c 41 3d 6d 0c 51 bc
       0.04361477 0.2024527 0.04726838 -0.01275931
000160 28 41 19 be 4c d3 f1 3d da 7d 7e bd 1c 58 9e bd
       -0.14966261 0.1180788 -0.06213174 -0.07731649
000170 ba 0d ef bd 6d 0a 01 be 77 e1 35 bd ca 95 ca bd
       -0.1167254 -0.12601633 -0.044404473 -0.09891851
000180 55 51 90 bd 17 d3 ff 3d 12 67 13 3d a8 d1 5e 3e
       -0.07046763 0.12491434 0.035986967 0.21759665
000190 62 7b fb bc ef 10 1a 3e 2c 5f 07 3c fe f8 c0 3d
       -0.030698482 0.15045522 0.008262437 0.094224915
0001a0 78 31 55 ba 54 ff d3 bc 35 62 b4 3d f2 08 2d be
       -0.00081326766 -0.025878586 0.08807794 -0.16897944
0001b0 5f 61 82 3d 36 4d dc 3d bc a0 5f bd 23 35 21 be
       0.06366228 0.10756914 -0.054596648 -0.15742926
0001c0 f9 fa df 3d 03 3b d1 bd a4 1e 06 be cc 4d 18 bd
       0.10936541 -0.10216334 -0.13097626 -0.037183568
0001d0 5c 9b 9b bd 86 4c 3e be 49 35 8e bd 62 d7 f0 3c
       -0.07597992 -0.18583879 -0.06943757 0.029399578
0001e0 69 72 9c bd 1c 4e d9 3b 21 94 c9 bc 45 a0 be bd
       -0.076390095 0.006631626 -0.024606766 -0.09307913
0001f0 8c a4 88 3d 78 a0 15 3e 69 60 a7 3b 85 90 b1 3c
       0.0667201 0.14611995 0.0051079285 0.021675358
000200 13 22 de 3d ae ea 9d 3d e7 8c ad bd e9 58 b7 bd
       0.10846343 0.07710777 -0.084741406 -0.08952505
000210 9e 66 02 be 69 47 5a bc 79 00 d3 bc 15 5e 70 3e
       -0.12734458 -0.01332269 -0.025757061 0.2347339
000220 79 73 14 3e 44 4b 58 3e 0b ab 67 3e c7 63 70 3d
       0.14497174 0.21122462 0.22623841 0.058688905
000230 1a 31 93 3d 7e 19 6d 3e 60 b7 ea 3d 7c 4c 55 bc
       0.071871 0.23154256 0.11460757 -0.013018724
000240 1f 49 72 3d 48 f6 d5 3d 1e a9 e2 bc c7 55 27 3d
       0.059151765 0.10447365 -0.027668532 0.040853288
000250 00 ab 60 3e 06 42 0c 3d ce 92 93 bc e2 27 64 3e
       0.21940231 0.034242652 -0.018014338 0.22280839
000260 8c 36 d9 3c b5 74 b1 bc ea 26 1a 3d a9 51 db bd
       0.026515268 -0.021662096 0.037634768 -0.10708935
000270 9a 19 2f 3d f3 d9 06 3c 10 89 32 bd 39 0d b9 bd
       0.042749025 0.008230674 -0.043587744 -0.09035725
000280 bb de 48 bd d8 83 50 bd e5 30 07 3d 0a 1c 5e 3c
       -0.049040537 -0.050906986 0.033005614 0.01355649
000290 63 3b ed 3d fd f4 69 3d 00 a6 82 3d 58 a5 17 be
       0.11583593 0.057118405 0.06379318 -0.14809167
0002a0 dc 83 06 3e 48 80 1f 3e e9 dc fe 3d 5e bc 08 3e
       0.13136238 0.15576279 0.12444479 0.13353106
0002b0 47 e3 cd 3d e7 3d 8b bd 1f ce c4 bd 78 09 98 bc
       0.10053115 -0.06798916 -0.09609627 -0.018559203
0002c0 eb 12 c0 bd b8 20 af bd a9 a1 37 3d 4c 27 76 3d
       -0.09378608 -0.085511625 0.044831906 0.06009607
0002d0 e8 b6 b3 3c 5e 76 91 3e 06 36 c4 3c 1f db ae 3c
       0.021937802 0.2841062 0.023951542 0.02134472
0002e0 22 85 ab bb 90 d1 0f bd 7b b4 44 3e 18 ac ec 3d
       -0.0052343765 -0.035111964 0.19209473 0.11556262
0002f0 24 be a9 3d a0 0f b2 3d 42 3b 2b be bf 01 08 3e
       0.082882196 0.086943865 -0.16721824 0.13281916
000300 2f 90 00 3a e3 7a 9e 3d d7 38 0b be 42 8a fe bd
       0.00049042975 0.077382825 -0.13595901 -0.12428714
000310 45 44 57 bd f5 6b 64 bd 0c bd 16 be a9 4b a5 3c
       -0.05255534 -0.05576702 -0.14720553 0.02017768
000320 63 dc 07 be 9e 8a c1 3d e4 d2 4e 3e 1b e2 9a 3d
       -0.13267665 0.09450267 0.20197636 0.075626574
000330 54 51 64 bd 88 b3 78 3d 96 ad 09 3e 06 94 09 3e
       -0.055741623 0.06071809 0.13445124 0.13435373
000340 f6 68 15 3e 0a 3f 83 3d 8b b4 11 3e d7 f4 3d bc
       0.1459082 0.06408508 0.14229028 -0.011594019
000350 f3 0f 84 3d 64 2a 1d 3e ba 15 f3 bc e0 cd c8 3c
       0.064483546 0.15348202 -0.029673446 0.024512231
000360 e9 19 c0 3d 44 01 7b bd 14 08 9e bd 87 ee 30 bd
       0.09379942 -0.061280504 -0.077163845 -0.043196227
000370 4e 2c 19 be 88 aa 0d be dd 6f c6 3c 62 b5 5b 3d
       -0.14958307 -0.13834584 0.024223262 0.053639777
000380 ce 9c 0d bc bf b7 1a 3d da a9 2b 3e 91 a6 b9 bd
       -0.008643342 0.03777289 0.16764012 -0.09064973
000390 32 c8 16 be 9f ea 83 bc 3b b8 67 be 62 0f f6 bd
       -0.14724806 -0.016103087 -0.22628872 -0.12014653
0003a0 d0 ef 30 3e db 0f 76 3d b0 10 6c bd da 76 98 3c
       0.17278981 0.060073715 -0.057633102 0.01861136
0003b0 34 ae 00 3d f6 12 b2 3d 69 93 85 bd 37 98 5e 3d
       0.031416133 0.08695023 -0.06522257 0.054344382
0003c0 bd 58 88 3d d8 1b 9f 3d ac 4f b1 3d 98 61 b9 bd
       0.066575505 0.07768983 0.08657774 -0.09051818
0003d0 51 81 21 bc 07 34 74 3e 51 8c 01 bc 8e 2a f6 3b
       -0.009857492 0.23847972 -0.007906989 0.007512397
0003e0 e3 ab a7 3e a5 b2 7c 3d 22 c3 d8 3c 8f 70 23 3e
       0.32748327 0.061693806 0.026460234 0.15960906
0003f0 e2 7c 17 be 33 e6 0d bd be 3f 6b 3d 34 3f 98 bd
       -0.14793733 -0.034643363 0.057433836 -0.0743393

conv4.bias f4 [64]
000000 7c 9f 24 be 81 1d 98 be b7 b7 87 be 6b e9 88 bc
       -0.16076463 -0.2971001 -0.2650735 -0.016712865
000010 59 d5 ef 3d ca 61 3f be f7 a6 d3 bd 3e f7 7d 3d
       0.11710615 -0.18689647 -0.103345804 0.062003367
000020 57 f0 49 be 58 c6 5d be 24 c4 e3 bd 32 a1 82 bd
       -0.19720589 -0.21657693 -0.11121395 -0.06378402
000030 7d 8c 1f 3e 2c e8 cc bd ae 1c 2d be ed b8 04 3e
       0.15580936 -0.10005221 -0.16905472 0.12961169
000040 6a 63 8f bd 15 f2 11 3d 7e f8 55 bd 4d e8 18 b9
       -0.070013836 0.035631258 -0.052238934 -0.00014582388
000050 76 72 ef bd da 18 8b be 4e 13 95 be 87 a4 43 be
       -0.116917536 -0.27167398 -0.2911629 -0.19105731
000060 a2 9a b9 3d d2 ab 33 be eb 8e 89 bd 66 e1 c6 bd
       0.09062697 -0.17546013 -0.067167126 -0.0971096
000070 76 2a 94 3d 97 7e bd 3d 76 b7 98 bd 35 b1 9d be
       0.07234661 0.09252661 -0.074568674 -0.3079926
000080 03 75 02 be 09 d7 42 be 0b 59 e7 3d 37 3c 67 3b
       -0.12739949 -0.19027342 0.112962805 0.0035283694
000090 d0 f5 25 be cc bc 70 be 6d 3f b9 3d 98 83 93 3d
       -0.16207051 -0.2350952 0.09045301 0.07202834
0000a0 87 14 cb 3d 86 19 61 bd c9 0d 47 be e0 73 38 be
       0.09916025 -0.05495598 -0.19438852 -0.18012953
0000b0 02 e6 3d 3d b4 7a 11 bd 09 ef 68 be 39 a7 81 3d
       0.04636193 -0.03551741 -0.22747435 0.06330723
0000c0 65 87 c6 be 59 d5 9e bd 37 58 a3 be 40 0f 6f be
       -0.38775173 -0.077555366 -0.3190324 -0.23345661
0000d0 0c da 39 be 55 c4 9f bd b0 61 0e be 9d 11 0d be
       -0.18149585 -0.07801119 -0.13904452 -0.1377625
0000e0 29 92 12 3e 4d c1 90 bd 41 3c 9e be 7b 17 a0 be
       0.14313568 -0.07068119 -0.30905345 -0.31267914
0000f0 19 0c 85 be 86 bd 9e be da 48 50 3d b2 7e 66 be
       -0.25985792 -0.3100397 0.050850727 -0.22509268

bn4.weight f4 [64]
000000 7e 05 5a 3f 44 56 4d 40 55 8e 27 40 33 7e 91 3f
       0.8516463 3.2083902 2.6180623 1.1366638
000010 95 ef 96 3f 98 d7 0f 3f c3 e8 fd 3e 55 63 90 3f
       1.1791865 0.56188345 0.49591646 1.1280314
000020 15 8f 4f 3f 54 07 83 3f e8 c8 4f 3f ef 79 65 3f
       0.810777 1.0236611 0.81165934 0.8963918
000030 c4 dd 65 3f a2 e1 43 3f e3 c0 3a 40 06 82 71 3f
       0.8979151 0.76516163 2.9180229 0.94339025
000040 5d 33 e9 3e b9 c6 71 3f 51 3b 90 3f d6 a6 77 3f
       0.45547 0.9444385 1.1268102 0.96738946
000050 7c 9e 6c 3f 73 03 68 3f 3f 16 85 3f b6 8b 9f 3f
       0.9242933 0.90630263 1.0397414 1.2464511
000060 e1 3a 99 3f 41 9a 64 3f b3 d6 47 3f f2 d6 2a 40
       1.1971093 0.8929787 0.7806198 2.6693692
000070 00 f9 9d 3f 80 44 8d 3f 01 3e 9d 3f f8 99 35 40
       1.2341614 1.103653 1.2284547 2.8375225
000080 1b ed 30 3f 72 38 6b 3f d5 0d 7d 3f 93 d3 40 3f
       0.69111794 0.91883004 0.9884923 0.75322837
000090 cf 52 84 3f f6 43 0a 3f 34 fb 80 3f a1 64 8b 3f
       1.0337771 0.5400995 1.0076661 1.0890085
0000a0 99 fa 92 3f c0 1c 43 3f dd cd 29 40 f7 40 12 40
       1.1482726 0.76215744 2.65319 2.2852151
0000b0 e6 b8 8f 3f ea 74 a2 3f f8 89 a6 3f 4a 32 9d 3f
       1.1228302 1.2691929 1.3010855 1.2280972
0000c0 e7 63 ed 3f d2 0c a2 3f 2b 8f cc 3f fc 99 da 3f
       1.8546113 1.2660162 1.5981191 1.7078242
0000d0 02 a5 6e 3f 81 c3 60 3f a2 83 5a 3f 92 a9 75 3f
       0.9322053 0.87798315 0.85357106 0.9596187
0000e0 60 56 8f 3f 02 5d 09 40 09 cc a1 3f 78 70 8b 3f
       1.1198235 2.1463017 1.2640392 1.0893698
0000f0 c3 78 14 40 22 3b 17 40 f8 7c 74 3f 2d 7a 64 3f
       2.3198707 2.3629842 0.9550319 0.89248925

bn4.bias f4 [64]
000000 0d 9b 8b bd 14 72 2d 3d 46 31 f0 3c 56 1d 16 3d
       -0.06816683 0.04234512 0.02932037 0.03664907
000010 67 4a 46 3d 2a cb 12 bd fd ac 0e be 16 c2 f0 3c
       0.0484108 -0.035838284 -0.13933177 0.029389422
000020 ac 57 01 be ba a1 06 3d 65 29 96 bd c3 aa 85 bd
       -0.126311 0.03286908 -0.07332114 -0.06526711
000030 40 9d bd 3c eb 53 9b 3c 99 dc 57 3c eb fd 0e 3d
       0.023146272 0.018960914 0.013175153 0.034910124
000040 23 46 c5 bd 24 0a 19 3d 0d 24 f7 3c 8b 79 0c 3d
       -0.09632518 0.037363186 0.030168558 0.0342956
000050 45 a7 ff 3c bc 08 1c bc fb b8 08 3d 46 cb b3 3c
       0.03120769 -0.009523567 0.033379536 0.021947514
000060 3b e5 3c 3d c5 f3 8d bd 94 06 b4 bd 44 a1 89 3b
       0.04611705 -0.06931261 -0.08790317 0.0042001326
000070 43 35 f5 ba 6b ff 1f 3d 44 47 18 3d 37 4e 1a 3d
       -0.001870789 0.039061945 0.03717734 0.037672248
000080 2f 81 8b bd bd 8a 84 bd ee c2 40 3d 85 e0 0c 3d
       -0.06811749 -0.06471775 0.0470609 0.034393806
000090 35 12 d4 bc 09 25 79 3d 10 c2 48 3d 9b d5 6d 3c
       -0.025887588 0.060826335 0.049013197 0.01451626
0000a0 e3 74 aa 3c 35 28 a8 bd 90 86 6e bc 5b 55 d2 3b
       0.020807689 -0.08210794 -0.014558449 0.0064188666
0000b0 b0 f5 0b 3d bf db 2b 3d 72 b9 3d 3c f3 20 02 3d
       0.034169853 0.041957613 0.011579858 0.031769704
0000c0 1a de 1b 3c db 7e 9c 3d 1d 7a aa 3d dd 19 b2 bb
       0.009513402 0.07641383 0.083240725 -0.005435212
0000d0 10 36 87 bd f2 b8 7a bd 75 20 98 bd 70 f5 6f bd
       -0.066021085 -0.061211534 -0.07428066 -0.058583677
0000e0 e1 a8 db 3c fe ac b9 bb 19 f5 04 3d c5 92 07 bd
       0.026813926 -0.005666374 0.032460306 -0.033098955
0000f0 c1 1e 02 bc 7a f7 58 3d e5 16 1f 3d 0e 35 8b bd
       -0.007941903 0.052970387 0.038840193 -0.06797229

bn4.running_mean f4 [64]
000000 30 c2 e9 3e 1e 7a d3 3d 14 81 e8 3c 64 02 70 3f
       0.45655966 0.103260264 0.028381862 0.9375365
000010 92 c2 58 3f d1 13 fb 3c 7a c3 55 40 b4 15 c1 40
       0.8467189 0.030649098 3.340056 6.0338993
000020 42 5e 7f 40 2c 35 72 3f f1 c6 33 3f 21 b6 76 3f
       3.990128 0.94612384 0.70225435 0.96371657
000030 d3 ba 88 40 6d 2f e5 3e b8 6d 0d 3e 5f af 95 40
       4.2728057 0.44762745 0.13811386 4.6776576
000040 cc d6 c5 3f 6b f8 6d 40 b8 fb 3e 40 2c 39 86 40
       1.5456176 3.7182872 2.9841137 4.194479
000050 ce 3f 1d 40 8d 42 d8 3d 52 b2 fa 3f b6 89 01 40
       2.4570193 0.105595686 1.9585669 2.0240302
000060 ae 85 bb 3f 53 5e 48 3f 15 af 84 3f ea 32 ac 3e
       1.4650171 0.7826893 1.0365931 0.33632594
000070 77 e6 1c 3f a7 ac 59 40 05 df 89 3e 3d a1 6c 3d
       0.6128916 3.4011629 0.26927963 0.057770956
000080 4b bf 86 3e d4 d5 52 3f b1 1b da 3f 2a 8f a9 3f
       0.2631782 0.82357526 1.7039701 1.3246815
000090 6e a3 9c 3d dc 8c a2 3e 3b 66 7a 40 1b 95 4f 40
       0.07648359 0.31748092 3.9124897 3.2434757
0000a0 95 5a 9f 3f d3 88 1d 3f 11 35 1b 3e 28 15 a7 3d
       1.2449518 0.615369 0.15156962 0.08158332
0000b0 01 7e d1 3f 86 4f 40 3f 59 a1 7c 3e e5 97 96 3f
       1.6366578 0.75121343 0.24670924 1.1765105
0000c0 54 08 c4 3d e0 bd 4c 3f 60 33 1b 3e fa ca 71 3e
       0.09571901 0.79977226 0.15156317 0.23612586
0000d0 5e fa 10 3f 48 1e 15 40 44 7d ac 3f 82 72 3c 3f
       0.5663203 2.3299732 1.3475728 0.73612225
0000e0 44 58 7d 3f b1 3b f5 3d 18 7f 08 40 62 48 81 3e
       0.9896281 0.11974276 2.1327572 0.25250536
0000f0 42 01 2f 3e 9d a9 b7 3d bc c3 86 40 38 cf 0d 3f
       0.17090324 0.08967898 4.2113934 0.55394316

bn4.running_var f4 [64]
000000 e2 b0 de 3f d7 91 5c 3f a2 87 0e 3e a4 e7 a1 40
       1.739773 0.86160034 0.13918927 5.0595264
000010 40 1e 1f 40 79 09 ae 3d 68 94 65 41 d2 5e 48 42
       2.4862213 0.084979005 14.348732 50.092598
000020 c1 36 53 42 d4 65 df 40 a2 fa 70 40 66 c9 c7 40
       52.80347 6.98118 3.7652974 6.243335
000030 05 43 c0 41 6f da a0 3f 43 04 8b 3f 92 0f e4 41
       24.032724 1.2566661 1.0860676 28.507603
000040 20 9c f1 40 e3 52 eb 41 68 e0 d7 41 0b c5 fa 41
       7.550308 29.415472 26.984573 31.346212
000050 22 78 b0 41 77 7d 40 3f 28 97 a8 41 11 bf 9e 41
       22.058659 0.75191444 21.073807 19.843294
000060 35 a0 aa 40 f2 16 88 40 8d 63 b3 40 9b 13 74 40
       5.3320565 4.252801 5.605902 3.8136966
000070 53 e1 e7 3f 07 5a b7 41 0e a7 78 3f a0 be e7 3e
       1.8115638 22.918959 0.97129905 0.45262623
000080 59 f8 4e 3f 9e 6e 84 40 82 88 02 41 e3 fa 9f 40
       0.808477 4.138503 8.158327 4.999376
000090 49 2b e6 3e fb 78 6d 3f 6c cc 0f 42 17 f9 d7 41
       0.449549 0.92762727 35.94963 26.996626
0000a0 dc 8c 35 40 f3 c8 8c 3f 59 49 c3 3f 5a 8d fe 3e
       2.8367224 1.0998825 1.5256759 0.49717218
0000b0 8e 54 c9 40 35 da 20 40 f1 48 95 3f 0a 7f 6a 40
       6.2915716 2.5133183 1.1662885 3.6640038
0000c0 27 01 2b 3f f5 52 44 40 79 83 6d 3f 3e d5 d8 3f
       0.66798633 3.0675633 0.92778736 1.6940076
0000d0 3e 23 55 40 8f ae d5 40 1c b4 33 40 46 72 89 40
       3.330276 6.6775584 2.807868 4.2951994
0000e0 6d 3e 21 40 a3 62 50 3f 0b 58 bd 41 48 6c fb 3f
       2.5194352 0.8140051 23.66799 1.964242
0000f0 3e 37 b6 3f a8 d8 40 3f 27 b4 0a 42 a3 b9 3b 40
       1.4235609 0.7533059 34.67593 2.9332054

lin.weight f4 [2, 64]
000000 0e c7 a9 bc e8 80 9d bf 5f e0 71 bf 82 46 11 3e
       -0.0207248 -1.2304964 -0.9448299 0.14187053
000010 a5 59 54 3e bb ad 6a bd 85 a4 d2 bd 09 54 2f 3e
       0.20737322 -0.05729459 -0.10285286 0.171219
000020 99 a8 74 3d f5 aa 79 3d 0e 3e 26 bd 54 ec 80 bd
       0.0597311 0.060954053 -0.040586524 -0.06295076
000030 28 e0 e4 3d 8f 3d 20 bd 95 52 8c bf c9 c8 91 3d
       0.11175567 -0.039121207 -1.0962702 0.07118375
000040 60 c2 71 3d e3 61 85 3d 25 5f 28 3e 55 af d3 3d
       0.05902326 0.06512811 0.16442545 0.10336176
000050 1a 09 93 3b 5e e0 5f bd 92 5f b0 3d 1a f2 56 3e
       0.004487169 -0.054657333 0.086119786 0.20990792
000060 2d ae 94 3e 6b b2 77 bd dc 8e 66 bd 43 c8 5b bf
       0.29039136 -0.060472887 -0.056288585 -0.8585245
000070 12 75 a1 3e 41 ad 71 3e d6 dd a1 3e b6 92 69 bf
       0.3153463 0.23601247 0.3161456 -0.9123949
000080 de 6e a5 bc 40 45 11 3d ff 87 f8 3d 06 c0 dc bc
       -0.020194467 0.035466433 0.12135314 -0.026947033
000090 9c 0a 41 bd 5c 5b 63 3d 37 ee 82 3c ba 5b 68 3e
       -0.04712926 0.05550705 0.01598273 0.22691241
0000a0 1a 29 3b 3e 88 62 ea ba 8b 2c 46 bf 6d 31 48 bf
       0.18277398 -0.0017882148 -0.7741172 -0.7820042
0000b0 65 57 4e 3e 73 21 71 3e 37 04 8b 3e a0 0e 59 3e
       0.20150526 0.23547916 0.27151653 0.21196985
0000c0 79 4f 05 bf 13 08 86 3e c1 04 a0 be 0f 82 fa be
       -0.5207439 0.26178035 -0.31253627 -0.48927352
0000d0 16 93 d1 bd f3 ae 7a bd b8 86 a7 3d 73 99 db bd
       -0.102331325 -0.061202 0.081799924 -0.107226275
0000e0 aa cf f5 3d 31 ac 3a bf a7 7b 8c 3e dd 4e e4 3c
       0.120024994 -0.72918993 0.2743809 0.027869636
0000f0 41 25 6e bf 3b 14 19 bf 55 e3 fc 3d 04 3d dc bc
       -0.93025595 -0.59796494 0.12348048 -0.026884563
000100 83 51 e9 3c f6 70 99 3f f2 6b 7a 3f 9f 99 18 be
       0.02848125 1.1987598 0.9782096 -0.14902352
000110 7f 37 55 be 32 a7 b2 bd 18 3d f4 bd e8 ce 61 be
       -0.20821951 -0.08723296 -0.11925715 -0.22051585
000120 0d a2 5f bd cc 42 33 be 26 9b 6d bb 9b 36 0b 3d
       -0.054597903 -0.1750595 -0.0036255806 0.033987623
000130 1c 90 bf bc f4 a7 81 bd 06 f6 7b 3f 37 ae dc bd
       -0.023384146 -0.06330863 0.98422277 -0.10775416
000140 f3 bf 52 3d d2 72 a6 bd 7b da 7c be e8 3d f1 bd
       0.05145259 -0.08127369 -0.24692719 -0.11779386
000150 7f cd 04 be 76 7e 87 3d 68 49 13 be e3 6c 95 be
       -0.12969016 0.066159174 -0.14383471 -0.29184636
000160 f6 49 20 be 41 52 1d 3d b5 72 6a bd 63 90 6d 3f
       -0.15653214 0.03840852 -0.0572383 0.9279844
000170 80 0d 01 be 7c 21 23 be 0e de 86 be 63 13 86 3f
       -0.12602806 -0.15930742 -0.2634129 1.0474666
000180 9c aa 86 bc cd 16 14 3e d3 83 d8 bd 22 90 45 bd
       -0.016438775 0.14461823 -0.105720185 -0.04823316
000190 32 db 36 3e ad 05 bc 3d fb 90 3c be d7 b1 e6 bd
       0.17857054 0.0918077 -0.1841468 -0.11264389
0001a0 79 70 65 be f5 4e 7d bc 20 12 76 3f 58 f6 4f 3f
       -0.22406186 -0.015460719 0.96121407 0.81235266
0001b0 08 b8 16 be c9 05 9e be 62 b1 78 be 46 f7 9b be
       -0.1471864 -0.3086379 -0.24286416 -0.30462092
0001c0 d9 aa cb 3e 90 67 8c be 81 89 a2 3e 73 ba e0 3e
       0.39778784 -0.27422762 0.31745532 0.4389225
0001d0 df d6 77 3d 08 40 59 3d 63 ac 06 3e 53 4c df 3d
       0.06050765 0.05303958 0.13151698 0.109032296
0001e0 cf 96 4b be ed c9 13 3f 65 7e a0 be 3c 80 63 be
       -0.19881748 0.5772999 -0.3134643 -0.22216886
0001f0 28 1d 74 3f d1 14 09 3f 65 e2 8f bc 4f 49 83 3d
       0.9535699 0.5354739 -0.017564008 0.06410467

lin.bias f4 [2]
000000 e0 9b 98 bc 0a cf b0 bd
       -0.018629014 -0.086332396
